{"modelTopology":{"node":[{"input":[],"attr":{"value":{"tensor":{"floatVal":[],"doubleVal":[],"intVal":[],"stringVal":[],"scomplexVal":[],"int64Val":[],"boolVal":[],"uint32Val":[],"uint64Val":[],"dtype":1,"tensorShape":{"dim":[{"size":"1"},{"size":"1"},{"size":"768"},{"size":"192"}]}}},"dtype":{"type":1}},"name":"InceptionV3/Mixed_6e/Branch_0/Conv2d_0a_1x1/weights","op":"Const"},{"input":[],"attr":{"value":{"tensor":{"floatVal":[],"doubleVal":[],"intVal":[],"stringVal":[],"scomplexVal":[],"int64Val":[],"boolVal":[],"uint32Val":[],"uint64Val":[],"dtype":1,"tensorShape":{"dim":[{"size":"192"}]}}},"dtype":{"type":1}},"name":"InceptionV3/Mixed_6e/Branch_0/Conv2d_0a_1x1/BatchNorm/beta","op":"Const"},{"input":[],"attr":{"value":{"tensor":{"floatVal":[],"doubleVal":[],"intVal":[],"stringVal":[],"scomplexVal":[],"int64Val":[],"boolVal":[],"uint32Val":[],"uint64Val":[],"dtype":1,"tensorShape":{"dim":[{"size":"192"}]}}},"dtype":{"type":1}},"name":"InceptionV3/Mixed_6e/Branch_0/Conv2d_0a_1x1/BatchNorm/moving_mean","op":"Const"},{"input":[],"attr":{"value":{"tensor":{"floatVal":[],"doubleVal":[],"intVal":[],"stringVal":[],"scomplexVal":[],"int64Val":[],"boolVal":[],"uint32Val":[],"uint64Val":[],"dtype":1,"tensorShape":{"dim":[{"size":"192"}]}}},"dtype":{"type":1}},"name":"InceptionV3/Mixed_6e/Branch_0/Conv2d_0a_1x1/BatchNorm/moving_variance","op":"Const"},{"input":[],"attr":{"dtype":{"type":1},"value":{"tensor":{"floatVal":[],"doubleVal":[],"intVal":[],"stringVal":[],"scomplexVal":[],"int64Val":[],"boolVal":[],"uint32Val":[],"uint64Val":[],"dtype":1,"tensorShape":{"dim":[{"size":"1"},{"size":"1"},{"size":"768"},{"size":"192"}]}}}},"name":"InceptionV3/Mixed_6e/Branch_1/Conv2d_0a_1x1/weights","op":"Const"},{"input":[],"attr":{"value":{"tensor":{"floatVal":[],"doubleVal":[],"intVal":[],"stringVal":[],"scomplexVal":[],"int64Val":[],"boolVal":[],"uint32Val":[],"uint64Val":[],"dtype":1,"tensorShape":{"dim":[{"size":"192"}]}}},"dtype":{"type":1}},"name":"InceptionV3/Mixed_6e/Branch_1/Conv2d_0a_1x1/BatchNorm/beta","op":"Const"},{"input":[],"attr":{"value":{"tensor":{"floatVal":[],"doubleVal":[],"intVal":[],"stringVal":[],"scomplexVal":[],"int64Val":[],"boolVal":[],"uint32Val":[],"uint64Val":[],"dtype":1,"tensorShape":{"dim":[{"size":"192"}]}}},"dtype":{"type":1}},"name":"InceptionV3/Mixed_6e/Branch_1/Conv2d_0a_1x1/BatchNorm/moving_mean","op":"Const"},{"input":[],"attr":{"value":{"tensor":{"floatVal":[],"doubleVal":[],"intVal":[],"stringVal":[],"scomplexVal":[],"int64Val":[],"boolVal":[],"uint32Val":[],"uint64Val":[],"dtype":1,"tensorShape":{"dim":[{"size":"192"}]}}},"dtype":{"type":1}},"name":"InceptionV3/Mixed_6e/Branch_1/Conv2d_0a_1x1/BatchNorm/moving_variance","op":"Const"},{"input":[],"attr":{"value":{"tensor":{"floatVal":[],"doubleVal":[],"intVal":[],"stringVal":[],"scomplexVal":[],"int64Val":[],"boolVal":[],"uint32Val":[],"uint64Val":[],"dtype":1,"tensorShape":{"dim":[{"size":"1"},{"size":"7"},{"size":"192"},{"size":"192"}]}}},"dtype":{"type":1}},"name":"InceptionV3/Mixed_6e/Branch_1/Conv2d_0b_1x7/weights","op":"Const"},{"input":[],"attr":{"value":{"tensor":{"floatVal":[],"doubleVal":[],"intVal":[],"stringVal":[],"scomplexVal":[],"int64Val":[],"boolVal":[],"uint32Val":[],"uint64Val":[],"dtype":1,"tensorShape":{"dim":[{"size":"192"}]}}},"dtype":{"type":1}},"name":"InceptionV3/Mixed_6e/Branch_1/Conv2d_0b_1x7/BatchNorm/beta","op":"Const"},{"input":[],"attr":{"value":{"tensor":{"floatVal":[],"doubleVal":[],"intVal":[],"stringVal":[],"scomplexVal":[],"int64Val":[],"boolVal":[],"uint32Val":[],"uint64Val":[],"dtype":1,"tensorShape":{"dim":[{"size":"192"}]}}},"dtype":{"type":1}},"name":"InceptionV3/Mixed_6e/Branch_1/Conv2d_0b_1x7/BatchNorm/moving_mean","op":"Const"},{"input":[],"attr":{"value":{"tensor":{"floatVal":[],"doubleVal":[],"intVal":[],"stringVal":[],"scomplexVal":[],"int64Val":[],"boolVal":[],"uint32Val":[],"uint64Val":[],"dtype":1,"tensorShape":{"dim":[{"size":"192"}]}}},"dtype":{"type":1}},"name":"InceptionV3/Mixed_6e/Branch_1/Conv2d_0b_1x7/BatchNorm/moving_variance","op":"Const"},{"input":[],"attr":{"value":{"tensor":{"floatVal":[],"doubleVal":[],"intVal":[],"stringVal":[],"scomplexVal":[],"int64Val":[],"boolVal":[],"uint32Val":[],"uint64Val":[],"dtype":1,"tensorShape":{"dim":[{"size":"7"},{"size":"1"},{"size":"192"},{"size":"192"}]}}},"dtype":{"type":1}},"name":"InceptionV3/Mixed_6e/Branch_1/Conv2d_0c_7x1/weights","op":"Const"},{"input":[],"attr":{"value":{"tensor":{"floatVal":[],"doubleVal":[],"intVal":[],"stringVal":[],"scomplexVal":[],"int64Val":[],"boolVal":[],"uint32Val":[],"uint64Val":[],"dtype":1,"tensorShape":{"dim":[{"size":"192"}]}}},"dtype":{"type":1}},"name":"InceptionV3/Mixed_6e/Branch_1/Conv2d_0c_7x1/BatchNorm/beta","op":"Const"},{"input":[],"attr":{"value":{"tensor":{"floatVal":[],"doubleVal":[],"intVal":[],"stringVal":[],"scomplexVal":[],"int64Val":[],"boolVal":[],"uint32Val":[],"uint64Val":[],"dtype":1,"tensorShape":{"dim":[{"size":"192"}]}}},"dtype":{"type":1}},"name":"InceptionV3/Mixed_6e/Branch_1/Conv2d_0c_7x1/BatchNorm/moving_mean","op":"Const"},{"input":[],"attr":{"value":{"tensor":{"floatVal":[],"doubleVal":[],"intVal":[],"stringVal":[],"scomplexVal":[],"int64Val":[],"boolVal":[],"uint32Val":[],"uint64Val":[],"dtype":1,"tensorShape":{"dim":[{"size":"192"}]}}},"dtype":{"type":1}},"name":"InceptionV3/Mixed_6e/Branch_1/Conv2d_0c_7x1/BatchNorm/moving_variance","op":"Const"},{"input":[],"attr":{"value":{"tensor":{"floatVal":[],"doubleVal":[],"intVal":[],"stringVal":[],"scomplexVal":[],"int64Val":[],"boolVal":[],"uint32Val":[],"uint64Val":[],"dtype":1,"tensorShape":{"dim":[{"size":"1"},{"size":"1"},{"size":"768"},{"size":"192"}]}}},"dtype":{"type":1}},"name":"InceptionV3/Mixed_6e/Branch_2/Conv2d_0a_1x1/weights","op":"Const"},{"input":[],"attr":{"value":{"tensor":{"floatVal":[],"doubleVal":[],"intVal":[],"stringVal":[],"scomplexVal":[],"int64Val":[],"boolVal":[],"uint32Val":[],"uint64Val":[],"dtype":1,"tensorShape":{"dim":[{"size":"192"}]}}},"dtype":{"type":1}},"name":"InceptionV3/Mixed_6e/Branch_2/Conv2d_0a_1x1/BatchNorm/beta","op":"Const"},{"input":[],"attr":{"dtype":{"type":1},"value":{"tensor":{"floatVal":[],"doubleVal":[],"intVal":[],"stringVal":[],"scomplexVal":[],"int64Val":[],"boolVal":[],"uint32Val":[],"uint64Val":[],"dtype":1,"tensorShape":{"dim":[{"size":"192"}]}}}},"name":"InceptionV3/Mixed_6e/Branch_2/Conv2d_0a_1x1/BatchNorm/moving_mean","op":"Const"},{"input":[],"attr":{"value":{"tensor":{"floatVal":[],"doubleVal":[],"intVal":[],"stringVal":[],"scomplexVal":[],"int64Val":[],"boolVal":[],"uint32Val":[],"uint64Val":[],"dtype":1,"tensorShape":{"dim":[{"size":"192"}]}}},"dtype":{"type":1}},"name":"InceptionV3/Mixed_6e/Branch_2/Conv2d_0a_1x1/BatchNorm/moving_variance","op":"Const"},{"input":[],"attr":{"value":{"tensor":{"floatVal":[],"doubleVal":[],"intVal":[],"stringVal":[],"scomplexVal":[],"int64Val":[],"boolVal":[],"uint32Val":[],"uint64Val":[],"dtype":1,"tensorShape":{"dim":[{"size":"7"},{"size":"1"},{"size":"192"},{"size":"192"}]}}},"dtype":{"type":1}},"name":"InceptionV3/Mixed_6e/Branch_2/Conv2d_0b_7x1/weights","op":"Const"},{"input":[],"attr":{"value":{"tensor":{"floatVal":[],"doubleVal":[],"intVal":[],"stringVal":[],"scomplexVal":[],"int64Val":[],"boolVal":[],"uint32Val":[],"uint64Val":[],"dtype":1,"tensorShape":{"dim":[{"size":"192"}]}}},"dtype":{"type":1}},"name":"InceptionV3/Mixed_6e/Branch_2/Conv2d_0b_7x1/BatchNorm/beta","op":"Const"},{"input":[],"attr":{"value":{"tensor":{"floatVal":[],"doubleVal":[],"intVal":[],"stringVal":[],"scomplexVal":[],"int64Val":[],"boolVal":[],"uint32Val":[],"uint64Val":[],"dtype":1,"tensorShape":{"dim":[{"size":"192"}]}}},"dtype":{"type":1}},"name":"InceptionV3/Mixed_6e/Branch_2/Conv2d_0b_7x1/BatchNorm/moving_mean","op":"Const"},{"input":[],"attr":{"value":{"tensor":{"floatVal":[],"doubleVal":[],"intVal":[],"stringVal":[],"scomplexVal":[],"int64Val":[],"boolVal":[],"uint32Val":[],"uint64Val":[],"dtype":1,"tensorShape":{"dim":[{"size":"192"}]}}},"dtype":{"type":1}},"name":"InceptionV3/Mixed_6e/Branch_2/Conv2d_0b_7x1/BatchNorm/moving_variance","op":"Const"},{"input":[],"attr":{"value":{"tensor":{"floatVal":[],"doubleVal":[],"intVal":[],"stringVal":[],"scomplexVal":[],"int64Val":[],"boolVal":[],"uint32Val":[],"uint64Val":[],"dtype":1,"tensorShape":{"dim":[{"size":"1"},{"size":"7"},{"size":"192"},{"size":"192"}]}}},"dtype":{"type":1}},"name":"InceptionV3/Mixed_6e/Branch_2/Conv2d_0c_1x7/weights","op":"Const"},{"input":[],"attr":{"value":{"tensor":{"floatVal":[],"doubleVal":[],"intVal":[],"stringVal":[],"scomplexVal":[],"int64Val":[],"boolVal":[],"uint32Val":[],"uint64Val":[],"dtype":1,"tensorShape":{"dim":[{"size":"192"}]}}},"dtype":{"type":1}},"name":"InceptionV3/Mixed_6e/Branch_2/Conv2d_0c_1x7/BatchNorm/beta","op":"Const"},{"input":[],"attr":{"value":{"tensor":{"floatVal":[],"doubleVal":[],"intVal":[],"stringVal":[],"scomplexVal":[],"int64Val":[],"boolVal":[],"uint32Val":[],"uint64Val":[],"dtype":1,"tensorShape":{"dim":[{"size":"192"}]}}},"dtype":{"type":1}},"name":"InceptionV3/Mixed_6e/Branch_2/Conv2d_0c_1x7/BatchNorm/moving_mean","op":"Const"},{"input":[],"attr":{"value":{"tensor":{"floatVal":[],"doubleVal":[],"intVal":[],"stringVal":[],"scomplexVal":[],"int64Val":[],"boolVal":[],"uint32Val":[],"uint64Val":[],"dtype":1,"tensorShape":{"dim":[{"size":"192"}]}}},"dtype":{"type":1}},"name":"InceptionV3/Mixed_6e/Branch_2/Conv2d_0c_1x7/BatchNorm/moving_variance","op":"Const"},{"input":[],"attr":{"value":{"tensor":{"floatVal":[],"doubleVal":[],"intVal":[],"stringVal":[],"scomplexVal":[],"int64Val":[],"boolVal":[],"uint32Val":[],"uint64Val":[],"dtype":1,"tensorShape":{"dim":[{"size":"7"},{"size":"1"},{"size":"192"},{"size":"192"}]}}},"dtype":{"type":1}},"name":"InceptionV3/Mixed_6e/Branch_2/Conv2d_0d_7x1/weights","op":"Const"},{"input":[],"attr":{"value":{"tensor":{"floatVal":[],"doubleVal":[],"intVal":[],"stringVal":[],"scomplexVal":[],"int64Val":[],"boolVal":[],"uint32Val":[],"uint64Val":[],"dtype":1,"tensorShape":{"dim":[{"size":"192"}]}}},"dtype":{"type":1}},"name":"InceptionV3/Mixed_6e/Branch_2/Conv2d_0d_7x1/BatchNorm/beta","op":"Const"},{"input":[],"attr":{"value":{"tensor":{"floatVal":[],"doubleVal":[],"intVal":[],"stringVal":[],"scomplexVal":[],"int64Val":[],"boolVal":[],"uint32Val":[],"uint64Val":[],"dtype":1,"tensorShape":{"dim":[{"size":"192"}]}}},"dtype":{"type":1}},"name":"InceptionV3/Mixed_6e/Branch_2/Conv2d_0d_7x1/BatchNorm/moving_mean","op":"Const"},{"input":[],"attr":{"value":{"tensor":{"floatVal":[],"doubleVal":[],"intVal":[],"stringVal":[],"scomplexVal":[],"int64Val":[],"boolVal":[],"uint32Val":[],"uint64Val":[],"dtype":1,"tensorShape":{"dim":[{"size":"192"}]}}},"dtype":{"type":1}},"name":"InceptionV3/Mixed_6e/Branch_2/Conv2d_0d_7x1/BatchNorm/moving_variance","op":"Const"},{"input":[],"attr":{"value":{"tensor":{"floatVal":[],"doubleVal":[],"intVal":[],"stringVal":[],"scomplexVal":[],"int64Val":[],"boolVal":[],"uint32Val":[],"uint64Val":[],"dtype":1,"tensorShape":{"dim":[{"size":"1"},{"size":"7"},{"size":"192"},{"size":"192"}]}}},"dtype":{"type":1}},"name":"InceptionV3/Mixed_6e/Branch_2/Conv2d_0e_1x7/weights","op":"Const"},{"input":[],"attr":{"value":{"tensor":{"floatVal":[],"doubleVal":[],"intVal":[],"stringVal":[],"scomplexVal":[],"int64Val":[],"boolVal":[],"uint32Val":[],"uint64Val":[],"dtype":1,"tensorShape":{"dim":[{"size":"192"}]}}},"dtype":{"type":1}},"name":"InceptionV3/Mixed_6e/Branch_2/Conv2d_0e_1x7/BatchNorm/beta","op":"Const"},{"input":[],"attr":{"value":{"tensor":{"floatVal":[],"doubleVal":[],"intVal":[],"stringVal":[],"scomplexVal":[],"int64Val":[],"boolVal":[],"uint32Val":[],"uint64Val":[],"dtype":1,"tensorShape":{"dim":[{"size":"192"}]}}},"dtype":{"type":1}},"name":"InceptionV3/Mixed_6e/Branch_2/Conv2d_0e_1x7/BatchNorm/moving_mean","op":"Const"},{"input":[],"attr":{"value":{"tensor":{"floatVal":[],"doubleVal":[],"intVal":[],"stringVal":[],"scomplexVal":[],"int64Val":[],"boolVal":[],"uint32Val":[],"uint64Val":[],"dtype":1,"tensorShape":{"dim":[{"size":"192"}]}}},"dtype":{"type":1}},"name":"InceptionV3/Mixed_6e/Branch_2/Conv2d_0e_1x7/BatchNorm/moving_variance","op":"Const"},{"input":[],"attr":{"value":{"tensor":{"floatVal":[],"doubleVal":[],"intVal":[],"stringVal":[],"scomplexVal":[],"int64Val":[],"boolVal":[],"uint32Val":[],"uint64Val":[],"dtype":1,"tensorShape":{"dim":[{"size":"1"},{"size":"1"},{"size":"768"},{"size":"192"}]}}},"dtype":{"type":1}},"name":"InceptionV3/Mixed_6d/Branch_0/Conv2d_0a_1x1/weights","op":"Const"},{"input":[],"attr":{"value":{"tensor":{"floatVal":[],"doubleVal":[],"intVal":[],"stringVal":[],"scomplexVal":[],"int64Val":[],"boolVal":[],"uint32Val":[],"uint64Val":[],"dtype":1,"tensorShape":{"dim":[{"size":"192"}]}}},"dtype":{"type":1}},"name":"InceptionV3/Mixed_6d/Branch_0/Conv2d_0a_1x1/BatchNorm/beta","op":"Const"},{"input":[],"attr":{"value":{"tensor":{"floatVal":[],"doubleVal":[],"intVal":[],"stringVal":[],"scomplexVal":[],"int64Val":[],"boolVal":[],"uint32Val":[],"uint64Val":[],"dtype":1,"tensorShape":{"dim":[{"size":"192"}]}}},"dtype":{"type":1}},"name":"InceptionV3/Mixed_6d/Branch_0/Conv2d_0a_1x1/BatchNorm/moving_mean","op":"Const"},{"input":[],"attr":{"dtype":{"type":1},"value":{"tensor":{"floatVal":[],"doubleVal":[],"intVal":[],"stringVal":[],"scomplexVal":[],"int64Val":[],"boolVal":[],"uint32Val":[],"uint64Val":[],"dtype":1,"tensorShape":{"dim":[{"size":"192"}]}}}},"name":"InceptionV3/Mixed_6d/Branch_0/Conv2d_0a_1x1/BatchNorm/moving_variance","op":"Const"},{"input":[],"attr":{"value":{"tensor":{"floatVal":[],"doubleVal":[],"intVal":[],"stringVal":[],"scomplexVal":[],"int64Val":[],"boolVal":[],"uint32Val":[],"uint64Val":[],"dtype":1,"tensorShape":{"dim":[{"size":"1"},{"size":"1"},{"size":"768"},{"size":"160"}]}}},"dtype":{"type":1}},"name":"InceptionV3/Mixed_6d/Branch_1/Conv2d_0a_1x1/weights","op":"Const"},{"input":[],"attr":{"dtype":{"type":1},"value":{"tensor":{"floatVal":[],"doubleVal":[],"intVal":[],"stringVal":[],"scomplexVal":[],"int64Val":[],"boolVal":[],"uint32Val":[],"uint64Val":[],"dtype":1,"tensorShape":{"dim":[{"size":"160"}]}}}},"name":"InceptionV3/Mixed_6d/Branch_1/Conv2d_0a_1x1/BatchNorm/beta","op":"Const"},{"input":[],"attr":{"value":{"tensor":{"floatVal":[],"doubleVal":[],"intVal":[],"stringVal":[],"scomplexVal":[],"int64Val":[],"boolVal":[],"uint32Val":[],"uint64Val":[],"dtype":1,"tensorShape":{"dim":[{"size":"160"}]}}},"dtype":{"type":1}},"name":"InceptionV3/Mixed_6d/Branch_1/Conv2d_0a_1x1/BatchNorm/moving_mean","op":"Const"},{"input":[],"attr":{"value":{"tensor":{"floatVal":[],"doubleVal":[],"intVal":[],"stringVal":[],"scomplexVal":[],"int64Val":[],"boolVal":[],"uint32Val":[],"uint64Val":[],"dtype":1,"tensorShape":{"dim":[{"size":"160"}]}}},"dtype":{"type":1}},"name":"InceptionV3/Mixed_6d/Branch_1/Conv2d_0a_1x1/BatchNorm/moving_variance","op":"Const"},{"input":[],"attr":{"value":{"tensor":{"floatVal":[],"doubleVal":[],"intVal":[],"stringVal":[],"scomplexVal":[],"int64Val":[],"boolVal":[],"uint32Val":[],"uint64Val":[],"dtype":1,"tensorShape":{"dim":[{"size":"1"},{"size":"7"},{"size":"160"},{"size":"160"}]}}},"dtype":{"type":1}},"name":"InceptionV3/Mixed_6d/Branch_1/Conv2d_0b_1x7/weights","op":"Const"},{"input":[],"attr":{"value":{"tensor":{"floatVal":[],"doubleVal":[],"intVal":[],"stringVal":[],"scomplexVal":[],"int64Val":[],"boolVal":[],"uint32Val":[],"uint64Val":[],"dtype":1,"tensorShape":{"dim":[{"size":"160"}]}}},"dtype":{"type":1}},"name":"InceptionV3/Mixed_6d/Branch_1/Conv2d_0b_1x7/BatchNorm/beta","op":"Const"},{"input":[],"attr":{"value":{"tensor":{"floatVal":[],"doubleVal":[],"intVal":[],"stringVal":[],"scomplexVal":[],"int64Val":[],"boolVal":[],"uint32Val":[],"uint64Val":[],"dtype":1,"tensorShape":{"dim":[{"size":"160"}]}}},"dtype":{"type":1}},"name":"InceptionV3/Mixed_6d/Branch_1/Conv2d_0b_1x7/BatchNorm/moving_mean","op":"Const"},{"input":[],"attr":{"value":{"tensor":{"floatVal":[],"doubleVal":[],"intVal":[],"stringVal":[],"scomplexVal":[],"int64Val":[],"boolVal":[],"uint32Val":[],"uint64Val":[],"dtype":1,"tensorShape":{"dim":[{"size":"160"}]}}},"dtype":{"type":1}},"name":"InceptionV3/Mixed_6d/Branch_1/Conv2d_0b_1x7/BatchNorm/moving_variance","op":"Const"},{"input":[],"attr":{"dtype":{"type":1},"value":{"tensor":{"floatVal":[],"doubleVal":[],"intVal":[],"stringVal":[],"scomplexVal":[],"int64Val":[],"boolVal":[],"uint32Val":[],"uint64Val":[],"dtype":1,"tensorShape":{"dim":[{"size":"7"},{"size":"1"},{"size":"160"},{"size":"192"}]}}}},"name":"InceptionV3/Mixed_6d/Branch_1/Conv2d_0c_7x1/weights","op":"Const"},{"input":[],"attr":{"value":{"tensor":{"floatVal":[],"doubleVal":[],"intVal":[],"stringVal":[],"scomplexVal":[],"int64Val":[],"boolVal":[],"uint32Val":[],"uint64Val":[],"dtype":1,"tensorShape":{"dim":[{"size":"192"}]}}},"dtype":{"type":1}},"name":"InceptionV3/Mixed_6d/Branch_1/Conv2d_0c_7x1/BatchNorm/beta","op":"Const"},{"input":[],"attr":{"value":{"tensor":{"floatVal":[],"doubleVal":[],"intVal":[],"stringVal":[],"scomplexVal":[],"int64Val":[],"boolVal":[],"uint32Val":[],"uint64Val":[],"dtype":1,"tensorShape":{"dim":[{"size":"192"}]}}},"dtype":{"type":1}},"name":"InceptionV3/Mixed_6d/Branch_1/Conv2d_0c_7x1/BatchNorm/moving_mean","op":"Const"},{"input":[],"attr":{"value":{"tensor":{"floatVal":[],"doubleVal":[],"intVal":[],"stringVal":[],"scomplexVal":[],"int64Val":[],"boolVal":[],"uint32Val":[],"uint64Val":[],"dtype":1,"tensorShape":{"dim":[{"size":"192"}]}}},"dtype":{"type":1}},"name":"InceptionV3/Mixed_6d/Branch_1/Conv2d_0c_7x1/BatchNorm/moving_variance","op":"Const"},{"input":[],"attr":{"value":{"tensor":{"floatVal":[],"doubleVal":[],"intVal":[],"stringVal":[],"scomplexVal":[],"int64Val":[],"boolVal":[],"uint32Val":[],"uint64Val":[],"dtype":1,"tensorShape":{"dim":[{"size":"1"},{"size":"1"},{"size":"768"},{"size":"160"}]}}},"dtype":{"type":1}},"name":"InceptionV3/Mixed_6d/Branch_2/Conv2d_0a_1x1/weights","op":"Const"},{"input":[],"attr":{"value":{"tensor":{"floatVal":[],"doubleVal":[],"intVal":[],"stringVal":[],"scomplexVal":[],"int64Val":[],"boolVal":[],"uint32Val":[],"uint64Val":[],"dtype":1,"tensorShape":{"dim":[{"size":"160"}]}}},"dtype":{"type":1}},"name":"InceptionV3/Mixed_6d/Branch_2/Conv2d_0a_1x1/BatchNorm/beta","op":"Const"},{"input":[],"attr":{"dtype":{"type":1},"value":{"tensor":{"floatVal":[],"doubleVal":[],"intVal":[],"stringVal":[],"scomplexVal":[],"int64Val":[],"boolVal":[],"uint32Val":[],"uint64Val":[],"dtype":1,"tensorShape":{"dim":[{"size":"160"}]}}}},"name":"InceptionV3/Mixed_6d/Branch_2/Conv2d_0a_1x1/BatchNorm/moving_mean","op":"Const"},{"input":[],"attr":{"value":{"tensor":{"floatVal":[],"doubleVal":[],"intVal":[],"stringVal":[],"scomplexVal":[],"int64Val":[],"boolVal":[],"uint32Val":[],"uint64Val":[],"dtype":1,"tensorShape":{"dim":[{"size":"160"}]}}},"dtype":{"type":1}},"name":"InceptionV3/Mixed_6d/Branch_2/Conv2d_0a_1x1/BatchNorm/moving_variance","op":"Const"},{"input":[],"attr":{"value":{"tensor":{"floatVal":[],"doubleVal":[],"intVal":[],"stringVal":[],"scomplexVal":[],"int64Val":[],"boolVal":[],"uint32Val":[],"uint64Val":[],"dtype":1,"tensorShape":{"dim":[{"size":"7"},{"size":"1"},{"size":"160"},{"size":"160"}]}}},"dtype":{"type":1}},"name":"InceptionV3/Mixed_6d/Branch_2/Conv2d_0b_7x1/weights","op":"Const"},{"input":[],"attr":{"value":{"tensor":{"floatVal":[],"doubleVal":[],"intVal":[],"stringVal":[],"scomplexVal":[],"int64Val":[],"boolVal":[],"uint32Val":[],"uint64Val":[],"dtype":1,"tensorShape":{"dim":[{"size":"160"}]}}},"dtype":{"type":1}},"name":"InceptionV3/Mixed_6d/Branch_2/Conv2d_0b_7x1/BatchNorm/beta","op":"Const"},{"input":[],"attr":{"value":{"tensor":{"floatVal":[],"doubleVal":[],"intVal":[],"stringVal":[],"scomplexVal":[],"int64Val":[],"boolVal":[],"uint32Val":[],"uint64Val":[],"dtype":1,"tensorShape":{"dim":[{"size":"160"}]}}},"dtype":{"type":1}},"name":"InceptionV3/Mixed_6d/Branch_2/Conv2d_0b_7x1/BatchNorm/moving_mean","op":"Const"},{"input":[],"attr":{"value":{"tensor":{"floatVal":[],"doubleVal":[],"intVal":[],"stringVal":[],"scomplexVal":[],"int64Val":[],"boolVal":[],"uint32Val":[],"uint64Val":[],"dtype":1,"tensorShape":{"dim":[{"size":"160"}]}}},"dtype":{"type":1}},"name":"InceptionV3/Mixed_6d/Branch_2/Conv2d_0b_7x1/BatchNorm/moving_variance","op":"Const"},{"input":[],"attr":{"dtype":{"type":1},"value":{"tensor":{"floatVal":[],"doubleVal":[],"intVal":[],"stringVal":[],"scomplexVal":[],"int64Val":[],"boolVal":[],"uint32Val":[],"uint64Val":[],"dtype":1,"tensorShape":{"dim":[{"size":"1"},{"size":"7"},{"size":"160"},{"size":"160"}]}}}},"name":"InceptionV3/Mixed_6d/Branch_2/Conv2d_0c_1x7/weights","op":"Const"},{"input":[],"attr":{"value":{"tensor":{"floatVal":[],"doubleVal":[],"intVal":[],"stringVal":[],"scomplexVal":[],"int64Val":[],"boolVal":[],"uint32Val":[],"uint64Val":[],"dtype":1,"tensorShape":{"dim":[{"size":"160"}]}}},"dtype":{"type":1}},"name":"InceptionV3/Mixed_6d/Branch_2/Conv2d_0c_1x7/BatchNorm/beta","op":"Const"},{"input":[],"attr":{"value":{"tensor":{"floatVal":[],"doubleVal":[],"intVal":[],"stringVal":[],"scomplexVal":[],"int64Val":[],"boolVal":[],"uint32Val":[],"uint64Val":[],"dtype":1,"tensorShape":{"dim":[{"size":"160"}]}}},"dtype":{"type":1}},"name":"InceptionV3/Mixed_6d/Branch_2/Conv2d_0c_1x7/BatchNorm/moving_mean","op":"Const"},{"input":[],"attr":{"value":{"tensor":{"floatVal":[],"doubleVal":[],"intVal":[],"stringVal":[],"scomplexVal":[],"int64Val":[],"boolVal":[],"uint32Val":[],"uint64Val":[],"dtype":1,"tensorShape":{"dim":[{"size":"160"}]}}},"dtype":{"type":1}},"name":"InceptionV3/Mixed_6d/Branch_2/Conv2d_0c_1x7/BatchNorm/moving_variance","op":"Const"},{"input":[],"attr":{"dtype":{"type":1},"value":{"tensor":{"floatVal":[],"doubleVal":[],"intVal":[],"stringVal":[],"scomplexVal":[],"int64Val":[],"boolVal":[],"uint32Val":[],"uint64Val":[],"dtype":1,"tensorShape":{"dim":[{"size":"7"},{"size":"1"},{"size":"160"},{"size":"160"}]}}}},"name":"InceptionV3/Mixed_6d/Branch_2/Conv2d_0d_7x1/weights","op":"Const"},{"input":[],"attr":{"value":{"tensor":{"floatVal":[],"doubleVal":[],"intVal":[],"stringVal":[],"scomplexVal":[],"int64Val":[],"boolVal":[],"uint32Val":[],"uint64Val":[],"dtype":1,"tensorShape":{"dim":[{"size":"160"}]}}},"dtype":{"type":1}},"name":"InceptionV3/Mixed_6d/Branch_2/Conv2d_0d_7x1/BatchNorm/beta","op":"Const"},{"input":[],"attr":{"dtype":{"type":1},"value":{"tensor":{"floatVal":[],"doubleVal":[],"intVal":[],"stringVal":[],"scomplexVal":[],"int64Val":[],"boolVal":[],"uint32Val":[],"uint64Val":[],"dtype":1,"tensorShape":{"dim":[{"size":"160"}]}}}},"name":"InceptionV3/Mixed_6d/Branch_2/Conv2d_0d_7x1/BatchNorm/moving_mean","op":"Const"},{"input":[],"attr":{"dtype":{"type":1},"value":{"tensor":{"floatVal":[],"doubleVal":[],"intVal":[],"stringVal":[],"scomplexVal":[],"int64Val":[],"boolVal":[],"uint32Val":[],"uint64Val":[],"dtype":1,"tensorShape":{"dim":[{"size":"160"}]}}}},"name":"InceptionV3/Mixed_6d/Branch_2/Conv2d_0d_7x1/BatchNorm/moving_variance","op":"Const"},{"input":[],"attr":{"value":{"tensor":{"floatVal":[],"doubleVal":[],"intVal":[],"stringVal":[],"scomplexVal":[],"int64Val":[],"boolVal":[],"uint32Val":[],"uint64Val":[],"dtype":1,"tensorShape":{"dim":[{"size":"1"},{"size":"7"},{"size":"160"},{"size":"192"}]}}},"dtype":{"type":1}},"name":"InceptionV3/Mixed_6d/Branch_2/Conv2d_0e_1x7/weights","op":"Const"},{"input":[],"attr":{"value":{"tensor":{"floatVal":[],"doubleVal":[],"intVal":[],"stringVal":[],"scomplexVal":[],"int64Val":[],"boolVal":[],"uint32Val":[],"uint64Val":[],"dtype":1,"tensorShape":{"dim":[{"size":"192"}]}}},"dtype":{"type":1}},"name":"InceptionV3/Mixed_6d/Branch_2/Conv2d_0e_1x7/BatchNorm/beta","op":"Const"},{"input":[],"attr":{"value":{"tensor":{"floatVal":[],"doubleVal":[],"intVal":[],"stringVal":[],"scomplexVal":[],"int64Val":[],"boolVal":[],"uint32Val":[],"uint64Val":[],"dtype":1,"tensorShape":{"dim":[{"size":"192"}]}}},"dtype":{"type":1}},"name":"InceptionV3/Mixed_6d/Branch_2/Conv2d_0e_1x7/BatchNorm/moving_mean","op":"Const"},{"input":[],"attr":{"value":{"tensor":{"floatVal":[],"doubleVal":[],"intVal":[],"stringVal":[],"scomplexVal":[],"int64Val":[],"boolVal":[],"uint32Val":[],"uint64Val":[],"dtype":1,"tensorShape":{"dim":[{"size":"192"}]}}},"dtype":{"type":1}},"name":"InceptionV3/Mixed_6d/Branch_2/Conv2d_0e_1x7/BatchNorm/moving_variance","op":"Const"},{"input":[],"attr":{"value":{"tensor":{"floatVal":[],"doubleVal":[],"intVal":[],"stringVal":[],"scomplexVal":[],"int64Val":[],"boolVal":[],"uint32Val":[],"uint64Val":[],"dtype":1,"tensorShape":{"dim":[{"size":"1"},{"size":"1"},{"size":"768"},{"size":"192"}]}}},"dtype":{"type":1}},"name":"InceptionV3/Mixed_6c/Branch_0/Conv2d_0a_1x1/weights","op":"Const"},{"input":[],"attr":{"value":{"tensor":{"floatVal":[],"doubleVal":[],"intVal":[],"stringVal":[],"scomplexVal":[],"int64Val":[],"boolVal":[],"uint32Val":[],"uint64Val":[],"dtype":1,"tensorShape":{"dim":[{"size":"192"}]}}},"dtype":{"type":1}},"name":"InceptionV3/Mixed_6c/Branch_0/Conv2d_0a_1x1/BatchNorm/beta","op":"Const"},{"input":[],"attr":{"value":{"tensor":{"floatVal":[],"doubleVal":[],"intVal":[],"stringVal":[],"scomplexVal":[],"int64Val":[],"boolVal":[],"uint32Val":[],"uint64Val":[],"dtype":1,"tensorShape":{"dim":[{"size":"192"}]}}},"dtype":{"type":1}},"name":"InceptionV3/Mixed_6c/Branch_0/Conv2d_0a_1x1/BatchNorm/moving_mean","op":"Const"},{"input":[],"attr":{"value":{"tensor":{"floatVal":[],"doubleVal":[],"intVal":[],"stringVal":[],"scomplexVal":[],"int64Val":[],"boolVal":[],"uint32Val":[],"uint64Val":[],"dtype":1,"tensorShape":{"dim":[{"size":"192"}]}}},"dtype":{"type":1}},"name":"InceptionV3/Mixed_6c/Branch_0/Conv2d_0a_1x1/BatchNorm/moving_variance","op":"Const"},{"input":[],"attr":{"value":{"tensor":{"floatVal":[],"doubleVal":[],"intVal":[],"stringVal":[],"scomplexVal":[],"int64Val":[],"boolVal":[],"uint32Val":[],"uint64Val":[],"dtype":1,"tensorShape":{"dim":[{"size":"1"},{"size":"1"},{"size":"768"},{"size":"160"}]}}},"dtype":{"type":1}},"name":"InceptionV3/Mixed_6c/Branch_1/Conv2d_0a_1x1/weights","op":"Const"},{"input":[],"attr":{"value":{"tensor":{"floatVal":[],"doubleVal":[],"intVal":[],"stringVal":[],"scomplexVal":[],"int64Val":[],"boolVal":[],"uint32Val":[],"uint64Val":[],"dtype":1,"tensorShape":{"dim":[{"size":"160"}]}}},"dtype":{"type":1}},"name":"InceptionV3/Mixed_6c/Branch_1/Conv2d_0a_1x1/BatchNorm/beta","op":"Const"},{"input":[],"attr":{"dtype":{"type":1},"value":{"tensor":{"floatVal":[],"doubleVal":[],"intVal":[],"stringVal":[],"scomplexVal":[],"int64Val":[],"boolVal":[],"uint32Val":[],"uint64Val":[],"dtype":1,"tensorShape":{"dim":[{"size":"160"}]}}}},"name":"InceptionV3/Mixed_6c/Branch_1/Conv2d_0a_1x1/BatchNorm/moving_mean","op":"Const"},{"input":[],"attr":{"value":{"tensor":{"floatVal":[],"doubleVal":[],"intVal":[],"stringVal":[],"scomplexVal":[],"int64Val":[],"boolVal":[],"uint32Val":[],"uint64Val":[],"dtype":1,"tensorShape":{"dim":[{"size":"160"}]}}},"dtype":{"type":1}},"name":"InceptionV3/Mixed_6c/Branch_1/Conv2d_0a_1x1/BatchNorm/moving_variance","op":"Const"},{"input":[],"attr":{"value":{"tensor":{"floatVal":[],"doubleVal":[],"intVal":[],"stringVal":[],"scomplexVal":[],"int64Val":[],"boolVal":[],"uint32Val":[],"uint64Val":[],"dtype":1,"tensorShape":{"dim":[{"size":"1"},{"size":"7"},{"size":"160"},{"size":"160"}]}}},"dtype":{"type":1}},"name":"InceptionV3/Mixed_6c/Branch_1/Conv2d_0b_1x7/weights","op":"Const"},{"input":[],"attr":{"value":{"tensor":{"floatVal":[],"doubleVal":[],"intVal":[],"stringVal":[],"scomplexVal":[],"int64Val":[],"boolVal":[],"uint32Val":[],"uint64Val":[],"dtype":1,"tensorShape":{"dim":[{"size":"160"}]}}},"dtype":{"type":1}},"name":"InceptionV3/Mixed_6c/Branch_1/Conv2d_0b_1x7/BatchNorm/beta","op":"Const"},{"input":[],"attr":{"dtype":{"type":1},"value":{"tensor":{"floatVal":[],"doubleVal":[],"intVal":[],"stringVal":[],"scomplexVal":[],"int64Val":[],"boolVal":[],"uint32Val":[],"uint64Val":[],"dtype":1,"tensorShape":{"dim":[{"size":"160"}]}}}},"name":"InceptionV3/Mixed_6c/Branch_1/Conv2d_0b_1x7/BatchNorm/moving_mean","op":"Const"},{"input":[],"attr":{"value":{"tensor":{"floatVal":[],"doubleVal":[],"intVal":[],"stringVal":[],"scomplexVal":[],"int64Val":[],"boolVal":[],"uint32Val":[],"uint64Val":[],"dtype":1,"tensorShape":{"dim":[{"size":"160"}]}}},"dtype":{"type":1}},"name":"InceptionV3/Mixed_6c/Branch_1/Conv2d_0b_1x7/BatchNorm/moving_variance","op":"Const"},{"input":[],"attr":{"value":{"tensor":{"floatVal":[],"doubleVal":[],"intVal":[],"stringVal":[],"scomplexVal":[],"int64Val":[],"boolVal":[],"uint32Val":[],"uint64Val":[],"dtype":1,"tensorShape":{"dim":[{"size":"7"},{"size":"1"},{"size":"160"},{"size":"192"}]}}},"dtype":{"type":1}},"name":"InceptionV3/Mixed_6c/Branch_1/Conv2d_0c_7x1/weights","op":"Const"},{"input":[],"attr":{"value":{"tensor":{"floatVal":[],"doubleVal":[],"intVal":[],"stringVal":[],"scomplexVal":[],"int64Val":[],"boolVal":[],"uint32Val":[],"uint64Val":[],"dtype":1,"tensorShape":{"dim":[{"size":"192"}]}}},"dtype":{"type":1}},"name":"InceptionV3/Mixed_6c/Branch_1/Conv2d_0c_7x1/BatchNorm/beta","op":"Const"},{"input":[],"attr":{"value":{"tensor":{"floatVal":[],"doubleVal":[],"intVal":[],"stringVal":[],"scomplexVal":[],"int64Val":[],"boolVal":[],"uint32Val":[],"uint64Val":[],"dtype":1,"tensorShape":{"dim":[{"size":"192"}]}}},"dtype":{"type":1}},"name":"InceptionV3/Mixed_6c/Branch_1/Conv2d_0c_7x1/BatchNorm/moving_mean","op":"Const"},{"input":[],"attr":{"value":{"tensor":{"floatVal":[],"doubleVal":[],"intVal":[],"stringVal":[],"scomplexVal":[],"int64Val":[],"boolVal":[],"uint32Val":[],"uint64Val":[],"dtype":1,"tensorShape":{"dim":[{"size":"192"}]}}},"dtype":{"type":1}},"name":"InceptionV3/Mixed_6c/Branch_1/Conv2d_0c_7x1/BatchNorm/moving_variance","op":"Const"},{"input":[],"attr":{"value":{"tensor":{"floatVal":[],"doubleVal":[],"intVal":[],"stringVal":[],"scomplexVal":[],"int64Val":[],"boolVal":[],"uint32Val":[],"uint64Val":[],"dtype":1,"tensorShape":{"dim":[{"size":"1"},{"size":"1"},{"size":"768"},{"size":"160"}]}}},"dtype":{"type":1}},"name":"InceptionV3/Mixed_6c/Branch_2/Conv2d_0a_1x1/weights","op":"Const"},{"input":[],"attr":{"value":{"tensor":{"floatVal":[],"doubleVal":[],"intVal":[],"stringVal":[],"scomplexVal":[],"int64Val":[],"boolVal":[],"uint32Val":[],"uint64Val":[],"dtype":1,"tensorShape":{"dim":[{"size":"160"}]}}},"dtype":{"type":1}},"name":"InceptionV3/Mixed_6c/Branch_2/Conv2d_0a_1x1/BatchNorm/beta","op":"Const"},{"input":[],"attr":{"value":{"tensor":{"floatVal":[],"doubleVal":[],"intVal":[],"stringVal":[],"scomplexVal":[],"int64Val":[],"boolVal":[],"uint32Val":[],"uint64Val":[],"dtype":1,"tensorShape":{"dim":[{"size":"160"}]}}},"dtype":{"type":1}},"name":"InceptionV3/Mixed_6c/Branch_2/Conv2d_0a_1x1/BatchNorm/moving_mean","op":"Const"},{"input":[],"attr":{"value":{"tensor":{"floatVal":[],"doubleVal":[],"intVal":[],"stringVal":[],"scomplexVal":[],"int64Val":[],"boolVal":[],"uint32Val":[],"uint64Val":[],"dtype":1,"tensorShape":{"dim":[{"size":"160"}]}}},"dtype":{"type":1}},"name":"InceptionV3/Mixed_6c/Branch_2/Conv2d_0a_1x1/BatchNorm/moving_variance","op":"Const"},{"input":[],"attr":{"value":{"tensor":{"floatVal":[],"doubleVal":[],"intVal":[],"stringVal":[],"scomplexVal":[],"int64Val":[],"boolVal":[],"uint32Val":[],"uint64Val":[],"dtype":1,"tensorShape":{"dim":[{"size":"7"},{"size":"1"},{"size":"160"},{"size":"160"}]}}},"dtype":{"type":1}},"name":"InceptionV3/Mixed_6c/Branch_2/Conv2d_0b_7x1/weights","op":"Const"},{"input":[],"attr":{"value":{"tensor":{"floatVal":[],"doubleVal":[],"intVal":[],"stringVal":[],"scomplexVal":[],"int64Val":[],"boolVal":[],"uint32Val":[],"uint64Val":[],"dtype":1,"tensorShape":{"dim":[{"size":"160"}]}}},"dtype":{"type":1}},"name":"InceptionV3/Mixed_6c/Branch_2/Conv2d_0b_7x1/BatchNorm/beta","op":"Const"},{"input":[],"attr":{"value":{"tensor":{"floatVal":[],"doubleVal":[],"intVal":[],"stringVal":[],"scomplexVal":[],"int64Val":[],"boolVal":[],"uint32Val":[],"uint64Val":[],"dtype":1,"tensorShape":{"dim":[{"size":"160"}]}}},"dtype":{"type":1}},"name":"InceptionV3/Mixed_6c/Branch_2/Conv2d_0b_7x1/BatchNorm/moving_mean","op":"Const"},{"input":[],"attr":{"value":{"tensor":{"floatVal":[],"doubleVal":[],"intVal":[],"stringVal":[],"scomplexVal":[],"int64Val":[],"boolVal":[],"uint32Val":[],"uint64Val":[],"dtype":1,"tensorShape":{"dim":[{"size":"160"}]}}},"dtype":{"type":1}},"name":"InceptionV3/Mixed_6c/Branch_2/Conv2d_0b_7x1/BatchNorm/moving_variance","op":"Const"},{"input":[],"attr":{"value":{"tensor":{"floatVal":[],"doubleVal":[],"intVal":[],"stringVal":[],"scomplexVal":[],"int64Val":[],"boolVal":[],"uint32Val":[],"uint64Val":[],"dtype":1,"tensorShape":{"dim":[{"size":"1"},{"size":"7"},{"size":"160"},{"size":"160"}]}}},"dtype":{"type":1}},"name":"InceptionV3/Mixed_6c/Branch_2/Conv2d_0c_1x7/weights","op":"Const"},{"input":[],"attr":{"value":{"tensor":{"floatVal":[],"doubleVal":[],"intVal":[],"stringVal":[],"scomplexVal":[],"int64Val":[],"boolVal":[],"uint32Val":[],"uint64Val":[],"dtype":1,"tensorShape":{"dim":[{"size":"160"}]}}},"dtype":{"type":1}},"name":"InceptionV3/Mixed_6c/Branch_2/Conv2d_0c_1x7/BatchNorm/beta","op":"Const"},{"input":[],"attr":{"value":{"tensor":{"floatVal":[],"doubleVal":[],"intVal":[],"stringVal":[],"scomplexVal":[],"int64Val":[],"boolVal":[],"uint32Val":[],"uint64Val":[],"dtype":1,"tensorShape":{"dim":[{"size":"160"}]}}},"dtype":{"type":1}},"name":"InceptionV3/Mixed_6c/Branch_2/Conv2d_0c_1x7/BatchNorm/moving_mean","op":"Const"},{"input":[],"attr":{"value":{"tensor":{"floatVal":[],"doubleVal":[],"intVal":[],"stringVal":[],"scomplexVal":[],"int64Val":[],"boolVal":[],"uint32Val":[],"uint64Val":[],"dtype":1,"tensorShape":{"dim":[{"size":"160"}]}}},"dtype":{"type":1}},"name":"InceptionV3/Mixed_6c/Branch_2/Conv2d_0c_1x7/BatchNorm/moving_variance","op":"Const"},{"input":[],"attr":{"value":{"tensor":{"floatVal":[],"doubleVal":[],"intVal":[],"stringVal":[],"scomplexVal":[],"int64Val":[],"boolVal":[],"uint32Val":[],"uint64Val":[],"dtype":1,"tensorShape":{"dim":[{"size":"7"},{"size":"1"},{"size":"160"},{"size":"160"}]}}},"dtype":{"type":1}},"name":"InceptionV3/Mixed_6c/Branch_2/Conv2d_0d_7x1/weights","op":"Const"},{"input":[],"attr":{"value":{"tensor":{"floatVal":[1],"doubleVal":[],"intVal":[],"stringVal":[],"scomplexVal":[],"int64Val":[],"boolVal":[],"uint32Val":[],"uint64Val":[],"dtype":1,"tensorShape":{"dim":[{"size":"160"}]}}},"dtype":{"type":1}},"name":"InceptionV3/Mixed_6d/Branch_1/Conv2d_0a_1x1/BatchNorm/Const","op":"Const"},{"input":[],"attr":{"value":{"tensor":{"floatVal":[],"doubleVal":[],"intVal":[],"stringVal":[],"scomplexVal":[],"int64Val":[],"boolVal":[],"uint32Val":[],"uint64Val":[],"dtype":1,"tensorShape":{"dim":[{"size":"160"}]}}},"dtype":{"type":1}},"name":"InceptionV3/Mixed_6c/Branch_2/Conv2d_0d_7x1/BatchNorm/beta","op":"Const"},{"input":[],"attr":{"value":{"tensor":{"floatVal":[],"doubleVal":[],"intVal":[],"stringVal":[],"scomplexVal":[],"int64Val":[],"boolVal":[],"uint32Val":[],"uint64Val":[],"dtype":1,"tensorShape":{"dim":[{"size":"160"}]}}},"dtype":{"type":1}},"name":"InceptionV3/Mixed_6c/Branch_2/Conv2d_0d_7x1/BatchNorm/moving_mean","op":"Const"},{"input":[],"attr":{"value":{"tensor":{"floatVal":[],"doubleVal":[],"intVal":[],"stringVal":[],"scomplexVal":[],"int64Val":[],"boolVal":[],"uint32Val":[],"uint64Val":[],"dtype":1,"tensorShape":{"dim":[{"size":"160"}]}}},"dtype":{"type":1}},"name":"InceptionV3/Mixed_6c/Branch_2/Conv2d_0d_7x1/BatchNorm/moving_variance","op":"Const"},{"input":[],"attr":{"value":{"tensor":{"floatVal":[],"doubleVal":[],"intVal":[],"stringVal":[],"scomplexVal":[],"int64Val":[],"boolVal":[],"uint32Val":[],"uint64Val":[],"dtype":1,"tensorShape":{"dim":[{"size":"1"},{"size":"7"},{"size":"160"},{"size":"192"}]}}},"dtype":{"type":1}},"name":"InceptionV3/Mixed_6c/Branch_2/Conv2d_0e_1x7/weights","op":"Const"},{"input":[],"attr":{"value":{"tensor":{"floatVal":[],"doubleVal":[],"intVal":[],"stringVal":[],"scomplexVal":[],"int64Val":[],"boolVal":[],"uint32Val":[],"uint64Val":[],"dtype":1,"tensorShape":{"dim":[{"size":"192"}]}}},"dtype":{"type":1}},"name":"InceptionV3/Mixed_6c/Branch_2/Conv2d_0e_1x7/BatchNorm/beta","op":"Const"},{"input":[],"attr":{"value":{"tensor":{"floatVal":[],"doubleVal":[],"intVal":[],"stringVal":[],"scomplexVal":[],"int64Val":[],"boolVal":[],"uint32Val":[],"uint64Val":[],"dtype":1,"tensorShape":{"dim":[{"size":"192"}]}}},"dtype":{"type":1}},"name":"InceptionV3/Mixed_6c/Branch_2/Conv2d_0e_1x7/BatchNorm/moving_mean","op":"Const"},{"input":[],"attr":{"value":{"tensor":{"floatVal":[],"doubleVal":[],"intVal":[],"stringVal":[],"scomplexVal":[],"int64Val":[],"boolVal":[],"uint32Val":[],"uint64Val":[],"dtype":1,"tensorShape":{"dim":[{"size":"192"}]}}},"dtype":{"type":1}},"name":"InceptionV3/Mixed_6c/Branch_2/Conv2d_0e_1x7/BatchNorm/moving_variance","op":"Const"},{"input":[],"attr":{"value":{"tensor":{"floatVal":[],"doubleVal":[],"intVal":[],"stringVal":[],"scomplexVal":[],"int64Val":[],"boolVal":[],"uint32Val":[],"uint64Val":[],"dtype":1,"tensorShape":{"dim":[{"size":"1"},{"size":"1"},{"size":"768"},{"size":"192"}]}}},"dtype":{"type":1}},"name":"InceptionV3/Mixed_6b/Branch_0/Conv2d_0a_1x1/weights","op":"Const"},{"input":[],"attr":{"value":{"tensor":{"floatVal":[],"doubleVal":[],"intVal":[],"stringVal":[],"scomplexVal":[],"int64Val":[],"boolVal":[],"uint32Val":[],"uint64Val":[],"dtype":1,"tensorShape":{"dim":[{"size":"192"}]}}},"dtype":{"type":1}},"name":"InceptionV3/Mixed_6b/Branch_0/Conv2d_0a_1x1/BatchNorm/beta","op":"Const"},{"input":[],"attr":{"value":{"tensor":{"floatVal":[],"doubleVal":[],"intVal":[],"stringVal":[],"scomplexVal":[],"int64Val":[],"boolVal":[],"uint32Val":[],"uint64Val":[],"dtype":1,"tensorShape":{"dim":[{"size":"192"}]}}},"dtype":{"type":1}},"name":"InceptionV3/Mixed_6b/Branch_0/Conv2d_0a_1x1/BatchNorm/moving_mean","op":"Const"},{"input":[],"attr":{"value":{"tensor":{"floatVal":[],"doubleVal":[],"intVal":[],"stringVal":[],"scomplexVal":[],"int64Val":[],"boolVal":[],"uint32Val":[],"uint64Val":[],"dtype":1,"tensorShape":{"dim":[{"size":"192"}]}}},"dtype":{"type":1}},"name":"InceptionV3/Mixed_6b/Branch_0/Conv2d_0a_1x1/BatchNorm/moving_variance","op":"Const"},{"input":[],"attr":{"value":{"tensor":{"floatVal":[],"doubleVal":[],"intVal":[],"stringVal":[],"scomplexVal":[],"int64Val":[],"boolVal":[],"uint32Val":[],"uint64Val":[],"dtype":1,"tensorShape":{"dim":[{"size":"1"},{"size":"1"},{"size":"768"},{"size":"128"}]}}},"dtype":{"type":1}},"name":"InceptionV3/Mixed_6b/Branch_1/Conv2d_0a_1x1/weights","op":"Const"},{"input":[],"attr":{"value":{"tensor":{"floatVal":[],"doubleVal":[],"intVal":[],"stringVal":[],"scomplexVal":[],"int64Val":[],"boolVal":[],"uint32Val":[],"uint64Val":[],"dtype":1,"tensorShape":{"dim":[{"size":"128"}]}}},"dtype":{"type":1}},"name":"InceptionV3/Mixed_6b/Branch_1/Conv2d_0a_1x1/BatchNorm/beta","op":"Const"},{"input":[],"attr":{"value":{"tensor":{"floatVal":[],"doubleVal":[],"intVal":[],"stringVal":[],"scomplexVal":[],"int64Val":[],"boolVal":[],"uint32Val":[],"uint64Val":[],"dtype":1,"tensorShape":{"dim":[{"size":"128"}]}}},"dtype":{"type":1}},"name":"InceptionV3/Mixed_6b/Branch_1/Conv2d_0a_1x1/BatchNorm/moving_mean","op":"Const"},{"input":[],"attr":{"dtype":{"type":1},"value":{"tensor":{"floatVal":[],"doubleVal":[],"intVal":[],"stringVal":[],"scomplexVal":[],"int64Val":[],"boolVal":[],"uint32Val":[],"uint64Val":[],"dtype":1,"tensorShape":{"dim":[{"size":"128"}]}}}},"name":"InceptionV3/Mixed_6b/Branch_1/Conv2d_0a_1x1/BatchNorm/moving_variance","op":"Const"},{"input":[],"attr":{"value":{"tensor":{"floatVal":[],"doubleVal":[],"intVal":[],"stringVal":[],"scomplexVal":[],"int64Val":[],"boolVal":[],"uint32Val":[],"uint64Val":[],"dtype":1,"tensorShape":{"dim":[{"size":"1"},{"size":"7"},{"size":"128"},{"size":"128"}]}}},"dtype":{"type":1}},"name":"InceptionV3/Mixed_6b/Branch_1/Conv2d_0b_1x7/weights","op":"Const"},{"input":[],"attr":{"value":{"tensor":{"floatVal":[],"doubleVal":[],"intVal":[],"stringVal":[],"scomplexVal":[],"int64Val":[],"boolVal":[],"uint32Val":[],"uint64Val":[],"dtype":1,"tensorShape":{"dim":[{"size":"128"}]}}},"dtype":{"type":1}},"name":"InceptionV3/Mixed_6b/Branch_1/Conv2d_0b_1x7/BatchNorm/beta","op":"Const"},{"input":[],"attr":{"value":{"tensor":{"floatVal":[],"doubleVal":[],"intVal":[],"stringVal":[],"scomplexVal":[],"int64Val":[],"boolVal":[],"uint32Val":[],"uint64Val":[],"dtype":1,"tensorShape":{"dim":[{"size":"128"}]}}},"dtype":{"type":1}},"name":"InceptionV3/Mixed_6b/Branch_1/Conv2d_0b_1x7/BatchNorm/moving_mean","op":"Const"},{"input":[],"attr":{"value":{"tensor":{"floatVal":[],"doubleVal":[],"intVal":[],"stringVal":[],"scomplexVal":[],"int64Val":[],"boolVal":[],"uint32Val":[],"uint64Val":[],"dtype":1,"tensorShape":{"dim":[{"size":"128"}]}}},"dtype":{"type":1}},"name":"InceptionV3/Mixed_6b/Branch_1/Conv2d_0b_1x7/BatchNorm/moving_variance","op":"Const"},{"input":[],"attr":{"value":{"tensor":{"floatVal":[],"doubleVal":[],"intVal":[],"stringVal":[],"scomplexVal":[],"int64Val":[],"boolVal":[],"uint32Val":[],"uint64Val":[],"dtype":1,"tensorShape":{"dim":[{"size":"7"},{"size":"1"},{"size":"128"},{"size":"192"}]}}},"dtype":{"type":1}},"name":"InceptionV3/Mixed_6b/Branch_1/Conv2d_0c_7x1/weights","op":"Const"},{"input":[],"attr":{"value":{"tensor":{"floatVal":[],"doubleVal":[],"intVal":[],"stringVal":[],"scomplexVal":[],"int64Val":[],"boolVal":[],"uint32Val":[],"uint64Val":[],"dtype":1,"tensorShape":{"dim":[{"size":"192"}]}}},"dtype":{"type":1}},"name":"InceptionV3/Mixed_6b/Branch_1/Conv2d_0c_7x1/BatchNorm/beta","op":"Const"},{"input":[],"attr":{"value":{"tensor":{"floatVal":[],"doubleVal":[],"intVal":[],"stringVal":[],"scomplexVal":[],"int64Val":[],"boolVal":[],"uint32Val":[],"uint64Val":[],"dtype":1,"tensorShape":{"dim":[{"size":"192"}]}}},"dtype":{"type":1}},"name":"InceptionV3/Mixed_6b/Branch_1/Conv2d_0c_7x1/BatchNorm/moving_mean","op":"Const"},{"input":[],"attr":{"value":{"tensor":{"floatVal":[],"doubleVal":[],"intVal":[],"stringVal":[],"scomplexVal":[],"int64Val":[],"boolVal":[],"uint32Val":[],"uint64Val":[],"dtype":1,"tensorShape":{"dim":[{"size":"192"}]}}},"dtype":{"type":1}},"name":"InceptionV3/Mixed_6b/Branch_1/Conv2d_0c_7x1/BatchNorm/moving_variance","op":"Const"},{"input":[],"attr":{"value":{"tensor":{"floatVal":[],"doubleVal":[],"intVal":[],"stringVal":[],"scomplexVal":[],"int64Val":[],"boolVal":[],"uint32Val":[],"uint64Val":[],"dtype":1,"tensorShape":{"dim":[{"size":"1"},{"size":"1"},{"size":"768"},{"size":"128"}]}}},"dtype":{"type":1}},"name":"InceptionV3/Mixed_6b/Branch_2/Conv2d_0a_1x1/weights","op":"Const"},{"input":[],"attr":{"dtype":{"type":1},"value":{"tensor":{"floatVal":[],"doubleVal":[],"intVal":[],"stringVal":[],"scomplexVal":[],"int64Val":[],"boolVal":[],"uint32Val":[],"uint64Val":[],"dtype":1,"tensorShape":{"dim":[{"size":"128"}]}}}},"name":"InceptionV3/Mixed_6b/Branch_2/Conv2d_0a_1x1/BatchNorm/beta","op":"Const"},{"input":[],"attr":{"value":{"tensor":{"floatVal":[],"doubleVal":[],"intVal":[],"stringVal":[],"scomplexVal":[],"int64Val":[],"boolVal":[],"uint32Val":[],"uint64Val":[],"dtype":1,"tensorShape":{"dim":[{"size":"128"}]}}},"dtype":{"type":1}},"name":"InceptionV3/Mixed_6b/Branch_2/Conv2d_0a_1x1/BatchNorm/moving_mean","op":"Const"},{"input":[],"attr":{"value":{"tensor":{"floatVal":[],"doubleVal":[],"intVal":[],"stringVal":[],"scomplexVal":[],"int64Val":[],"boolVal":[],"uint32Val":[],"uint64Val":[],"dtype":1,"tensorShape":{"dim":[{"size":"128"}]}}},"dtype":{"type":1}},"name":"InceptionV3/Mixed_6b/Branch_2/Conv2d_0a_1x1/BatchNorm/moving_variance","op":"Const"},{"input":[],"attr":{"value":{"tensor":{"floatVal":[],"doubleVal":[],"intVal":[],"stringVal":[],"scomplexVal":[],"int64Val":[],"boolVal":[],"uint32Val":[],"uint64Val":[],"dtype":1,"tensorShape":{"dim":[{"size":"7"},{"size":"1"},{"size":"128"},{"size":"128"}]}}},"dtype":{"type":1}},"name":"InceptionV3/Mixed_6b/Branch_2/Conv2d_0b_7x1/weights","op":"Const"},{"input":[],"attr":{"value":{"tensor":{"floatVal":[],"doubleVal":[],"intVal":[],"stringVal":[],"scomplexVal":[],"int64Val":[],"boolVal":[],"uint32Val":[],"uint64Val":[],"dtype":1,"tensorShape":{"dim":[{"size":"128"}]}}},"dtype":{"type":1}},"name":"InceptionV3/Mixed_6b/Branch_2/Conv2d_0b_7x1/BatchNorm/beta","op":"Const"},{"input":[],"attr":{"value":{"tensor":{"floatVal":[],"doubleVal":[],"intVal":[],"stringVal":[],"scomplexVal":[],"int64Val":[],"boolVal":[],"uint32Val":[],"uint64Val":[],"dtype":1,"tensorShape":{"dim":[{"size":"128"}]}}},"dtype":{"type":1}},"name":"InceptionV3/Mixed_6b/Branch_2/Conv2d_0b_7x1/BatchNorm/moving_mean","op":"Const"},{"input":[],"attr":{"value":{"tensor":{"floatVal":[],"doubleVal":[],"intVal":[],"stringVal":[],"scomplexVal":[],"int64Val":[],"boolVal":[],"uint32Val":[],"uint64Val":[],"dtype":1,"tensorShape":{"dim":[{"size":"128"}]}}},"dtype":{"type":1}},"name":"InceptionV3/Mixed_6b/Branch_2/Conv2d_0b_7x1/BatchNorm/moving_variance","op":"Const"},{"input":[],"attr":{"value":{"tensor":{"floatVal":[],"doubleVal":[],"intVal":[],"stringVal":[],"scomplexVal":[],"int64Val":[],"boolVal":[],"uint32Val":[],"uint64Val":[],"dtype":1,"tensorShape":{"dim":[{"size":"1"},{"size":"7"},{"size":"128"},{"size":"128"}]}}},"dtype":{"type":1}},"name":"InceptionV3/Mixed_6b/Branch_2/Conv2d_0c_1x7/weights","op":"Const"},{"input":[],"attr":{"value":{"tensor":{"floatVal":[],"doubleVal":[],"intVal":[],"stringVal":[],"scomplexVal":[],"int64Val":[],"boolVal":[],"uint32Val":[],"uint64Val":[],"dtype":1,"tensorShape":{"dim":[{"size":"128"}]}}},"dtype":{"type":1}},"name":"InceptionV3/Mixed_6b/Branch_2/Conv2d_0c_1x7/BatchNorm/beta","op":"Const"},{"input":[],"attr":{"value":{"tensor":{"floatVal":[],"doubleVal":[],"intVal":[],"stringVal":[],"scomplexVal":[],"int64Val":[],"boolVal":[],"uint32Val":[],"uint64Val":[],"dtype":1,"tensorShape":{"dim":[{"size":"128"}]}}},"dtype":{"type":1}},"name":"InceptionV3/Mixed_6b/Branch_2/Conv2d_0c_1x7/BatchNorm/moving_mean","op":"Const"},{"input":[],"attr":{"value":{"tensor":{"floatVal":[],"doubleVal":[],"intVal":[],"stringVal":[],"scomplexVal":[],"int64Val":[],"boolVal":[],"uint32Val":[],"uint64Val":[],"dtype":1,"tensorShape":{"dim":[{"size":"128"}]}}},"dtype":{"type":1}},"name":"InceptionV3/Mixed_6b/Branch_2/Conv2d_0c_1x7/BatchNorm/moving_variance","op":"Const"},{"input":[],"attr":{"value":{"tensor":{"floatVal":[],"doubleVal":[],"intVal":[],"stringVal":[],"scomplexVal":[],"int64Val":[],"boolVal":[],"uint32Val":[],"uint64Val":[],"dtype":1,"tensorShape":{"dim":[{"size":"7"},{"size":"1"},{"size":"128"},{"size":"128"}]}}},"dtype":{"type":1}},"name":"InceptionV3/Mixed_6b/Branch_2/Conv2d_0d_7x1/weights","op":"Const"},{"input":[],"attr":{"value":{"tensor":{"floatVal":[1],"doubleVal":[],"intVal":[],"stringVal":[],"scomplexVal":[],"int64Val":[],"boolVal":[],"uint32Val":[],"uint64Val":[],"dtype":1,"tensorShape":{"dim":[{"size":"128"}]}}},"dtype":{"type":1}},"name":"InceptionV3/Mixed_6b/Branch_1/Conv2d_0a_1x1/BatchNorm/Const","op":"Const"},{"input":[],"attr":{"value":{"tensor":{"floatVal":[],"doubleVal":[],"intVal":[],"stringVal":[],"scomplexVal":[],"int64Val":[],"boolVal":[],"uint32Val":[],"uint64Val":[],"dtype":1,"tensorShape":{"dim":[{"size":"128"}]}}},"dtype":{"type":1}},"name":"InceptionV3/Mixed_6b/Branch_2/Conv2d_0d_7x1/BatchNorm/beta","op":"Const"},{"input":[],"attr":{"value":{"tensor":{"floatVal":[],"doubleVal":[],"intVal":[],"stringVal":[],"scomplexVal":[],"int64Val":[],"boolVal":[],"uint32Val":[],"uint64Val":[],"dtype":1,"tensorShape":{"dim":[{"size":"128"}]}}},"dtype":{"type":1}},"name":"InceptionV3/Mixed_6b/Branch_2/Conv2d_0d_7x1/BatchNorm/moving_mean","op":"Const"},{"input":[],"attr":{"dtype":{"type":1},"value":{"tensor":{"floatVal":[],"doubleVal":[],"intVal":[],"stringVal":[],"scomplexVal":[],"int64Val":[],"boolVal":[],"uint32Val":[],"uint64Val":[],"dtype":1,"tensorShape":{"dim":[{"size":"128"}]}}}},"name":"InceptionV3/Mixed_6b/Branch_2/Conv2d_0d_7x1/BatchNorm/moving_variance","op":"Const"},{"input":[],"attr":{"value":{"tensor":{"floatVal":[],"doubleVal":[],"intVal":[],"stringVal":[],"scomplexVal":[],"int64Val":[],"boolVal":[],"uint32Val":[],"uint64Val":[],"dtype":1,"tensorShape":{"dim":[{"size":"1"},{"size":"7"},{"size":"128"},{"size":"192"}]}}},"dtype":{"type":1}},"name":"InceptionV3/Mixed_6b/Branch_2/Conv2d_0e_1x7/weights","op":"Const"},{"input":[],"attr":{"dtype":{"type":1},"value":{"tensor":{"floatVal":[],"doubleVal":[],"intVal":[],"stringVal":[],"scomplexVal":[],"int64Val":[],"boolVal":[],"uint32Val":[],"uint64Val":[],"dtype":1,"tensorShape":{"dim":[{"size":"192"}]}}}},"name":"InceptionV3/Mixed_6b/Branch_2/Conv2d_0e_1x7/BatchNorm/beta","op":"Const"},{"input":[],"attr":{"value":{"tensor":{"floatVal":[],"doubleVal":[],"intVal":[],"stringVal":[],"scomplexVal":[],"int64Val":[],"boolVal":[],"uint32Val":[],"uint64Val":[],"dtype":1,"tensorShape":{"dim":[{"size":"192"}]}}},"dtype":{"type":1}},"name":"InceptionV3/Mixed_6b/Branch_2/Conv2d_0e_1x7/BatchNorm/moving_mean","op":"Const"},{"input":[],"attr":{"value":{"tensor":{"floatVal":[],"doubleVal":[],"intVal":[],"stringVal":[],"scomplexVal":[],"int64Val":[],"boolVal":[],"uint32Val":[],"uint64Val":[],"dtype":1,"tensorShape":{"dim":[{"size":"192"}]}}},"dtype":{"type":1}},"name":"InceptionV3/Mixed_6b/Branch_2/Conv2d_0e_1x7/BatchNorm/moving_variance","op":"Const"},{"input":[],"attr":{"value":{"tensor":{"floatVal":[],"doubleVal":[],"intVal":[],"stringVal":[],"scomplexVal":[],"int64Val":[],"boolVal":[],"uint32Val":[],"uint64Val":[],"dtype":1,"tensorShape":{"dim":[{"size":"3"},{"size":"3"},{"size":"288"},{"size":"384"}]}}},"dtype":{"type":1}},"name":"InceptionV3/Mixed_6a/Branch_0/Conv2d_1a_1x1/weights","op":"Const"},{"input":[],"attr":{"value":{"tensor":{"floatVal":[1],"doubleVal":[],"intVal":[],"stringVal":[],"scomplexVal":[],"int64Val":[],"boolVal":[],"uint32Val":[],"uint64Val":[],"dtype":1,"tensorShape":{"dim":[{"size":"384"}]}}},"dtype":{"type":1}},"name":"InceptionV3/Mixed_6a/Branch_0/Conv2d_1a_1x1/BatchNorm/Const","op":"Const"},{"input":[],"attr":{"value":{"tensor":{"floatVal":[],"doubleVal":[],"intVal":[],"stringVal":[],"scomplexVal":[],"int64Val":[],"boolVal":[],"uint32Val":[],"uint64Val":[],"dtype":1,"tensorShape":{"dim":[{"size":"384"}]}}},"dtype":{"type":1}},"name":"InceptionV3/Mixed_6a/Branch_0/Conv2d_1a_1x1/BatchNorm/beta","op":"Const"},{"input":[],"attr":{"value":{"tensor":{"floatVal":[],"doubleVal":[],"intVal":[],"stringVal":[],"scomplexVal":[],"int64Val":[],"boolVal":[],"uint32Val":[],"uint64Val":[],"dtype":1,"tensorShape":{"dim":[{"size":"384"}]}}},"dtype":{"type":1}},"name":"InceptionV3/Mixed_6a/Branch_0/Conv2d_1a_1x1/BatchNorm/moving_mean","op":"Const"},{"input":[],"attr":{"value":{"tensor":{"floatVal":[],"doubleVal":[],"intVal":[],"stringVal":[],"scomplexVal":[],"int64Val":[],"boolVal":[],"uint32Val":[],"uint64Val":[],"dtype":1,"tensorShape":{"dim":[{"size":"384"}]}}},"dtype":{"type":1}},"name":"InceptionV3/Mixed_6a/Branch_0/Conv2d_1a_1x1/BatchNorm/moving_variance","op":"Const"},{"input":[],"attr":{"value":{"tensor":{"floatVal":[],"doubleVal":[],"intVal":[],"stringVal":[],"scomplexVal":[],"int64Val":[],"boolVal":[],"uint32Val":[],"uint64Val":[],"dtype":1,"tensorShape":{"dim":[{"size":"1"},{"size":"1"},{"size":"288"},{"size":"64"}]}}},"dtype":{"type":1}},"name":"InceptionV3/Mixed_6a/Branch_1/Conv2d_0a_1x1/weights","op":"Const"},{"input":[],"attr":{"value":{"tensor":{"floatVal":[],"doubleVal":[],"intVal":[],"stringVal":[],"scomplexVal":[],"int64Val":[],"boolVal":[],"uint32Val":[],"uint64Val":[],"dtype":1,"tensorShape":{"dim":[{"size":"64"}]}}},"dtype":{"type":1}},"name":"InceptionV3/Mixed_6a/Branch_1/Conv2d_0a_1x1/BatchNorm/beta","op":"Const"},{"input":[],"attr":{"value":{"tensor":{"floatVal":[],"doubleVal":[],"intVal":[],"stringVal":[],"scomplexVal":[],"int64Val":[],"boolVal":[],"uint32Val":[],"uint64Val":[],"dtype":1,"tensorShape":{"dim":[{"size":"64"}]}}},"dtype":{"type":1}},"name":"InceptionV3/Mixed_6a/Branch_1/Conv2d_0a_1x1/BatchNorm/moving_mean","op":"Const"},{"input":[],"attr":{"value":{"tensor":{"floatVal":[],"doubleVal":[],"intVal":[],"stringVal":[],"scomplexVal":[],"int64Val":[],"boolVal":[],"uint32Val":[],"uint64Val":[],"dtype":1,"tensorShape":{"dim":[{"size":"64"}]}}},"dtype":{"type":1}},"name":"InceptionV3/Mixed_6a/Branch_1/Conv2d_0a_1x1/BatchNorm/moving_variance","op":"Const"},{"input":[],"attr":{"value":{"tensor":{"floatVal":[],"doubleVal":[],"intVal":[],"stringVal":[],"scomplexVal":[],"int64Val":[],"boolVal":[],"uint32Val":[],"uint64Val":[],"dtype":1,"tensorShape":{"dim":[{"size":"3"},{"size":"3"},{"size":"64"},{"size":"96"}]}}},"dtype":{"type":1}},"name":"InceptionV3/Mixed_6a/Branch_1/Conv2d_0b_3x3/weights","op":"Const"},{"input":[],"attr":{"value":{"tensor":{"floatVal":[],"doubleVal":[],"intVal":[],"stringVal":[],"scomplexVal":[],"int64Val":[],"boolVal":[],"uint32Val":[],"uint64Val":[],"dtype":1,"tensorShape":{"dim":[{"size":"96"}]}}},"dtype":{"type":1}},"name":"InceptionV3/Mixed_6a/Branch_1/Conv2d_0b_3x3/BatchNorm/beta","op":"Const"},{"input":[],"attr":{"value":{"tensor":{"floatVal":[],"doubleVal":[],"intVal":[],"stringVal":[],"scomplexVal":[],"int64Val":[],"boolVal":[],"uint32Val":[],"uint64Val":[],"dtype":1,"tensorShape":{"dim":[{"size":"96"}]}}},"dtype":{"type":1}},"name":"InceptionV3/Mixed_6a/Branch_1/Conv2d_0b_3x3/BatchNorm/moving_mean","op":"Const"},{"input":[],"attr":{"value":{"tensor":{"floatVal":[],"doubleVal":[],"intVal":[],"stringVal":[],"scomplexVal":[],"int64Val":[],"boolVal":[],"uint32Val":[],"uint64Val":[],"dtype":1,"tensorShape":{"dim":[{"size":"96"}]}}},"dtype":{"type":1}},"name":"InceptionV3/Mixed_6a/Branch_1/Conv2d_0b_3x3/BatchNorm/moving_variance","op":"Const"},{"input":[],"attr":{"value":{"tensor":{"floatVal":[],"doubleVal":[],"intVal":[],"stringVal":[],"scomplexVal":[],"int64Val":[],"boolVal":[],"uint32Val":[],"uint64Val":[],"dtype":1,"tensorShape":{"dim":[{"size":"3"},{"size":"3"},{"size":"96"},{"size":"96"}]}}},"dtype":{"type":1}},"name":"InceptionV3/Mixed_6a/Branch_1/Conv2d_1a_1x1/weights","op":"Const"},{"input":[],"attr":{"value":{"tensor":{"floatVal":[],"doubleVal":[],"intVal":[],"stringVal":[],"scomplexVal":[],"int64Val":[],"boolVal":[],"uint32Val":[],"uint64Val":[],"dtype":1,"tensorShape":{"dim":[{"size":"96"}]}}},"dtype":{"type":1}},"name":"InceptionV3/Mixed_6a/Branch_1/Conv2d_1a_1x1/BatchNorm/beta","op":"Const"},{"input":[],"attr":{"value":{"tensor":{"floatVal":[],"doubleVal":[],"intVal":[],"stringVal":[],"scomplexVal":[],"int64Val":[],"boolVal":[],"uint32Val":[],"uint64Val":[],"dtype":1,"tensorShape":{"dim":[{"size":"96"}]}}},"dtype":{"type":1}},"name":"InceptionV3/Mixed_6a/Branch_1/Conv2d_1a_1x1/BatchNorm/moving_mean","op":"Const"},{"input":[],"attr":{"value":{"tensor":{"floatVal":[],"doubleVal":[],"intVal":[],"stringVal":[],"scomplexVal":[],"int64Val":[],"boolVal":[],"uint32Val":[],"uint64Val":[],"dtype":1,"tensorShape":{"dim":[{"size":"96"}]}}},"dtype":{"type":1}},"name":"InceptionV3/Mixed_6a/Branch_1/Conv2d_1a_1x1/BatchNorm/moving_variance","op":"Const"},{"input":[],"attr":{"value":{"tensor":{"floatVal":[],"doubleVal":[],"intVal":[],"stringVal":[],"scomplexVal":[],"int64Val":[],"boolVal":[],"uint32Val":[],"uint64Val":[],"dtype":1,"tensorShape":{"dim":[{"size":"1"},{"size":"1"},{"size":"288"},{"size":"64"}]}}},"dtype":{"type":1}},"name":"InceptionV3/Mixed_5d/Branch_0/Conv2d_0a_1x1/weights","op":"Const"},{"input":[],"attr":{"value":{"tensor":{"floatVal":[],"doubleVal":[],"intVal":[],"stringVal":[],"scomplexVal":[],"int64Val":[],"boolVal":[],"uint32Val":[],"uint64Val":[],"dtype":1,"tensorShape":{"dim":[{"size":"64"}]}}},"dtype":{"type":1}},"name":"InceptionV3/Mixed_5d/Branch_0/Conv2d_0a_1x1/BatchNorm/beta","op":"Const"},{"input":[],"attr":{"value":{"tensor":{"floatVal":[],"doubleVal":[],"intVal":[],"stringVal":[],"scomplexVal":[],"int64Val":[],"boolVal":[],"uint32Val":[],"uint64Val":[],"dtype":1,"tensorShape":{"dim":[{"size":"64"}]}}},"dtype":{"type":1}},"name":"InceptionV3/Mixed_5d/Branch_0/Conv2d_0a_1x1/BatchNorm/moving_mean","op":"Const"},{"input":[],"attr":{"value":{"tensor":{"floatVal":[],"doubleVal":[],"intVal":[],"stringVal":[],"scomplexVal":[],"int64Val":[],"boolVal":[],"uint32Val":[],"uint64Val":[],"dtype":1,"tensorShape":{"dim":[{"size":"64"}]}}},"dtype":{"type":1}},"name":"InceptionV3/Mixed_5d/Branch_0/Conv2d_0a_1x1/BatchNorm/moving_variance","op":"Const"},{"input":[],"attr":{"value":{"tensor":{"floatVal":[],"doubleVal":[],"intVal":[],"stringVal":[],"scomplexVal":[],"int64Val":[],"boolVal":[],"uint32Val":[],"uint64Val":[],"dtype":1,"tensorShape":{"dim":[{"size":"1"},{"size":"1"},{"size":"288"},{"size":"48"}]}}},"dtype":{"type":1}},"name":"InceptionV3/Mixed_5d/Branch_1/Conv2d_0a_1x1/weights","op":"Const"},{"input":[],"attr":{"value":{"tensor":{"floatVal":[],"doubleVal":[],"intVal":[],"stringVal":[],"scomplexVal":[],"int64Val":[],"boolVal":[],"uint32Val":[],"uint64Val":[],"dtype":1,"tensorShape":{"dim":[{"size":"48"}]}}},"dtype":{"type":1}},"name":"InceptionV3/Mixed_5d/Branch_1/Conv2d_0a_1x1/BatchNorm/beta","op":"Const"},{"input":[],"attr":{"value":{"tensor":{"floatVal":[],"doubleVal":[],"intVal":[],"stringVal":[],"scomplexVal":[],"int64Val":[],"boolVal":[],"uint32Val":[],"uint64Val":[],"dtype":1,"tensorShape":{"dim":[{"size":"48"}]}}},"dtype":{"type":1}},"name":"InceptionV3/Mixed_5d/Branch_1/Conv2d_0a_1x1/BatchNorm/moving_mean","op":"Const"},{"input":[],"attr":{"value":{"tensor":{"floatVal":[],"doubleVal":[],"intVal":[],"stringVal":[],"scomplexVal":[],"int64Val":[],"boolVal":[],"uint32Val":[],"uint64Val":[],"dtype":1,"tensorShape":{"dim":[{"size":"48"}]}}},"dtype":{"type":1}},"name":"InceptionV3/Mixed_5d/Branch_1/Conv2d_0a_1x1/BatchNorm/moving_variance","op":"Const"},{"input":[],"attr":{"value":{"tensor":{"floatVal":[],"doubleVal":[],"intVal":[],"stringVal":[],"scomplexVal":[],"int64Val":[],"boolVal":[],"uint32Val":[],"uint64Val":[],"dtype":1,"tensorShape":{"dim":[{"size":"5"},{"size":"5"},{"size":"48"},{"size":"64"}]}}},"dtype":{"type":1}},"name":"InceptionV3/Mixed_5d/Branch_1/Conv2d_0b_5x5/weights","op":"Const"},{"input":[],"attr":{"value":{"tensor":{"floatVal":[],"doubleVal":[],"intVal":[],"stringVal":[],"scomplexVal":[],"int64Val":[],"boolVal":[],"uint32Val":[],"uint64Val":[],"dtype":1,"tensorShape":{"dim":[{"size":"64"}]}}},"dtype":{"type":1}},"name":"InceptionV3/Mixed_5d/Branch_1/Conv2d_0b_5x5/BatchNorm/beta","op":"Const"},{"input":[],"attr":{"dtype":{"type":1},"value":{"tensor":{"floatVal":[],"doubleVal":[],"intVal":[],"stringVal":[],"scomplexVal":[],"int64Val":[],"boolVal":[],"uint32Val":[],"uint64Val":[],"dtype":1,"tensorShape":{"dim":[{"size":"64"}]}}}},"name":"InceptionV3/Mixed_5d/Branch_1/Conv2d_0b_5x5/BatchNorm/moving_mean","op":"Const"},{"input":[],"attr":{"value":{"tensor":{"floatVal":[],"doubleVal":[],"intVal":[],"stringVal":[],"scomplexVal":[],"int64Val":[],"boolVal":[],"uint32Val":[],"uint64Val":[],"dtype":1,"tensorShape":{"dim":[{"size":"64"}]}}},"dtype":{"type":1}},"name":"InceptionV3/Mixed_5d/Branch_1/Conv2d_0b_5x5/BatchNorm/moving_variance","op":"Const"},{"input":[],"attr":{"value":{"tensor":{"floatVal":[],"doubleVal":[],"intVal":[],"stringVal":[],"scomplexVal":[],"int64Val":[],"boolVal":[],"uint32Val":[],"uint64Val":[],"dtype":1,"tensorShape":{"dim":[{"size":"1"},{"size":"1"},{"size":"288"},{"size":"64"}]}}},"dtype":{"type":1}},"name":"InceptionV3/Mixed_5d/Branch_2/Conv2d_0a_1x1/weights","op":"Const"},{"input":[],"attr":{"value":{"tensor":{"floatVal":[],"doubleVal":[],"intVal":[],"stringVal":[],"scomplexVal":[],"int64Val":[],"boolVal":[],"uint32Val":[],"uint64Val":[],"dtype":1,"tensorShape":{"dim":[{"size":"64"}]}}},"dtype":{"type":1}},"name":"InceptionV3/Mixed_5d/Branch_2/Conv2d_0a_1x1/BatchNorm/beta","op":"Const"},{"input":[],"attr":{"value":{"tensor":{"floatVal":[],"doubleVal":[],"intVal":[],"stringVal":[],"scomplexVal":[],"int64Val":[],"boolVal":[],"uint32Val":[],"uint64Val":[],"dtype":1,"tensorShape":{"dim":[{"size":"64"}]}}},"dtype":{"type":1}},"name":"InceptionV3/Mixed_5d/Branch_2/Conv2d_0a_1x1/BatchNorm/moving_mean","op":"Const"},{"input":[],"attr":{"value":{"tensor":{"floatVal":[],"doubleVal":[],"intVal":[],"stringVal":[],"scomplexVal":[],"int64Val":[],"boolVal":[],"uint32Val":[],"uint64Val":[],"dtype":1,"tensorShape":{"dim":[{"size":"64"}]}}},"dtype":{"type":1}},"name":"InceptionV3/Mixed_5d/Branch_2/Conv2d_0a_1x1/BatchNorm/moving_variance","op":"Const"},{"input":[],"attr":{"value":{"tensor":{"floatVal":[],"doubleVal":[],"intVal":[],"stringVal":[],"scomplexVal":[],"int64Val":[],"boolVal":[],"uint32Val":[],"uint64Val":[],"dtype":1,"tensorShape":{"dim":[{"size":"3"},{"size":"3"},{"size":"64"},{"size":"96"}]}}},"dtype":{"type":1}},"name":"InceptionV3/Mixed_5d/Branch_2/Conv2d_0b_3x3/weights","op":"Const"},{"input":[],"attr":{"value":{"tensor":{"floatVal":[],"doubleVal":[],"intVal":[],"stringVal":[],"scomplexVal":[],"int64Val":[],"boolVal":[],"uint32Val":[],"uint64Val":[],"dtype":1,"tensorShape":{"dim":[{"size":"96"}]}}},"dtype":{"type":1}},"name":"InceptionV3/Mixed_5d/Branch_2/Conv2d_0b_3x3/BatchNorm/beta","op":"Const"},{"input":[],"attr":{"value":{"tensor":{"floatVal":[],"doubleVal":[],"intVal":[],"stringVal":[],"scomplexVal":[],"int64Val":[],"boolVal":[],"uint32Val":[],"uint64Val":[],"dtype":1,"tensorShape":{"dim":[{"size":"96"}]}}},"dtype":{"type":1}},"name":"InceptionV3/Mixed_5d/Branch_2/Conv2d_0b_3x3/BatchNorm/moving_mean","op":"Const"},{"input":[],"attr":{"value":{"tensor":{"floatVal":[],"doubleVal":[],"intVal":[],"stringVal":[],"scomplexVal":[],"int64Val":[],"boolVal":[],"uint32Val":[],"uint64Val":[],"dtype":1,"tensorShape":{"dim":[{"size":"96"}]}}},"dtype":{"type":1}},"name":"InceptionV3/Mixed_5d/Branch_2/Conv2d_0b_3x3/BatchNorm/moving_variance","op":"Const"},{"input":[],"attr":{"value":{"tensor":{"floatVal":[],"doubleVal":[],"intVal":[],"stringVal":[],"scomplexVal":[],"int64Val":[],"boolVal":[],"uint32Val":[],"uint64Val":[],"dtype":1,"tensorShape":{"dim":[{"size":"3"},{"size":"3"},{"size":"96"},{"size":"96"}]}}},"dtype":{"type":1}},"name":"InceptionV3/Mixed_5d/Branch_2/Conv2d_0c_3x3/weights","op":"Const"},{"input":[],"attr":{"value":{"tensor":{"floatVal":[],"doubleVal":[],"intVal":[],"stringVal":[],"scomplexVal":[],"int64Val":[],"boolVal":[],"uint32Val":[],"uint64Val":[],"dtype":1,"tensorShape":{"dim":[{"size":"96"}]}}},"dtype":{"type":1}},"name":"InceptionV3/Mixed_5d/Branch_2/Conv2d_0c_3x3/BatchNorm/beta","op":"Const"},{"input":[],"attr":{"value":{"tensor":{"floatVal":[],"doubleVal":[],"intVal":[],"stringVal":[],"scomplexVal":[],"int64Val":[],"boolVal":[],"uint32Val":[],"uint64Val":[],"dtype":1,"tensorShape":{"dim":[{"size":"96"}]}}},"dtype":{"type":1}},"name":"InceptionV3/Mixed_5d/Branch_2/Conv2d_0c_3x3/BatchNorm/moving_mean","op":"Const"},{"input":[],"attr":{"value":{"tensor":{"floatVal":[],"doubleVal":[],"intVal":[],"stringVal":[],"scomplexVal":[],"int64Val":[],"boolVal":[],"uint32Val":[],"uint64Val":[],"dtype":1,"tensorShape":{"dim":[{"size":"96"}]}}},"dtype":{"type":1}},"name":"InceptionV3/Mixed_5d/Branch_2/Conv2d_0c_3x3/BatchNorm/moving_variance","op":"Const"},{"input":[],"attr":{"value":{"tensor":{"floatVal":[],"doubleVal":[],"intVal":[],"stringVal":[],"scomplexVal":[],"int64Val":[],"boolVal":[],"uint32Val":[],"uint64Val":[],"dtype":1,"tensorShape":{"dim":[{"size":"1"},{"size":"1"},{"size":"256"},{"size":"64"}]}}},"dtype":{"type":1}},"name":"InceptionV3/Mixed_5c/Branch_0/Conv2d_0a_1x1/weights","op":"Const"},{"input":[],"attr":{"value":{"tensor":{"floatVal":[],"doubleVal":[],"intVal":[],"stringVal":[],"scomplexVal":[],"int64Val":[],"boolVal":[],"uint32Val":[],"uint64Val":[],"dtype":1,"tensorShape":{"dim":[{"size":"64"}]}}},"dtype":{"type":1}},"name":"InceptionV3/Mixed_5c/Branch_0/Conv2d_0a_1x1/BatchNorm/beta","op":"Const"},{"input":[],"attr":{"value":{"tensor":{"floatVal":[],"doubleVal":[],"intVal":[],"stringVal":[],"scomplexVal":[],"int64Val":[],"boolVal":[],"uint32Val":[],"uint64Val":[],"dtype":1,"tensorShape":{"dim":[{"size":"64"}]}}},"dtype":{"type":1}},"name":"InceptionV3/Mixed_5c/Branch_0/Conv2d_0a_1x1/BatchNorm/moving_mean","op":"Const"},{"input":[],"attr":{"dtype":{"type":1},"value":{"tensor":{"floatVal":[],"doubleVal":[],"intVal":[],"stringVal":[],"scomplexVal":[],"int64Val":[],"boolVal":[],"uint32Val":[],"uint64Val":[],"dtype":1,"tensorShape":{"dim":[{"size":"64"}]}}}},"name":"InceptionV3/Mixed_5c/Branch_0/Conv2d_0a_1x1/BatchNorm/moving_variance","op":"Const"},{"input":[],"attr":{"dtype":{"type":1},"value":{"tensor":{"floatVal":[],"doubleVal":[],"intVal":[],"stringVal":[],"scomplexVal":[],"int64Val":[],"boolVal":[],"uint32Val":[],"uint64Val":[],"dtype":1,"tensorShape":{"dim":[{"size":"1"},{"size":"1"},{"size":"256"},{"size":"48"}]}}}},"name":"InceptionV3/Mixed_5c/Branch_1/Conv2d_0b_1x1/weights","op":"Const"},{"input":[],"attr":{"value":{"tensor":{"floatVal":[],"doubleVal":[],"intVal":[],"stringVal":[],"scomplexVal":[],"int64Val":[],"boolVal":[],"uint32Val":[],"uint64Val":[],"dtype":1,"tensorShape":{"dim":[{"size":"48"}]}}},"dtype":{"type":1}},"name":"InceptionV3/Mixed_5c/Branch_1/Conv2d_0b_1x1/BatchNorm/beta","op":"Const"},{"input":[],"attr":{"value":{"tensor":{"floatVal":[],"doubleVal":[],"intVal":[],"stringVal":[],"scomplexVal":[],"int64Val":[],"boolVal":[],"uint32Val":[],"uint64Val":[],"dtype":1,"tensorShape":{"dim":[{"size":"48"}]}}},"dtype":{"type":1}},"name":"InceptionV3/Mixed_5c/Branch_1/Conv2d_0b_1x1/BatchNorm/moving_mean","op":"Const"},{"input":[],"attr":{"value":{"tensor":{"floatVal":[],"doubleVal":[],"intVal":[],"stringVal":[],"scomplexVal":[],"int64Val":[],"boolVal":[],"uint32Val":[],"uint64Val":[],"dtype":1,"tensorShape":{"dim":[{"size":"48"}]}}},"dtype":{"type":1}},"name":"InceptionV3/Mixed_5c/Branch_1/Conv2d_0b_1x1/BatchNorm/moving_variance","op":"Const"},{"input":[],"attr":{"value":{"tensor":{"floatVal":[],"doubleVal":[],"intVal":[],"stringVal":[],"scomplexVal":[],"int64Val":[],"boolVal":[],"uint32Val":[],"uint64Val":[],"dtype":1,"tensorShape":{"dim":[{"size":"5"},{"size":"5"},{"size":"48"},{"size":"64"}]}}},"dtype":{"type":1}},"name":"InceptionV3/Mixed_5c/Branch_1/Conv_1_0c_5x5/weights","op":"Const"},{"input":[],"attr":{"value":{"tensor":{"floatVal":[],"doubleVal":[],"intVal":[],"stringVal":[],"scomplexVal":[],"int64Val":[],"boolVal":[],"uint32Val":[],"uint64Val":[],"dtype":1,"tensorShape":{"dim":[{"size":"64"}]}}},"dtype":{"type":1}},"name":"InceptionV3/Mixed_5c/Branch_1/Conv_1_0c_5x5/BatchNorm/beta","op":"Const"},{"input":[],"attr":{"value":{"tensor":{"floatVal":[],"doubleVal":[],"intVal":[],"stringVal":[],"scomplexVal":[],"int64Val":[],"boolVal":[],"uint32Val":[],"uint64Val":[],"dtype":1,"tensorShape":{"dim":[{"size":"64"}]}}},"dtype":{"type":1}},"name":"InceptionV3/Mixed_5c/Branch_1/Conv_1_0c_5x5/BatchNorm/moving_mean","op":"Const"},{"input":[],"attr":{"value":{"tensor":{"floatVal":[],"doubleVal":[],"intVal":[],"stringVal":[],"scomplexVal":[],"int64Val":[],"boolVal":[],"uint32Val":[],"uint64Val":[],"dtype":1,"tensorShape":{"dim":[{"size":"64"}]}}},"dtype":{"type":1}},"name":"InceptionV3/Mixed_5c/Branch_1/Conv_1_0c_5x5/BatchNorm/moving_variance","op":"Const"},{"input":[],"attr":{"value":{"tensor":{"floatVal":[],"doubleVal":[],"intVal":[],"stringVal":[],"scomplexVal":[],"int64Val":[],"boolVal":[],"uint32Val":[],"uint64Val":[],"dtype":1,"tensorShape":{"dim":[{"size":"1"},{"size":"1"},{"size":"256"},{"size":"64"}]}}},"dtype":{"type":1}},"name":"InceptionV3/Mixed_5c/Branch_2/Conv2d_0a_1x1/weights","op":"Const"},{"input":[],"attr":{"value":{"tensor":{"floatVal":[],"doubleVal":[],"intVal":[],"stringVal":[],"scomplexVal":[],"int64Val":[],"boolVal":[],"uint32Val":[],"uint64Val":[],"dtype":1,"tensorShape":{"dim":[{"size":"64"}]}}},"dtype":{"type":1}},"name":"InceptionV3/Mixed_5c/Branch_2/Conv2d_0a_1x1/BatchNorm/beta","op":"Const"},{"input":[],"attr":{"value":{"tensor":{"floatVal":[],"doubleVal":[],"intVal":[],"stringVal":[],"scomplexVal":[],"int64Val":[],"boolVal":[],"uint32Val":[],"uint64Val":[],"dtype":1,"tensorShape":{"dim":[{"size":"64"}]}}},"dtype":{"type":1}},"name":"InceptionV3/Mixed_5c/Branch_2/Conv2d_0a_1x1/BatchNorm/moving_mean","op":"Const"},{"input":[],"attr":{"value":{"tensor":{"floatVal":[],"doubleVal":[],"intVal":[],"stringVal":[],"scomplexVal":[],"int64Val":[],"boolVal":[],"uint32Val":[],"uint64Val":[],"dtype":1,"tensorShape":{"dim":[{"size":"64"}]}}},"dtype":{"type":1}},"name":"InceptionV3/Mixed_5c/Branch_2/Conv2d_0a_1x1/BatchNorm/moving_variance","op":"Const"},{"input":[],"attr":{"value":{"tensor":{"floatVal":[],"doubleVal":[],"intVal":[],"stringVal":[],"scomplexVal":[],"int64Val":[],"boolVal":[],"uint32Val":[],"uint64Val":[],"dtype":1,"tensorShape":{"dim":[{"size":"3"},{"size":"3"},{"size":"64"},{"size":"96"}]}}},"dtype":{"type":1}},"name":"InceptionV3/Mixed_5c/Branch_2/Conv2d_0b_3x3/weights","op":"Const"},{"input":[],"attr":{"value":{"tensor":{"floatVal":[],"doubleVal":[],"intVal":[],"stringVal":[],"scomplexVal":[],"int64Val":[],"boolVal":[],"uint32Val":[],"uint64Val":[],"dtype":1,"tensorShape":{"dim":[{"size":"96"}]}}},"dtype":{"type":1}},"name":"InceptionV3/Mixed_5c/Branch_2/Conv2d_0b_3x3/BatchNorm/beta","op":"Const"},{"input":[],"attr":{"value":{"tensor":{"floatVal":[],"doubleVal":[],"intVal":[],"stringVal":[],"scomplexVal":[],"int64Val":[],"boolVal":[],"uint32Val":[],"uint64Val":[],"dtype":1,"tensorShape":{"dim":[{"size":"96"}]}}},"dtype":{"type":1}},"name":"InceptionV3/Mixed_5c/Branch_2/Conv2d_0b_3x3/BatchNorm/moving_mean","op":"Const"},{"input":[],"attr":{"dtype":{"type":1},"value":{"tensor":{"floatVal":[],"doubleVal":[],"intVal":[],"stringVal":[],"scomplexVal":[],"int64Val":[],"boolVal":[],"uint32Val":[],"uint64Val":[],"dtype":1,"tensorShape":{"dim":[{"size":"96"}]}}}},"name":"InceptionV3/Mixed_5c/Branch_2/Conv2d_0b_3x3/BatchNorm/moving_variance","op":"Const"},{"input":[],"attr":{"value":{"tensor":{"floatVal":[],"doubleVal":[],"intVal":[],"stringVal":[],"scomplexVal":[],"int64Val":[],"boolVal":[],"uint32Val":[],"uint64Val":[],"dtype":1,"tensorShape":{"dim":[{"size":"3"},{"size":"3"},{"size":"96"},{"size":"96"}]}}},"dtype":{"type":1}},"name":"InceptionV3/Mixed_5c/Branch_2/Conv2d_0c_3x3/weights","op":"Const"},{"input":[],"attr":{"value":{"tensor":{"floatVal":[],"doubleVal":[],"intVal":[],"stringVal":[],"scomplexVal":[],"int64Val":[],"boolVal":[],"uint32Val":[],"uint64Val":[],"dtype":1,"tensorShape":{"dim":[{"size":"96"}]}}},"dtype":{"type":1}},"name":"InceptionV3/Mixed_5c/Branch_2/Conv2d_0c_3x3/BatchNorm/beta","op":"Const"},{"input":[],"attr":{"value":{"tensor":{"floatVal":[],"doubleVal":[],"intVal":[],"stringVal":[],"scomplexVal":[],"int64Val":[],"boolVal":[],"uint32Val":[],"uint64Val":[],"dtype":1,"tensorShape":{"dim":[{"size":"96"}]}}},"dtype":{"type":1}},"name":"InceptionV3/Mixed_5c/Branch_2/Conv2d_0c_3x3/BatchNorm/moving_mean","op":"Const"},{"input":[],"attr":{"value":{"tensor":{"floatVal":[],"doubleVal":[],"intVal":[],"stringVal":[],"scomplexVal":[],"int64Val":[],"boolVal":[],"uint32Val":[],"uint64Val":[],"dtype":1,"tensorShape":{"dim":[{"size":"96"}]}}},"dtype":{"type":1}},"name":"InceptionV3/Mixed_5c/Branch_2/Conv2d_0c_3x3/BatchNorm/moving_variance","op":"Const"},{"input":[],"attr":{"value":{"tensor":{"floatVal":[],"doubleVal":[],"intVal":[],"stringVal":[],"scomplexVal":[],"int64Val":[],"boolVal":[],"uint32Val":[],"uint64Val":[],"dtype":1,"tensorShape":{"dim":[{"size":"1"},{"size":"1"},{"size":"192"},{"size":"64"}]}}},"dtype":{"type":1}},"name":"InceptionV3/Mixed_5b/Branch_0/Conv2d_0a_1x1/weights","op":"Const"},{"input":[],"attr":{"value":{"tensor":{"floatVal":[],"doubleVal":[],"intVal":[],"stringVal":[],"scomplexVal":[],"int64Val":[],"boolVal":[],"uint32Val":[],"uint64Val":[],"dtype":1,"tensorShape":{"dim":[{"size":"64"}]}}},"dtype":{"type":1}},"name":"InceptionV3/Mixed_5b/Branch_0/Conv2d_0a_1x1/BatchNorm/beta","op":"Const"},{"input":[],"attr":{"value":{"tensor":{"floatVal":[],"doubleVal":[],"intVal":[],"stringVal":[],"scomplexVal":[],"int64Val":[],"boolVal":[],"uint32Val":[],"uint64Val":[],"dtype":1,"tensorShape":{"dim":[{"size":"64"}]}}},"dtype":{"type":1}},"name":"InceptionV3/Mixed_5b/Branch_0/Conv2d_0a_1x1/BatchNorm/moving_mean","op":"Const"},{"input":[],"attr":{"value":{"tensor":{"floatVal":[],"doubleVal":[],"intVal":[],"stringVal":[],"scomplexVal":[],"int64Val":[],"boolVal":[],"uint32Val":[],"uint64Val":[],"dtype":1,"tensorShape":{"dim":[{"size":"64"}]}}},"dtype":{"type":1}},"name":"InceptionV3/Mixed_5b/Branch_0/Conv2d_0a_1x1/BatchNorm/moving_variance","op":"Const"},{"input":[],"attr":{"value":{"tensor":{"floatVal":[],"doubleVal":[],"intVal":[],"stringVal":[],"scomplexVal":[],"int64Val":[],"boolVal":[],"uint32Val":[],"uint64Val":[],"dtype":1,"tensorShape":{"dim":[{"size":"1"},{"size":"1"},{"size":"192"},{"size":"48"}]}}},"dtype":{"type":1}},"name":"InceptionV3/Mixed_5b/Branch_1/Conv2d_0a_1x1/weights","op":"Const"},{"input":[],"attr":{"value":{"tensor":{"floatVal":[1],"doubleVal":[],"intVal":[],"stringVal":[],"scomplexVal":[],"int64Val":[],"boolVal":[],"uint32Val":[],"uint64Val":[],"dtype":1,"tensorShape":{"dim":[{"size":"48"}]}}},"dtype":{"type":1}},"name":"InceptionV3/Mixed_5d/Branch_1/Conv2d_0a_1x1/BatchNorm/Const","op":"Const"},{"input":[],"attr":{"value":{"tensor":{"floatVal":[],"doubleVal":[],"intVal":[],"stringVal":[],"scomplexVal":[],"int64Val":[],"boolVal":[],"uint32Val":[],"uint64Val":[],"dtype":1,"tensorShape":{"dim":[{"size":"48"}]}}},"dtype":{"type":1}},"name":"InceptionV3/Mixed_5b/Branch_1/Conv2d_0a_1x1/BatchNorm/beta","op":"Const"},{"input":[],"attr":{"value":{"tensor":{"floatVal":[],"doubleVal":[],"intVal":[],"stringVal":[],"scomplexVal":[],"int64Val":[],"boolVal":[],"uint32Val":[],"uint64Val":[],"dtype":1,"tensorShape":{"dim":[{"size":"48"}]}}},"dtype":{"type":1}},"name":"InceptionV3/Mixed_5b/Branch_1/Conv2d_0a_1x1/BatchNorm/moving_mean","op":"Const"},{"input":[],"attr":{"value":{"tensor":{"floatVal":[],"doubleVal":[],"intVal":[],"stringVal":[],"scomplexVal":[],"int64Val":[],"boolVal":[],"uint32Val":[],"uint64Val":[],"dtype":1,"tensorShape":{"dim":[{"size":"48"}]}}},"dtype":{"type":1}},"name":"InceptionV3/Mixed_5b/Branch_1/Conv2d_0a_1x1/BatchNorm/moving_variance","op":"Const"},{"input":[],"attr":{"value":{"tensor":{"floatVal":[],"doubleVal":[],"intVal":[],"stringVal":[],"scomplexVal":[],"int64Val":[],"boolVal":[],"uint32Val":[],"uint64Val":[],"dtype":1,"tensorShape":{"dim":[{"size":"5"},{"size":"5"},{"size":"48"},{"size":"64"}]}}},"dtype":{"type":1}},"name":"InceptionV3/Mixed_5b/Branch_1/Conv2d_0b_5x5/weights","op":"Const"},{"input":[],"attr":{"value":{"tensor":{"floatVal":[],"doubleVal":[],"intVal":[],"stringVal":[],"scomplexVal":[],"int64Val":[],"boolVal":[],"uint32Val":[],"uint64Val":[],"dtype":1,"tensorShape":{"dim":[{"size":"64"}]}}},"dtype":{"type":1}},"name":"InceptionV3/Mixed_5b/Branch_1/Conv2d_0b_5x5/BatchNorm/beta","op":"Const"},{"input":[],"attr":{"value":{"tensor":{"floatVal":[],"doubleVal":[],"intVal":[],"stringVal":[],"scomplexVal":[],"int64Val":[],"boolVal":[],"uint32Val":[],"uint64Val":[],"dtype":1,"tensorShape":{"dim":[{"size":"64"}]}}},"dtype":{"type":1}},"name":"InceptionV3/Mixed_5b/Branch_1/Conv2d_0b_5x5/BatchNorm/moving_mean","op":"Const"},{"input":[],"attr":{"value":{"tensor":{"floatVal":[],"doubleVal":[],"intVal":[],"stringVal":[],"scomplexVal":[],"int64Val":[],"boolVal":[],"uint32Val":[],"uint64Val":[],"dtype":1,"tensorShape":{"dim":[{"size":"64"}]}}},"dtype":{"type":1}},"name":"InceptionV3/Mixed_5b/Branch_1/Conv2d_0b_5x5/BatchNorm/moving_variance","op":"Const"},{"input":[],"attr":{"value":{"tensor":{"floatVal":[],"doubleVal":[],"intVal":[],"stringVal":[],"scomplexVal":[],"int64Val":[],"boolVal":[],"uint32Val":[],"uint64Val":[],"dtype":1,"tensorShape":{"dim":[{"size":"1"},{"size":"1"},{"size":"192"},{"size":"64"}]}}},"dtype":{"type":1}},"name":"InceptionV3/Mixed_5b/Branch_2/Conv2d_0a_1x1/weights","op":"Const"},{"input":[],"attr":{"dtype":{"type":1},"value":{"tensor":{"floatVal":[],"doubleVal":[],"intVal":[],"stringVal":[],"scomplexVal":[],"int64Val":[],"boolVal":[],"uint32Val":[],"uint64Val":[],"dtype":1,"tensorShape":{"dim":[{"size":"64"}]}}}},"name":"InceptionV3/Mixed_5b/Branch_2/Conv2d_0a_1x1/BatchNorm/beta","op":"Const"},{"input":[],"attr":{"value":{"tensor":{"floatVal":[],"doubleVal":[],"intVal":[],"stringVal":[],"scomplexVal":[],"int64Val":[],"boolVal":[],"uint32Val":[],"uint64Val":[],"dtype":1,"tensorShape":{"dim":[{"size":"64"}]}}},"dtype":{"type":1}},"name":"InceptionV3/Mixed_5b/Branch_2/Conv2d_0a_1x1/BatchNorm/moving_mean","op":"Const"},{"input":[],"attr":{"value":{"tensor":{"floatVal":[],"doubleVal":[],"intVal":[],"stringVal":[],"scomplexVal":[],"int64Val":[],"boolVal":[],"uint32Val":[],"uint64Val":[],"dtype":1,"tensorShape":{"dim":[{"size":"64"}]}}},"dtype":{"type":1}},"name":"InceptionV3/Mixed_5b/Branch_2/Conv2d_0a_1x1/BatchNorm/moving_variance","op":"Const"},{"input":[],"attr":{"value":{"tensor":{"floatVal":[],"doubleVal":[],"intVal":[],"stringVal":[],"scomplexVal":[],"int64Val":[],"boolVal":[],"uint32Val":[],"uint64Val":[],"dtype":1,"tensorShape":{"dim":[{"size":"3"},{"size":"3"},{"size":"64"},{"size":"96"}]}}},"dtype":{"type":1}},"name":"InceptionV3/Mixed_5b/Branch_2/Conv2d_0b_3x3/weights","op":"Const"},{"input":[],"attr":{"value":{"tensor":{"floatVal":[],"doubleVal":[],"intVal":[],"stringVal":[],"scomplexVal":[],"int64Val":[],"boolVal":[],"uint32Val":[],"uint64Val":[],"dtype":1,"tensorShape":{"dim":[{"size":"96"}]}}},"dtype":{"type":1}},"name":"InceptionV3/Mixed_5b/Branch_2/Conv2d_0b_3x3/BatchNorm/beta","op":"Const"},{"input":[],"attr":{"value":{"tensor":{"floatVal":[],"doubleVal":[],"intVal":[],"stringVal":[],"scomplexVal":[],"int64Val":[],"boolVal":[],"uint32Val":[],"uint64Val":[],"dtype":1,"tensorShape":{"dim":[{"size":"96"}]}}},"dtype":{"type":1}},"name":"InceptionV3/Mixed_5b/Branch_2/Conv2d_0b_3x3/BatchNorm/moving_mean","op":"Const"},{"input":[],"attr":{"value":{"tensor":{"floatVal":[],"doubleVal":[],"intVal":[],"stringVal":[],"scomplexVal":[],"int64Val":[],"boolVal":[],"uint32Val":[],"uint64Val":[],"dtype":1,"tensorShape":{"dim":[{"size":"96"}]}}},"dtype":{"type":1}},"name":"InceptionV3/Mixed_5b/Branch_2/Conv2d_0b_3x3/BatchNorm/moving_variance","op":"Const"},{"input":[],"attr":{"value":{"tensor":{"floatVal":[],"doubleVal":[],"intVal":[],"stringVal":[],"scomplexVal":[],"int64Val":[],"boolVal":[],"uint32Val":[],"uint64Val":[],"dtype":1,"tensorShape":{"dim":[{"size":"3"},{"size":"3"},{"size":"96"},{"size":"96"}]}}},"dtype":{"type":1}},"name":"InceptionV3/Mixed_5b/Branch_2/Conv2d_0c_3x3/weights","op":"Const"},{"input":[],"attr":{"value":{"tensor":{"floatVal":[1],"doubleVal":[],"intVal":[],"stringVal":[],"scomplexVal":[],"int64Val":[],"boolVal":[],"uint32Val":[],"uint64Val":[],"dtype":1,"tensorShape":{"dim":[{"size":"96"}]}}},"dtype":{"type":1}},"name":"InceptionV3/Mixed_6a/Branch_1/Conv2d_0b_3x3/BatchNorm/Const","op":"Const"},{"input":[],"attr":{"value":{"tensor":{"floatVal":[],"doubleVal":[],"intVal":[],"stringVal":[],"scomplexVal":[],"int64Val":[],"boolVal":[],"uint32Val":[],"uint64Val":[],"dtype":1,"tensorShape":{"dim":[{"size":"96"}]}}},"dtype":{"type":1}},"name":"InceptionV3/Mixed_5b/Branch_2/Conv2d_0c_3x3/BatchNorm/beta","op":"Const"},{"input":[],"attr":{"value":{"tensor":{"floatVal":[],"doubleVal":[],"intVal":[],"stringVal":[],"scomplexVal":[],"int64Val":[],"boolVal":[],"uint32Val":[],"uint64Val":[],"dtype":1,"tensorShape":{"dim":[{"size":"96"}]}}},"dtype":{"type":1}},"name":"InceptionV3/Mixed_5b/Branch_2/Conv2d_0c_3x3/BatchNorm/moving_mean","op":"Const"},{"input":[],"attr":{"value":{"tensor":{"floatVal":[],"doubleVal":[],"intVal":[],"stringVal":[],"scomplexVal":[],"int64Val":[],"boolVal":[],"uint32Val":[],"uint64Val":[],"dtype":1,"tensorShape":{"dim":[{"size":"96"}]}}},"dtype":{"type":1}},"name":"InceptionV3/Mixed_5b/Branch_2/Conv2d_0c_3x3/BatchNorm/moving_variance","op":"Const"},{"input":[],"attr":{"value":{"tensor":{"floatVal":[],"doubleVal":[],"intVal":[],"stringVal":[],"scomplexVal":[],"int64Val":[],"boolVal":[],"uint32Val":[],"uint64Val":[],"dtype":1,"tensorShape":{"dim":[{"size":"3"},{"size":"3"},{"size":"3"},{"size":"32"}]}}},"dtype":{"type":1}},"name":"InceptionV3/Conv2d_1a_3x3/weights","op":"Const"},{"input":[],"attr":{"value":{"tensor":{"floatVal":[],"doubleVal":[],"intVal":[],"stringVal":[],"scomplexVal":[],"int64Val":[],"boolVal":[],"uint32Val":[],"uint64Val":[],"dtype":1,"tensorShape":{"dim":[{"size":"32"}]}}},"dtype":{"type":1}},"name":"InceptionV3/Conv2d_1a_3x3/BatchNorm/beta","op":"Const"},{"input":[],"attr":{"value":{"tensor":{"floatVal":[],"doubleVal":[],"intVal":[],"stringVal":[],"scomplexVal":[],"int64Val":[],"boolVal":[],"uint32Val":[],"uint64Val":[],"dtype":1,"tensorShape":{"dim":[{"size":"32"}]}}},"dtype":{"type":1}},"name":"InceptionV3/Conv2d_1a_3x3/BatchNorm/moving_mean","op":"Const"},{"input":[],"attr":{"value":{"tensor":{"floatVal":[],"doubleVal":[],"intVal":[],"stringVal":[],"scomplexVal":[],"int64Val":[],"boolVal":[],"uint32Val":[],"uint64Val":[],"dtype":1,"tensorShape":{"dim":[{"size":"32"}]}}},"dtype":{"type":1}},"name":"InceptionV3/Conv2d_1a_3x3/BatchNorm/moving_variance","op":"Const"},{"input":[],"attr":{"dtype":{"type":1},"value":{"tensor":{"floatVal":[],"doubleVal":[],"intVal":[],"stringVal":[],"scomplexVal":[],"int64Val":[],"boolVal":[],"uint32Val":[],"uint64Val":[],"dtype":1,"tensorShape":{"dim":[{"size":"3"},{"size":"3"},{"size":"32"},{"size":"32"}]}}}},"name":"InceptionV3/Conv2d_2a_3x3/weights","op":"Const"},{"input":[],"attr":{"value":{"tensor":{"floatVal":[],"doubleVal":[],"intVal":[],"stringVal":[],"scomplexVal":[],"int64Val":[],"boolVal":[],"uint32Val":[],"uint64Val":[],"dtype":1,"tensorShape":{"dim":[{"size":"32"}]}}},"dtype":{"type":1}},"name":"InceptionV3/Conv2d_2a_3x3/BatchNorm/beta","op":"Const"},{"input":[],"attr":{"value":{"tensor":{"floatVal":[],"doubleVal":[],"intVal":[],"stringVal":[],"scomplexVal":[],"int64Val":[],"boolVal":[],"uint32Val":[],"uint64Val":[],"dtype":1,"tensorShape":{"dim":[{"size":"32"}]}}},"dtype":{"type":1}},"name":"InceptionV3/Conv2d_2a_3x3/BatchNorm/moving_mean","op":"Const"},{"input":[],"attr":{"value":{"tensor":{"floatVal":[],"doubleVal":[],"intVal":[],"stringVal":[],"scomplexVal":[],"int64Val":[],"boolVal":[],"uint32Val":[],"uint64Val":[],"dtype":1,"tensorShape":{"dim":[{"size":"32"}]}}},"dtype":{"type":1}},"name":"InceptionV3/Conv2d_2a_3x3/BatchNorm/moving_variance","op":"Const"},{"input":[],"attr":{"value":{"tensor":{"floatVal":[],"doubleVal":[],"intVal":[],"stringVal":[],"scomplexVal":[],"int64Val":[],"boolVal":[],"uint32Val":[],"uint64Val":[],"dtype":1,"tensorShape":{"dim":[{"size":"3"},{"size":"3"},{"size":"32"},{"size":"64"}]}}},"dtype":{"type":1}},"name":"InceptionV3/Conv2d_2b_3x3/weights","op":"Const"},{"input":[],"attr":{"dtype":{"type":1},"value":{"tensor":{"floatVal":[],"doubleVal":[],"intVal":[],"stringVal":[],"scomplexVal":[],"int64Val":[],"boolVal":[],"uint32Val":[],"uint64Val":[],"dtype":1,"tensorShape":{"dim":[{"size":"64"}]}}}},"name":"InceptionV3/Conv2d_2b_3x3/BatchNorm/beta","op":"Const"},{"input":[],"attr":{"value":{"tensor":{"floatVal":[],"doubleVal":[],"intVal":[],"stringVal":[],"scomplexVal":[],"int64Val":[],"boolVal":[],"uint32Val":[],"uint64Val":[],"dtype":1,"tensorShape":{"dim":[{"size":"64"}]}}},"dtype":{"type":1}},"name":"InceptionV3/Conv2d_2b_3x3/BatchNorm/moving_mean","op":"Const"},{"input":[],"attr":{"value":{"tensor":{"floatVal":[],"doubleVal":[],"intVal":[],"stringVal":[],"scomplexVal":[],"int64Val":[],"boolVal":[],"uint32Val":[],"uint64Val":[],"dtype":1,"tensorShape":{"dim":[{"size":"64"}]}}},"dtype":{"type":1}},"name":"InceptionV3/Conv2d_2b_3x3/BatchNorm/moving_variance","op":"Const"},{"input":[],"attr":{"value":{"tensor":{"floatVal":[],"doubleVal":[],"intVal":[],"stringVal":[],"scomplexVal":[],"int64Val":[],"boolVal":[],"uint32Val":[],"uint64Val":[],"dtype":1,"tensorShape":{"dim":[{"size":"1"},{"size":"1"},{"size":"64"},{"size":"80"}]}}},"dtype":{"type":1}},"name":"InceptionV3/Conv2d_3b_1x1/weights","op":"Const"},{"input":[],"attr":{"value":{"tensor":{"floatVal":[1],"doubleVal":[],"intVal":[],"stringVal":[],"scomplexVal":[],"int64Val":[],"boolVal":[],"uint32Val":[],"uint64Val":[],"dtype":1,"tensorShape":{"dim":[{"size":"80"}]}}},"dtype":{"type":1}},"name":"InceptionV3/Conv2d_3b_1x1/BatchNorm/Const","op":"Const"},{"input":[],"attr":{"value":{"tensor":{"floatVal":[],"doubleVal":[],"intVal":[],"stringVal":[],"scomplexVal":[],"int64Val":[],"boolVal":[],"uint32Val":[],"uint64Val":[],"dtype":1,"tensorShape":{"dim":[{"size":"80"}]}}},"dtype":{"type":1}},"name":"InceptionV3/Conv2d_3b_1x1/BatchNorm/beta","op":"Const"},{"input":[],"attr":{"value":{"tensor":{"floatVal":[],"doubleVal":[],"intVal":[],"stringVal":[],"scomplexVal":[],"int64Val":[],"boolVal":[],"uint32Val":[],"uint64Val":[],"dtype":1,"tensorShape":{"dim":[{"size":"80"}]}}},"dtype":{"type":1}},"name":"InceptionV3/Conv2d_3b_1x1/BatchNorm/moving_mean","op":"Const"},{"input":[],"attr":{"value":{"tensor":{"floatVal":[],"doubleVal":[],"intVal":[],"stringVal":[],"scomplexVal":[],"int64Val":[],"boolVal":[],"uint32Val":[],"uint64Val":[],"dtype":1,"tensorShape":{"dim":[{"size":"80"}]}}},"dtype":{"type":1}},"name":"InceptionV3/Conv2d_3b_1x1/BatchNorm/moving_variance","op":"Const"},{"input":[],"attr":{"dtype":{"type":1},"value":{"tensor":{"floatVal":[],"doubleVal":[],"intVal":[],"stringVal":[],"scomplexVal":[],"int64Val":[],"boolVal":[],"uint32Val":[],"uint64Val":[],"dtype":1,"tensorShape":{"dim":[{"size":"3"},{"size":"3"},{"size":"80"},{"size":"192"}]}}}},"name":"InceptionV3/Conv2d_4a_3x3/weights","op":"Const"},{"input":[],"attr":{"value":{"tensor":{"floatVal":[],"doubleVal":[],"intVal":[],"stringVal":[],"scomplexVal":[],"int64Val":[],"boolVal":[],"uint32Val":[],"uint64Val":[],"dtype":1,"tensorShape":{"dim":[{"size":"192"}]}}},"dtype":{"type":1}},"name":"InceptionV3/Conv2d_4a_3x3/BatchNorm/beta","op":"Const"},{"input":[],"attr":{"value":{"tensor":{"floatVal":[],"doubleVal":[],"intVal":[],"stringVal":[],"scomplexVal":[],"int64Val":[],"boolVal":[],"uint32Val":[],"uint64Val":[],"dtype":1,"tensorShape":{"dim":[{"size":"192"}]}}},"dtype":{"type":1}},"name":"InceptionV3/Conv2d_4a_3x3/BatchNorm/moving_mean","op":"Const"},{"input":[],"attr":{"value":{"tensor":{"floatVal":[],"doubleVal":[],"intVal":[],"stringVal":[],"scomplexVal":[],"int64Val":[],"boolVal":[],"uint32Val":[],"uint64Val":[],"dtype":1,"tensorShape":{"dim":[{"size":"192"}]}}},"dtype":{"type":1}},"name":"InceptionV3/Conv2d_4a_3x3/BatchNorm/moving_variance","op":"Const"},{"input":[],"attr":{"value":{"tensor":{"floatVal":[],"doubleVal":[],"intVal":[],"stringVal":[],"scomplexVal":[],"int64Val":[],"boolVal":[],"uint32Val":[],"uint64Val":[],"dtype":1,"tensorShape":{"dim":[{"size":"1"},{"size":"1"},{"size":"192"},{"size":"32"}]}}},"dtype":{"type":1}},"name":"InceptionV3/Mixed_5b/Branch_3/Conv2d_0b_1x1/weights","op":"Const"},{"input":[],"attr":{"value":{"tensor":{"floatVal":[1],"doubleVal":[],"intVal":[],"stringVal":[],"scomplexVal":[],"int64Val":[],"boolVal":[],"uint32Val":[],"uint64Val":[],"dtype":1,"tensorShape":{"dim":[{"size":"32"}]}}},"dtype":{"type":1}},"name":"InceptionV3/Conv2d_1a_3x3/BatchNorm/Const","op":"Const"},{"input":[],"attr":{"value":{"tensor":{"floatVal":[],"doubleVal":[],"intVal":[],"stringVal":[],"scomplexVal":[],"int64Val":[],"boolVal":[],"uint32Val":[],"uint64Val":[],"dtype":1,"tensorShape":{"dim":[{"size":"32"}]}}},"dtype":{"type":1}},"name":"InceptionV3/Mixed_5b/Branch_3/Conv2d_0b_1x1/BatchNorm/beta","op":"Const"},{"input":[],"attr":{"value":{"tensor":{"floatVal":[],"doubleVal":[],"intVal":[],"stringVal":[],"scomplexVal":[],"int64Val":[],"boolVal":[],"uint32Val":[],"uint64Val":[],"dtype":1,"tensorShape":{"dim":[{"size":"32"}]}}},"dtype":{"type":1}},"name":"InceptionV3/Mixed_5b/Branch_3/Conv2d_0b_1x1/BatchNorm/moving_mean","op":"Const"},{"input":[],"attr":{"value":{"tensor":{"floatVal":[],"doubleVal":[],"intVal":[],"stringVal":[],"scomplexVal":[],"int64Val":[],"boolVal":[],"uint32Val":[],"uint64Val":[],"dtype":1,"tensorShape":{"dim":[{"size":"32"}]}}},"dtype":{"type":1}},"name":"InceptionV3/Mixed_5b/Branch_3/Conv2d_0b_1x1/BatchNorm/moving_variance","op":"Const"},{"input":[],"attr":{"value":{"tensor":{"floatVal":[],"doubleVal":[],"intVal":[],"stringVal":[],"scomplexVal":[],"int64Val":[],"boolVal":[],"uint32Val":[],"uint64Val":[],"dtype":1,"tensorShape":{"dim":[{"size":"1"},{"size":"1"},{"size":"256"},{"size":"64"}]}}},"dtype":{"type":1}},"name":"InceptionV3/Mixed_5c/Branch_3/Conv2d_0b_1x1/weights","op":"Const"},{"input":[],"attr":{"value":{"tensor":{"floatVal":[],"doubleVal":[],"intVal":[],"stringVal":[],"scomplexVal":[],"int64Val":[],"boolVal":[],"uint32Val":[],"uint64Val":[],"dtype":1,"tensorShape":{"dim":[{"size":"64"}]}}},"dtype":{"type":1}},"name":"InceptionV3/Mixed_5c/Branch_3/Conv2d_0b_1x1/BatchNorm/beta","op":"Const"},{"input":[],"attr":{"dtype":{"type":1},"value":{"tensor":{"floatVal":[],"doubleVal":[],"intVal":[],"stringVal":[],"scomplexVal":[],"int64Val":[],"boolVal":[],"uint32Val":[],"uint64Val":[],"dtype":1,"tensorShape":{"dim":[{"size":"64"}]}}}},"name":"InceptionV3/Mixed_5c/Branch_3/Conv2d_0b_1x1/BatchNorm/moving_mean","op":"Const"},{"input":[],"attr":{"value":{"tensor":{"floatVal":[],"doubleVal":[],"intVal":[],"stringVal":[],"scomplexVal":[],"int64Val":[],"boolVal":[],"uint32Val":[],"uint64Val":[],"dtype":1,"tensorShape":{"dim":[{"size":"64"}]}}},"dtype":{"type":1}},"name":"InceptionV3/Mixed_5c/Branch_3/Conv2d_0b_1x1/BatchNorm/moving_variance","op":"Const"},{"input":[],"attr":{"value":{"tensor":{"floatVal":[],"doubleVal":[],"intVal":[],"stringVal":[],"scomplexVal":[],"int64Val":[],"boolVal":[],"uint32Val":[],"uint64Val":[],"dtype":1,"tensorShape":{"dim":[{"size":"1"},{"size":"1"},{"size":"288"},{"size":"64"}]}}},"dtype":{"type":1}},"name":"InceptionV3/Mixed_5d/Branch_3/Conv2d_0b_1x1/weights","op":"Const"},{"input":[],"attr":{"value":{"tensor":{"floatVal":[1],"doubleVal":[],"intVal":[],"stringVal":[],"scomplexVal":[],"int64Val":[],"boolVal":[],"uint32Val":[],"uint64Val":[],"dtype":1,"tensorShape":{"dim":[{"size":"64"}]}}},"dtype":{"type":1}},"name":"InceptionV3/Mixed_6a/Branch_1/Conv2d_0a_1x1/BatchNorm/Const","op":"Const"},{"input":[],"attr":{"value":{"tensor":{"floatVal":[],"doubleVal":[],"intVal":[],"stringVal":[],"scomplexVal":[],"int64Val":[],"boolVal":[],"uint32Val":[],"uint64Val":[],"dtype":1,"tensorShape":{"dim":[{"size":"64"}]}}},"dtype":{"type":1}},"name":"InceptionV3/Mixed_5d/Branch_3/Conv2d_0b_1x1/BatchNorm/beta","op":"Const"},{"input":[],"attr":{"value":{"tensor":{"floatVal":[],"doubleVal":[],"intVal":[],"stringVal":[],"scomplexVal":[],"int64Val":[],"boolVal":[],"uint32Val":[],"uint64Val":[],"dtype":1,"tensorShape":{"dim":[{"size":"64"}]}}},"dtype":{"type":1}},"name":"InceptionV3/Mixed_5d/Branch_3/Conv2d_0b_1x1/BatchNorm/moving_mean","op":"Const"},{"input":[],"attr":{"value":{"tensor":{"floatVal":[],"doubleVal":[],"intVal":[],"stringVal":[],"scomplexVal":[],"int64Val":[],"boolVal":[],"uint32Val":[],"uint64Val":[],"dtype":1,"tensorShape":{"dim":[{"size":"64"}]}}},"dtype":{"type":1}},"name":"InceptionV3/Mixed_5d/Branch_3/Conv2d_0b_1x1/BatchNorm/moving_variance","op":"Const"},{"input":[],"attr":{"value":{"tensor":{"floatVal":[],"doubleVal":[],"intVal":[],"stringVal":[],"scomplexVal":[],"int64Val":[],"boolVal":[],"uint32Val":[],"uint64Val":[],"dtype":1,"tensorShape":{"dim":[{"size":"1"},{"size":"1"},{"size":"768"},{"size":"192"}]}}},"dtype":{"type":1}},"name":"InceptionV3/Mixed_6b/Branch_3/Conv2d_0b_1x1/weights","op":"Const"},{"input":[],"attr":{"value":{"tensor":{"floatVal":[],"doubleVal":[],"intVal":[],"stringVal":[],"scomplexVal":[],"int64Val":[],"boolVal":[],"uint32Val":[],"uint64Val":[],"dtype":1,"tensorShape":{"dim":[{"size":"192"}]}}},"dtype":{"type":1}},"name":"InceptionV3/Mixed_6b/Branch_3/Conv2d_0b_1x1/BatchNorm/beta","op":"Const"},{"input":[],"attr":{"value":{"tensor":{"floatVal":[],"doubleVal":[],"intVal":[],"stringVal":[],"scomplexVal":[],"int64Val":[],"boolVal":[],"uint32Val":[],"uint64Val":[],"dtype":1,"tensorShape":{"dim":[{"size":"192"}]}}},"dtype":{"type":1}},"name":"InceptionV3/Mixed_6b/Branch_3/Conv2d_0b_1x1/BatchNorm/moving_mean","op":"Const"},{"input":[],"attr":{"dtype":{"type":1},"value":{"tensor":{"floatVal":[],"doubleVal":[],"intVal":[],"stringVal":[],"scomplexVal":[],"int64Val":[],"boolVal":[],"uint32Val":[],"uint64Val":[],"dtype":1,"tensorShape":{"dim":[{"size":"192"}]}}}},"name":"InceptionV3/Mixed_6b/Branch_3/Conv2d_0b_1x1/BatchNorm/moving_variance","op":"Const"},{"input":[],"attr":{"dtype":{"type":1},"value":{"tensor":{"floatVal":[],"doubleVal":[],"intVal":[],"stringVal":[],"scomplexVal":[],"int64Val":[],"boolVal":[],"uint32Val":[],"uint64Val":[],"dtype":1,"tensorShape":{"dim":[{"size":"1"},{"size":"1"},{"size":"768"},{"size":"192"}]}}}},"name":"InceptionV3/Mixed_6c/Branch_3/Conv2d_0b_1x1/weights","op":"Const"},{"input":[],"attr":{"value":{"tensor":{"floatVal":[],"doubleVal":[],"intVal":[],"stringVal":[],"scomplexVal":[],"int64Val":[],"boolVal":[],"uint32Val":[],"uint64Val":[],"dtype":1,"tensorShape":{"dim":[{"size":"192"}]}}},"dtype":{"type":1}},"name":"InceptionV3/Mixed_6c/Branch_3/Conv2d_0b_1x1/BatchNorm/beta","op":"Const"},{"input":[],"attr":{"value":{"tensor":{"floatVal":[],"doubleVal":[],"intVal":[],"stringVal":[],"scomplexVal":[],"int64Val":[],"boolVal":[],"uint32Val":[],"uint64Val":[],"dtype":1,"tensorShape":{"dim":[{"size":"192"}]}}},"dtype":{"type":1}},"name":"InceptionV3/Mixed_6c/Branch_3/Conv2d_0b_1x1/BatchNorm/moving_mean","op":"Const"},{"input":[],"attr":{"value":{"tensor":{"floatVal":[],"doubleVal":[],"intVal":[],"stringVal":[],"scomplexVal":[],"int64Val":[],"boolVal":[],"uint32Val":[],"uint64Val":[],"dtype":1,"tensorShape":{"dim":[{"size":"192"}]}}},"dtype":{"type":1}},"name":"InceptionV3/Mixed_6c/Branch_3/Conv2d_0b_1x1/BatchNorm/moving_variance","op":"Const"},{"input":[],"attr":{"value":{"tensor":{"floatVal":[],"doubleVal":[],"intVal":[],"stringVal":[],"scomplexVal":[],"int64Val":[],"boolVal":[],"uint32Val":[],"uint64Val":[],"dtype":1,"tensorShape":{"dim":[{"size":"1"},{"size":"1"},{"size":"768"},{"size":"192"}]}}},"dtype":{"type":1}},"name":"InceptionV3/Mixed_6d/Branch_3/Conv2d_0b_1x1/weights","op":"Const"},{"input":[],"attr":{"value":{"tensor":{"floatVal":[],"doubleVal":[],"intVal":[],"stringVal":[],"scomplexVal":[],"int64Val":[],"boolVal":[],"uint32Val":[],"uint64Val":[],"dtype":1,"tensorShape":{"dim":[{"size":"192"}]}}},"dtype":{"type":1}},"name":"InceptionV3/Mixed_6d/Branch_3/Conv2d_0b_1x1/BatchNorm/beta","op":"Const"},{"input":[],"attr":{"value":{"tensor":{"floatVal":[],"doubleVal":[],"intVal":[],"stringVal":[],"scomplexVal":[],"int64Val":[],"boolVal":[],"uint32Val":[],"uint64Val":[],"dtype":1,"tensorShape":{"dim":[{"size":"192"}]}}},"dtype":{"type":1}},"name":"InceptionV3/Mixed_6d/Branch_3/Conv2d_0b_1x1/BatchNorm/moving_mean","op":"Const"},{"input":[],"attr":{"value":{"tensor":{"floatVal":[],"doubleVal":[],"intVal":[],"stringVal":[],"scomplexVal":[],"int64Val":[],"boolVal":[],"uint32Val":[],"uint64Val":[],"dtype":1,"tensorShape":{"dim":[{"size":"192"}]}}},"dtype":{"type":1}},"name":"InceptionV3/Mixed_6d/Branch_3/Conv2d_0b_1x1/BatchNorm/moving_variance","op":"Const"},{"input":[],"attr":{"value":{"tensor":{"floatVal":[],"doubleVal":[],"intVal":[],"stringVal":[],"scomplexVal":[],"int64Val":[],"boolVal":[],"uint32Val":[],"uint64Val":[],"dtype":1,"tensorShape":{"dim":[{"size":"1"},{"size":"1"},{"size":"768"},{"size":"192"}]}}},"dtype":{"type":1}},"name":"InceptionV3/Mixed_6e/Branch_3/Conv2d_0b_1x1/weights","op":"Const"},{"input":[],"attr":{"value":{"tensor":{"floatVal":[1],"doubleVal":[],"intVal":[],"stringVal":[],"scomplexVal":[],"int64Val":[],"boolVal":[],"uint32Val":[],"uint64Val":[],"dtype":1,"tensorShape":{"dim":[{"size":"192"}]}}},"dtype":{"type":1}},"name":"InceptionV3/Mixed_6e/Branch_0/Conv2d_0a_1x1/BatchNorm/Const","op":"Const"},{"input":[],"attr":{"value":{"tensor":{"floatVal":[],"doubleVal":[],"intVal":[],"stringVal":[],"scomplexVal":[],"int64Val":[],"boolVal":[],"uint32Val":[],"uint64Val":[],"dtype":1,"tensorShape":{"dim":[{"size":"192"}]}}},"dtype":{"type":1}},"name":"InceptionV3/Mixed_6e/Branch_3/Conv2d_0b_1x1/BatchNorm/beta","op":"Const"},{"input":[],"attr":{"value":{"tensor":{"floatVal":[],"doubleVal":[],"intVal":[],"stringVal":[],"scomplexVal":[],"int64Val":[],"boolVal":[],"uint32Val":[],"uint64Val":[],"dtype":1,"tensorShape":{"dim":[{"size":"192"}]}}},"dtype":{"type":1}},"name":"InceptionV3/Mixed_6e/Branch_3/Conv2d_0b_1x1/BatchNorm/moving_mean","op":"Const"},{"input":[],"attr":{"value":{"tensor":{"floatVal":[],"doubleVal":[],"intVal":[],"stringVal":[],"scomplexVal":[],"int64Val":[],"boolVal":[],"uint32Val":[],"uint64Val":[],"dtype":1,"tensorShape":{"dim":[{"size":"192"}]}}},"dtype":{"type":1}},"name":"InceptionV3/Mixed_6e/Branch_3/Conv2d_0b_1x1/BatchNorm/moving_variance","op":"Const"},{"input":[],"attr":{"value":{"tensor":{"floatVal":[],"doubleVal":[],"intVal":[3],"stringVal":[],"scomplexVal":[],"int64Val":[],"boolVal":[],"uint32Val":[],"uint64Val":[],"dtype":3,"tensorShape":{"dim":[]}}},"dtype":{"type":3}},"name":"InceptionV3/Mixed_5b/concat/axis","op":"Const"},{"input":[],"attr":{"value":{"tensor":{"floatVal":[],"doubleVal":[],"intVal":[],"stringVal":[],"scomplexVal":[],"int64Val":[],"boolVal":[],"uint32Val":[],"uint64Val":[],"dtype":3,"tensorShape":{"dim":[{"size":"2"}]}}},"dtype":{"type":3}},"name":"bottleneck/Mean/reduction_indices","op":"Const"},{"input":[],"attr":{"value":{"tensor":{"floatVal":[],"doubleVal":[],"intVal":[],"stringVal":[],"scomplexVal":[],"int64Val":[],"boolVal":[],"uint32Val":[],"uint64Val":[],"dtype":1,"tensorShape":{"dim":[{"size":"1"},{"size":"1"},{"size":"768"},{"size":"100"}]}}},"dtype":{"type":1}},"name":"Conv/weights","op":"Const"},{"input":[],"attr":{"value":{"tensor":{"floatVal":[],"doubleVal":[],"intVal":[],"stringVal":[],"scomplexVal":[],"int64Val":[],"boolVal":[],"uint32Val":[],"uint64Val":[],"dtype":1,"tensorShape":{"dim":[{"size":"100"}]}}},"dtype":{"type":1}},"name":"Conv/biases","op":"Const"},{"input":[],"attr":{"shape":{"shape":{"dim":[{"size":"-1"},{"size":"-1"},{"size":"-1"},{"size":"3"}]}},"dtype":{"type":1}},"name":"Placeholder","op":"Placeholder"},{"input":["Placeholder","InceptionV3/Conv2d_1a_3x3/weights"],"attr":{"dilations":{"list":{"s":[],"i":["1","1","1","1"],"f":[],"b":[],"type":[],"shape":[],"tensor":[],"func":[]}},"T":{"type":1},"strides":{"list":{"s":[],"i":["1","2","2","1"],"f":[],"b":[],"type":[],"shape":[],"tensor":[],"func":[]}},"data_format":{"s":[78,72,87,67]},"use_cudnn_on_gpu":{"b":true},"padding":{"s":[86,65,76,73,68]}},"name":"InceptionV3/Conv2d_1a_3x3/Conv2D","op":"Conv2D"},{"input":["InceptionV3/Conv2d_1a_3x3/Conv2D","InceptionV3/Conv2d_1a_3x3/BatchNorm/Const","InceptionV3/Conv2d_1a_3x3/BatchNorm/beta","InceptionV3/Conv2d_1a_3x3/BatchNorm/moving_mean","InceptionV3/Conv2d_1a_3x3/BatchNorm/moving_variance"],"attr":{"epsilon":{"f":0.0010000000474974513},"T":{"type":1},"data_format":{"s":[78,72,87,67]},"is_training":{"b":false}},"name":"InceptionV3/Conv2d_1a_3x3/BatchNorm/FusedBatchNorm","op":"FusedBatchNorm"},{"input":["InceptionV3/Conv2d_1a_3x3/BatchNorm/FusedBatchNorm"],"attr":{"T":{"type":1}},"name":"InceptionV3/Conv2d_1a_3x3/Relu6","op":"Relu6"},{"input":["InceptionV3/Conv2d_1a_3x3/Relu6","InceptionV3/Conv2d_2a_3x3/weights"],"attr":{"padding":{"s":[86,65,76,73,68]},"dilations":{"list":{"s":[],"i":["1","1","1","1"],"f":[],"b":[],"type":[],"shape":[],"tensor":[],"func":[]}},"T":{"type":1},"strides":{"list":{"s":[],"i":["1","1","1","1"],"f":[],"b":[],"type":[],"shape":[],"tensor":[],"func":[]}},"data_format":{"s":[78,72,87,67]},"use_cudnn_on_gpu":{"b":true}},"name":"InceptionV3/Conv2d_2a_3x3/Conv2D","op":"Conv2D"},{"input":["InceptionV3/Conv2d_2a_3x3/Conv2D","InceptionV3/Conv2d_1a_3x3/BatchNorm/Const","InceptionV3/Conv2d_2a_3x3/BatchNorm/beta","InceptionV3/Conv2d_2a_3x3/BatchNorm/moving_mean","InceptionV3/Conv2d_2a_3x3/BatchNorm/moving_variance"],"attr":{"is_training":{"b":false},"epsilon":{"f":0.0010000000474974513},"T":{"type":1},"data_format":{"s":[78,72,87,67]}},"name":"InceptionV3/Conv2d_2a_3x3/BatchNorm/FusedBatchNorm","op":"FusedBatchNorm"},{"input":["InceptionV3/Conv2d_2a_3x3/BatchNorm/FusedBatchNorm"],"attr":{"T":{"type":1}},"name":"InceptionV3/Conv2d_2a_3x3/Relu6","op":"Relu6"},{"input":["InceptionV3/Conv2d_2a_3x3/Relu6","InceptionV3/Conv2d_2b_3x3/weights"],"attr":{"dilations":{"list":{"s":[],"i":["1","1","1","1"],"f":[],"b":[],"type":[],"shape":[],"tensor":[],"func":[]}},"T":{"type":1},"strides":{"list":{"s":[],"i":["1","1","1","1"],"f":[],"b":[],"type":[],"shape":[],"tensor":[],"func":[]}},"data_format":{"s":[78,72,87,67]},"use_cudnn_on_gpu":{"b":true},"padding":{"s":[83,65,77,69]}},"name":"InceptionV3/Conv2d_2b_3x3/Conv2D","op":"Conv2D"},{"input":["InceptionV3/Conv2d_2b_3x3/Conv2D","InceptionV3/Mixed_6a/Branch_1/Conv2d_0a_1x1/BatchNorm/Const","InceptionV3/Conv2d_2b_3x3/BatchNorm/beta","InceptionV3/Conv2d_2b_3x3/BatchNorm/moving_mean","InceptionV3/Conv2d_2b_3x3/BatchNorm/moving_variance"],"attr":{"data_format":{"s":[78,72,87,67]},"is_training":{"b":false},"epsilon":{"f":0.0010000000474974513},"T":{"type":1}},"name":"InceptionV3/Conv2d_2b_3x3/BatchNorm/FusedBatchNorm","op":"FusedBatchNorm"},{"input":["InceptionV3/Conv2d_2b_3x3/BatchNorm/FusedBatchNorm"],"attr":{"T":{"type":1}},"name":"InceptionV3/Conv2d_2b_3x3/Relu6","op":"Relu6"},{"input":["InceptionV3/Conv2d_2b_3x3/Relu6"],"attr":{"data_format":{"s":[78,72,87,67]},"strides":{"list":{"s":[],"i":["1","2","2","1"],"f":[],"b":[],"type":[],"shape":[],"tensor":[],"func":[]}},"ksize":{"list":{"s":[],"i":["1","3","3","1"],"f":[],"b":[],"type":[],"shape":[],"tensor":[],"func":[]}},"padding":{"s":[86,65,76,73,68]},"T":{"type":1}},"name":"InceptionV3/MaxPool_3a_3x3/MaxPool","op":"MaxPool"},{"input":["InceptionV3/MaxPool_3a_3x3/MaxPool","InceptionV3/Conv2d_3b_1x1/weights"],"attr":{"dilations":{"list":{"s":[],"i":["1","1","1","1"],"f":[],"b":[],"type":[],"shape":[],"tensor":[],"func":[]}},"T":{"type":1},"strides":{"list":{"s":[],"i":["1","1","1","1"],"f":[],"b":[],"type":[],"shape":[],"tensor":[],"func":[]}},"data_format":{"s":[78,72,87,67]},"use_cudnn_on_gpu":{"b":true},"padding":{"s":[86,65,76,73,68]}},"name":"InceptionV3/Conv2d_3b_1x1/Conv2D","op":"Conv2D"},{"input":["InceptionV3/Conv2d_3b_1x1/Conv2D","InceptionV3/Conv2d_3b_1x1/BatchNorm/Const","InceptionV3/Conv2d_3b_1x1/BatchNorm/beta","InceptionV3/Conv2d_3b_1x1/BatchNorm/moving_mean","InceptionV3/Conv2d_3b_1x1/BatchNorm/moving_variance"],"attr":{"T":{"type":1},"data_format":{"s":[78,72,87,67]},"is_training":{"b":false},"epsilon":{"f":0.0010000000474974513}},"name":"InceptionV3/Conv2d_3b_1x1/BatchNorm/FusedBatchNorm","op":"FusedBatchNorm"},{"input":["InceptionV3/Conv2d_3b_1x1/BatchNorm/FusedBatchNorm"],"attr":{"T":{"type":1}},"name":"InceptionV3/Conv2d_3b_1x1/Relu6","op":"Relu6"},{"input":["InceptionV3/Conv2d_3b_1x1/Relu6","InceptionV3/Conv2d_4a_3x3/weights"],"attr":{"dilations":{"list":{"s":[],"i":["1","1","1","1"],"f":[],"b":[],"type":[],"shape":[],"tensor":[],"func":[]}},"T":{"type":1},"strides":{"list":{"s":[],"i":["1","1","1","1"],"f":[],"b":[],"type":[],"shape":[],"tensor":[],"func":[]}},"data_format":{"s":[78,72,87,67]},"use_cudnn_on_gpu":{"b":true},"padding":{"s":[86,65,76,73,68]}},"name":"InceptionV3/Conv2d_4a_3x3/Conv2D","op":"Conv2D"},{"input":["InceptionV3/Conv2d_4a_3x3/Conv2D","InceptionV3/Mixed_6e/Branch_0/Conv2d_0a_1x1/BatchNorm/Const","InceptionV3/Conv2d_4a_3x3/BatchNorm/beta","InceptionV3/Conv2d_4a_3x3/BatchNorm/moving_mean","InceptionV3/Conv2d_4a_3x3/BatchNorm/moving_variance"],"attr":{"epsilon":{"f":0.0010000000474974513},"T":{"type":1},"data_format":{"s":[78,72,87,67]},"is_training":{"b":false}},"name":"InceptionV3/Conv2d_4a_3x3/BatchNorm/FusedBatchNorm","op":"FusedBatchNorm"},{"input":["InceptionV3/Conv2d_4a_3x3/BatchNorm/FusedBatchNorm"],"attr":{"T":{"type":1}},"name":"InceptionV3/Conv2d_4a_3x3/Relu6","op":"Relu6"},{"input":["InceptionV3/Conv2d_4a_3x3/Relu6"],"attr":{"ksize":{"list":{"s":[],"i":["1","3","3","1"],"f":[],"b":[],"type":[],"shape":[],"tensor":[],"func":[]}},"padding":{"s":[86,65,76,73,68]},"T":{"type":1},"strides":{"list":{"s":[],"i":["1","2","2","1"],"f":[],"b":[],"type":[],"shape":[],"tensor":[],"func":[]}},"data_format":{"s":[78,72,87,67]}},"name":"InceptionV3/MaxPool_5a_3x3/MaxPool","op":"MaxPool"},{"input":["InceptionV3/MaxPool_5a_3x3/MaxPool","InceptionV3/Mixed_5b/Branch_0/Conv2d_0a_1x1/weights"],"attr":{"T":{"type":1},"data_format":{"s":[78,72,87,67]},"strides":{"list":{"s":[],"i":["1","1","1","1"],"f":[],"b":[],"type":[],"shape":[],"tensor":[],"func":[]}},"use_cudnn_on_gpu":{"b":true},"padding":{"s":[83,65,77,69]},"dilations":{"list":{"s":[],"i":["1","1","1","1"],"f":[],"b":[],"type":[],"shape":[],"tensor":[],"func":[]}}},"name":"InceptionV3/Mixed_5b/Branch_0/Conv2d_0a_1x1/Conv2D","op":"Conv2D"},{"input":["InceptionV3/MaxPool_5a_3x3/MaxPool","InceptionV3/Mixed_5b/Branch_1/Conv2d_0a_1x1/weights"],"attr":{"strides":{"list":{"s":[],"i":["1","1","1","1"],"f":[],"b":[],"type":[],"shape":[],"tensor":[],"func":[]}},"data_format":{"s":[78,72,87,67]},"use_cudnn_on_gpu":{"b":true},"padding":{"s":[83,65,77,69]},"dilations":{"list":{"s":[],"i":["1","1","1","1"],"f":[],"b":[],"type":[],"shape":[],"tensor":[],"func":[]}},"T":{"type":1}},"name":"InceptionV3/Mixed_5b/Branch_1/Conv2d_0a_1x1/Conv2D","op":"Conv2D"},{"input":["InceptionV3/MaxPool_5a_3x3/MaxPool","InceptionV3/Mixed_5b/Branch_2/Conv2d_0a_1x1/weights"],"attr":{"data_format":{"s":[78,72,87,67]},"strides":{"list":{"s":[],"i":["1","1","1","1"],"f":[],"b":[],"type":[],"shape":[],"tensor":[],"func":[]}},"use_cudnn_on_gpu":{"b":true},"padding":{"s":[83,65,77,69]},"dilations":{"list":{"s":[],"i":["1","1","1","1"],"f":[],"b":[],"type":[],"shape":[],"tensor":[],"func":[]}},"T":{"type":1}},"name":"InceptionV3/Mixed_5b/Branch_2/Conv2d_0a_1x1/Conv2D","op":"Conv2D"},{"input":["InceptionV3/MaxPool_5a_3x3/MaxPool"],"attr":{"data_format":{"s":[78,72,87,67]},"strides":{"list":{"s":[],"i":["1","1","1","1"],"f":[],"b":[],"type":[],"shape":[],"tensor":[],"func":[]}},"ksize":{"list":{"s":[],"i":["1","3","3","1"],"f":[],"b":[],"type":[],"shape":[],"tensor":[],"func":[]}},"padding":{"s":[83,65,77,69]},"T":{"type":1}},"name":"InceptionV3/Mixed_5b/Branch_3/AvgPool_0a_3x3/AvgPool","op":"AvgPool"},{"input":["InceptionV3/Mixed_5b/Branch_0/Conv2d_0a_1x1/Conv2D","InceptionV3/Mixed_6a/Branch_1/Conv2d_0a_1x1/BatchNorm/Const","InceptionV3/Mixed_5b/Branch_0/Conv2d_0a_1x1/BatchNorm/beta","InceptionV3/Mixed_5b/Branch_0/Conv2d_0a_1x1/BatchNorm/moving_mean","InceptionV3/Mixed_5b/Branch_0/Conv2d_0a_1x1/BatchNorm/moving_variance"],"attr":{"data_format":{"s":[78,72,87,67]},"is_training":{"b":false},"epsilon":{"f":0.0010000000474974513},"T":{"type":1}},"name":"InceptionV3/Mixed_5b/Branch_0/Conv2d_0a_1x1/BatchNorm/FusedBatchNorm","op":"FusedBatchNorm"},{"input":["InceptionV3/Mixed_5b/Branch_1/Conv2d_0a_1x1/Conv2D","InceptionV3/Mixed_5d/Branch_1/Conv2d_0a_1x1/BatchNorm/Const","InceptionV3/Mixed_5b/Branch_1/Conv2d_0a_1x1/BatchNorm/beta","InceptionV3/Mixed_5b/Branch_1/Conv2d_0a_1x1/BatchNorm/moving_mean","InceptionV3/Mixed_5b/Branch_1/Conv2d_0a_1x1/BatchNorm/moving_variance"],"attr":{"is_training":{"b":false},"epsilon":{"f":0.0010000000474974513},"T":{"type":1},"data_format":{"s":[78,72,87,67]}},"name":"InceptionV3/Mixed_5b/Branch_1/Conv2d_0a_1x1/BatchNorm/FusedBatchNorm","op":"FusedBatchNorm"},{"input":["InceptionV3/Mixed_5b/Branch_2/Conv2d_0a_1x1/Conv2D","InceptionV3/Mixed_6a/Branch_1/Conv2d_0a_1x1/BatchNorm/Const","InceptionV3/Mixed_5b/Branch_2/Conv2d_0a_1x1/BatchNorm/beta","InceptionV3/Mixed_5b/Branch_2/Conv2d_0a_1x1/BatchNorm/moving_mean","InceptionV3/Mixed_5b/Branch_2/Conv2d_0a_1x1/BatchNorm/moving_variance"],"attr":{"data_format":{"s":[78,72,87,67]},"is_training":{"b":false},"epsilon":{"f":0.0010000000474974513},"T":{"type":1}},"name":"InceptionV3/Mixed_5b/Branch_2/Conv2d_0a_1x1/BatchNorm/FusedBatchNorm","op":"FusedBatchNorm"},{"input":["InceptionV3/Mixed_5b/Branch_3/AvgPool_0a_3x3/AvgPool","InceptionV3/Mixed_5b/Branch_3/Conv2d_0b_1x1/weights"],"attr":{"padding":{"s":[83,65,77,69]},"dilations":{"list":{"s":[],"i":["1","1","1","1"],"f":[],"b":[],"type":[],"shape":[],"tensor":[],"func":[]}},"T":{"type":1},"data_format":{"s":[78,72,87,67]},"strides":{"list":{"s":[],"i":["1","1","1","1"],"f":[],"b":[],"type":[],"shape":[],"tensor":[],"func":[]}},"use_cudnn_on_gpu":{"b":true}},"name":"InceptionV3/Mixed_5b/Branch_3/Conv2d_0b_1x1/Conv2D","op":"Conv2D"},{"input":["InceptionV3/Mixed_5b/Branch_1/Conv2d_0a_1x1/BatchNorm/FusedBatchNorm"],"attr":{"T":{"type":1}},"name":"InceptionV3/Mixed_5b/Branch_1/Conv2d_0a_1x1/Relu6","op":"Relu6"},{"input":["InceptionV3/Mixed_5b/Branch_2/Conv2d_0a_1x1/BatchNorm/FusedBatchNorm"],"attr":{"T":{"type":1}},"name":"InceptionV3/Mixed_5b/Branch_2/Conv2d_0a_1x1/Relu6","op":"Relu6"},{"input":["InceptionV3/Mixed_5b/Branch_3/Conv2d_0b_1x1/Conv2D","InceptionV3/Conv2d_1a_3x3/BatchNorm/Const","InceptionV3/Mixed_5b/Branch_3/Conv2d_0b_1x1/BatchNorm/beta","InceptionV3/Mixed_5b/Branch_3/Conv2d_0b_1x1/BatchNorm/moving_mean","InceptionV3/Mixed_5b/Branch_3/Conv2d_0b_1x1/BatchNorm/moving_variance"],"attr":{"epsilon":{"f":0.0010000000474974513},"T":{"type":1},"data_format":{"s":[78,72,87,67]},"is_training":{"b":false}},"name":"InceptionV3/Mixed_5b/Branch_3/Conv2d_0b_1x1/BatchNorm/FusedBatchNorm","op":"FusedBatchNorm"},{"input":["InceptionV3/Mixed_5b/Branch_1/Conv2d_0a_1x1/Relu6","InceptionV3/Mixed_5b/Branch_1/Conv2d_0b_5x5/weights"],"attr":{"padding":{"s":[83,65,77,69]},"dilations":{"list":{"s":[],"i":["1","1","1","1"],"f":[],"b":[],"type":[],"shape":[],"tensor":[],"func":[]}},"T":{"type":1},"strides":{"list":{"s":[],"i":["1","1","1","1"],"f":[],"b":[],"type":[],"shape":[],"tensor":[],"func":[]}},"data_format":{"s":[78,72,87,67]},"use_cudnn_on_gpu":{"b":true}},"name":"InceptionV3/Mixed_5b/Branch_1/Conv2d_0b_5x5/Conv2D","op":"Conv2D"},{"input":["InceptionV3/Mixed_5b/Branch_2/Conv2d_0a_1x1/Relu6","InceptionV3/Mixed_5b/Branch_2/Conv2d_0b_3x3/weights"],"attr":{"dilations":{"list":{"s":[],"i":["1","1","1","1"],"f":[],"b":[],"type":[],"shape":[],"tensor":[],"func":[]}},"T":{"type":1},"data_format":{"s":[78,72,87,67]},"strides":{"list":{"s":[],"i":["1","1","1","1"],"f":[],"b":[],"type":[],"shape":[],"tensor":[],"func":[]}},"use_cudnn_on_gpu":{"b":true},"padding":{"s":[83,65,77,69]}},"name":"InceptionV3/Mixed_5b/Branch_2/Conv2d_0b_3x3/Conv2D","op":"Conv2D"},{"input":["InceptionV3/Mixed_5b/Branch_1/Conv2d_0b_5x5/Conv2D","InceptionV3/Mixed_6a/Branch_1/Conv2d_0a_1x1/BatchNorm/Const","InceptionV3/Mixed_5b/Branch_1/Conv2d_0b_5x5/BatchNorm/beta","InceptionV3/Mixed_5b/Branch_1/Conv2d_0b_5x5/BatchNorm/moving_mean","InceptionV3/Mixed_5b/Branch_1/Conv2d_0b_5x5/BatchNorm/moving_variance"],"attr":{"epsilon":{"f":0.0010000000474974513},"T":{"type":1},"data_format":{"s":[78,72,87,67]},"is_training":{"b":false}},"name":"InceptionV3/Mixed_5b/Branch_1/Conv2d_0b_5x5/BatchNorm/FusedBatchNorm","op":"FusedBatchNorm"},{"input":["InceptionV3/Mixed_5b/Branch_2/Conv2d_0b_3x3/Conv2D","InceptionV3/Mixed_6a/Branch_1/Conv2d_0b_3x3/BatchNorm/Const","InceptionV3/Mixed_5b/Branch_2/Conv2d_0b_3x3/BatchNorm/beta","InceptionV3/Mixed_5b/Branch_2/Conv2d_0b_3x3/BatchNorm/moving_mean","InceptionV3/Mixed_5b/Branch_2/Conv2d_0b_3x3/BatchNorm/moving_variance"],"attr":{"epsilon":{"f":0.0010000000474974513},"T":{"type":1},"data_format":{"s":[78,72,87,67]},"is_training":{"b":false}},"name":"InceptionV3/Mixed_5b/Branch_2/Conv2d_0b_3x3/BatchNorm/FusedBatchNorm","op":"FusedBatchNorm"},{"input":["InceptionV3/Mixed_5b/Branch_2/Conv2d_0b_3x3/BatchNorm/FusedBatchNorm"],"attr":{"T":{"type":1}},"name":"InceptionV3/Mixed_5b/Branch_2/Conv2d_0b_3x3/Relu6","op":"Relu6"},{"input":["InceptionV3/Mixed_5b/Branch_2/Conv2d_0b_3x3/Relu6","InceptionV3/Mixed_5b/Branch_2/Conv2d_0c_3x3/weights"],"attr":{"padding":{"s":[83,65,77,69]},"dilations":{"list":{"s":[],"i":["1","1","1","1"],"f":[],"b":[],"type":[],"shape":[],"tensor":[],"func":[]}},"T":{"type":1},"data_format":{"s":[78,72,87,67]},"strides":{"list":{"s":[],"i":["1","1","1","1"],"f":[],"b":[],"type":[],"shape":[],"tensor":[],"func":[]}},"use_cudnn_on_gpu":{"b":true}},"name":"InceptionV3/Mixed_5b/Branch_2/Conv2d_0c_3x3/Conv2D","op":"Conv2D"},{"input":["InceptionV3/Mixed_5b/Branch_2/Conv2d_0c_3x3/Conv2D","InceptionV3/Mixed_6a/Branch_1/Conv2d_0b_3x3/BatchNorm/Const","InceptionV3/Mixed_5b/Branch_2/Conv2d_0c_3x3/BatchNorm/beta","InceptionV3/Mixed_5b/Branch_2/Conv2d_0c_3x3/BatchNorm/moving_mean","InceptionV3/Mixed_5b/Branch_2/Conv2d_0c_3x3/BatchNorm/moving_variance"],"attr":{"T":{"type":1},"data_format":{"s":[78,72,87,67]},"is_training":{"b":false},"epsilon":{"f":0.0010000000474974513}},"name":"InceptionV3/Mixed_5b/Branch_2/Conv2d_0c_3x3/BatchNorm/FusedBatchNorm","op":"FusedBatchNorm"},{"input":["InceptionV3/Mixed_5b/Branch_0/Conv2d_0a_1x1/BatchNorm/FusedBatchNorm","InceptionV3/Mixed_5b/Branch_1/Conv2d_0b_5x5/BatchNorm/FusedBatchNorm","InceptionV3/Mixed_5b/Branch_2/Conv2d_0c_3x3/BatchNorm/FusedBatchNorm","InceptionV3/Mixed_5b/Branch_3/Conv2d_0b_1x1/BatchNorm/FusedBatchNorm","InceptionV3/Mixed_5b/concat/axis"],"attr":{"N":{"i":"4"},"Tidx":{"type":3},"T":{"type":1}},"name":"InceptionV3/Mixed_5b/concat","op":"ConcatV2"},{"input":["InceptionV3/Mixed_5b/concat"],"attr":{"T":{"type":1}},"name":"InceptionV3/Mixed_5b/Branch_0/Conv2d_0a_1x1/Relu6","op":"Relu6"},{"input":["InceptionV3/Mixed_5b/Branch_0/Conv2d_0a_1x1/Relu6","InceptionV3/Mixed_5c/Branch_0/Conv2d_0a_1x1/weights"],"attr":{"T":{"type":1},"strides":{"list":{"s":[],"i":["1","1","1","1"],"f":[],"b":[],"type":[],"shape":[],"tensor":[],"func":[]}},"data_format":{"s":[78,72,87,67]},"use_cudnn_on_gpu":{"b":true},"padding":{"s":[83,65,77,69]},"dilations":{"list":{"s":[],"i":["1","1","1","1"],"f":[],"b":[],"type":[],"shape":[],"tensor":[],"func":[]}}},"name":"InceptionV3/Mixed_5c/Branch_0/Conv2d_0a_1x1/Conv2D","op":"Conv2D"},{"input":["InceptionV3/Mixed_5b/Branch_0/Conv2d_0a_1x1/Relu6","InceptionV3/Mixed_5c/Branch_1/Conv2d_0b_1x1/weights"],"attr":{"dilations":{"list":{"s":[],"i":["1","1","1","1"],"f":[],"b":[],"type":[],"shape":[],"tensor":[],"func":[]}},"T":{"type":1},"data_format":{"s":[78,72,87,67]},"strides":{"list":{"s":[],"i":["1","1","1","1"],"f":[],"b":[],"type":[],"shape":[],"tensor":[],"func":[]}},"use_cudnn_on_gpu":{"b":true},"padding":{"s":[83,65,77,69]}},"name":"InceptionV3/Mixed_5c/Branch_1/Conv2d_0b_1x1/Conv2D","op":"Conv2D"},{"input":["InceptionV3/Mixed_5b/Branch_0/Conv2d_0a_1x1/Relu6","InceptionV3/Mixed_5c/Branch_2/Conv2d_0a_1x1/weights"],"attr":{"dilations":{"list":{"s":[],"i":["1","1","1","1"],"f":[],"b":[],"type":[],"shape":[],"tensor":[],"func":[]}},"T":{"type":1},"data_format":{"s":[78,72,87,67]},"strides":{"list":{"s":[],"i":["1","1","1","1"],"f":[],"b":[],"type":[],"shape":[],"tensor":[],"func":[]}},"use_cudnn_on_gpu":{"b":true},"padding":{"s":[83,65,77,69]}},"name":"InceptionV3/Mixed_5c/Branch_2/Conv2d_0a_1x1/Conv2D","op":"Conv2D"},{"input":["InceptionV3/Mixed_5b/Branch_0/Conv2d_0a_1x1/Relu6"],"attr":{"data_format":{"s":[78,72,87,67]},"strides":{"list":{"s":[],"i":["1","1","1","1"],"f":[],"b":[],"type":[],"shape":[],"tensor":[],"func":[]}},"ksize":{"list":{"s":[],"i":["1","3","3","1"],"f":[],"b":[],"type":[],"shape":[],"tensor":[],"func":[]}},"padding":{"s":[83,65,77,69]},"T":{"type":1}},"name":"InceptionV3/Mixed_5c/Branch_3/AvgPool_0a_3x3/AvgPool","op":"AvgPool"},{"input":["InceptionV3/Mixed_5c/Branch_0/Conv2d_0a_1x1/Conv2D","InceptionV3/Mixed_6a/Branch_1/Conv2d_0a_1x1/BatchNorm/Const","InceptionV3/Mixed_5c/Branch_0/Conv2d_0a_1x1/BatchNorm/beta","InceptionV3/Mixed_5c/Branch_0/Conv2d_0a_1x1/BatchNorm/moving_mean","InceptionV3/Mixed_5c/Branch_0/Conv2d_0a_1x1/BatchNorm/moving_variance"],"attr":{"epsilon":{"f":0.0010000000474974513},"T":{"type":1},"data_format":{"s":[78,72,87,67]},"is_training":{"b":false}},"name":"InceptionV3/Mixed_5c/Branch_0/Conv2d_0a_1x1/BatchNorm/FusedBatchNorm","op":"FusedBatchNorm"},{"input":["InceptionV3/Mixed_5c/Branch_1/Conv2d_0b_1x1/Conv2D","InceptionV3/Mixed_5d/Branch_1/Conv2d_0a_1x1/BatchNorm/Const","InceptionV3/Mixed_5c/Branch_1/Conv2d_0b_1x1/BatchNorm/beta","InceptionV3/Mixed_5c/Branch_1/Conv2d_0b_1x1/BatchNorm/moving_mean","InceptionV3/Mixed_5c/Branch_1/Conv2d_0b_1x1/BatchNorm/moving_variance"],"attr":{"epsilon":{"f":0.0010000000474974513},"T":{"type":1},"data_format":{"s":[78,72,87,67]},"is_training":{"b":false}},"name":"InceptionV3/Mixed_5c/Branch_1/Conv2d_0b_1x1/BatchNorm/FusedBatchNorm","op":"FusedBatchNorm"},{"input":["InceptionV3/Mixed_5c/Branch_2/Conv2d_0a_1x1/Conv2D","InceptionV3/Mixed_6a/Branch_1/Conv2d_0a_1x1/BatchNorm/Const","InceptionV3/Mixed_5c/Branch_2/Conv2d_0a_1x1/BatchNorm/beta","InceptionV3/Mixed_5c/Branch_2/Conv2d_0a_1x1/BatchNorm/moving_mean","InceptionV3/Mixed_5c/Branch_2/Conv2d_0a_1x1/BatchNorm/moving_variance"],"attr":{"epsilon":{"f":0.0010000000474974513},"T":{"type":1},"data_format":{"s":[78,72,87,67]},"is_training":{"b":false}},"name":"InceptionV3/Mixed_5c/Branch_2/Conv2d_0a_1x1/BatchNorm/FusedBatchNorm","op":"FusedBatchNorm"},{"input":["InceptionV3/Mixed_5c/Branch_3/AvgPool_0a_3x3/AvgPool","InceptionV3/Mixed_5c/Branch_3/Conv2d_0b_1x1/weights"],"attr":{"padding":{"s":[83,65,77,69]},"dilations":{"list":{"s":[],"i":["1","1","1","1"],"f":[],"b":[],"type":[],"shape":[],"tensor":[],"func":[]}},"T":{"type":1},"strides":{"list":{"s":[],"i":["1","1","1","1"],"f":[],"b":[],"type":[],"shape":[],"tensor":[],"func":[]}},"data_format":{"s":[78,72,87,67]},"use_cudnn_on_gpu":{"b":true}},"name":"InceptionV3/Mixed_5c/Branch_3/Conv2d_0b_1x1/Conv2D","op":"Conv2D"},{"input":["InceptionV3/Mixed_5c/Branch_1/Conv2d_0b_1x1/BatchNorm/FusedBatchNorm"],"attr":{"T":{"type":1}},"name":"InceptionV3/Mixed_5c/Branch_1/Conv2d_0b_1x1/Relu6","op":"Relu6"},{"input":["InceptionV3/Mixed_5c/Branch_2/Conv2d_0a_1x1/BatchNorm/FusedBatchNorm"],"attr":{"T":{"type":1}},"name":"InceptionV3/Mixed_5c/Branch_2/Conv2d_0a_1x1/Relu6","op":"Relu6"},{"input":["InceptionV3/Mixed_5c/Branch_3/Conv2d_0b_1x1/Conv2D","InceptionV3/Mixed_6a/Branch_1/Conv2d_0a_1x1/BatchNorm/Const","InceptionV3/Mixed_5c/Branch_3/Conv2d_0b_1x1/BatchNorm/beta","InceptionV3/Mixed_5c/Branch_3/Conv2d_0b_1x1/BatchNorm/moving_mean","InceptionV3/Mixed_5c/Branch_3/Conv2d_0b_1x1/BatchNorm/moving_variance"],"attr":{"T":{"type":1},"data_format":{"s":[78,72,87,67]},"is_training":{"b":false},"epsilon":{"f":0.0010000000474974513}},"name":"InceptionV3/Mixed_5c/Branch_3/Conv2d_0b_1x1/BatchNorm/FusedBatchNorm","op":"FusedBatchNorm"},{"input":["InceptionV3/Mixed_5c/Branch_1/Conv2d_0b_1x1/Relu6","InceptionV3/Mixed_5c/Branch_1/Conv_1_0c_5x5/weights"],"attr":{"padding":{"s":[83,65,77,69]},"dilations":{"list":{"s":[],"i":["1","1","1","1"],"f":[],"b":[],"type":[],"shape":[],"tensor":[],"func":[]}},"T":{"type":1},"data_format":{"s":[78,72,87,67]},"strides":{"list":{"s":[],"i":["1","1","1","1"],"f":[],"b":[],"type":[],"shape":[],"tensor":[],"func":[]}},"use_cudnn_on_gpu":{"b":true}},"name":"InceptionV3/Mixed_5c/Branch_1/Conv_1_0c_5x5/Conv2D","op":"Conv2D"},{"input":["InceptionV3/Mixed_5c/Branch_2/Conv2d_0a_1x1/Relu6","InceptionV3/Mixed_5c/Branch_2/Conv2d_0b_3x3/weights"],"attr":{"padding":{"s":[83,65,77,69]},"dilations":{"list":{"s":[],"i":["1","1","1","1"],"f":[],"b":[],"type":[],"shape":[],"tensor":[],"func":[]}},"T":{"type":1},"strides":{"list":{"s":[],"i":["1","1","1","1"],"f":[],"b":[],"type":[],"shape":[],"tensor":[],"func":[]}},"data_format":{"s":[78,72,87,67]},"use_cudnn_on_gpu":{"b":true}},"name":"InceptionV3/Mixed_5c/Branch_2/Conv2d_0b_3x3/Conv2D","op":"Conv2D"},{"input":["InceptionV3/Mixed_5c/Branch_1/Conv_1_0c_5x5/Conv2D","InceptionV3/Mixed_6a/Branch_1/Conv2d_0a_1x1/BatchNorm/Const","InceptionV3/Mixed_5c/Branch_1/Conv_1_0c_5x5/BatchNorm/beta","InceptionV3/Mixed_5c/Branch_1/Conv_1_0c_5x5/BatchNorm/moving_mean","InceptionV3/Mixed_5c/Branch_1/Conv_1_0c_5x5/BatchNorm/moving_variance"],"attr":{"epsilon":{"f":0.0010000000474974513},"T":{"type":1},"data_format":{"s":[78,72,87,67]},"is_training":{"b":false}},"name":"InceptionV3/Mixed_5c/Branch_1/Conv_1_0c_5x5/BatchNorm/FusedBatchNorm","op":"FusedBatchNorm"},{"input":["InceptionV3/Mixed_5c/Branch_2/Conv2d_0b_3x3/Conv2D","InceptionV3/Mixed_6a/Branch_1/Conv2d_0b_3x3/BatchNorm/Const","InceptionV3/Mixed_5c/Branch_2/Conv2d_0b_3x3/BatchNorm/beta","InceptionV3/Mixed_5c/Branch_2/Conv2d_0b_3x3/BatchNorm/moving_mean","InceptionV3/Mixed_5c/Branch_2/Conv2d_0b_3x3/BatchNorm/moving_variance"],"attr":{"T":{"type":1},"data_format":{"s":[78,72,87,67]},"is_training":{"b":false},"epsilon":{"f":0.0010000000474974513}},"name":"InceptionV3/Mixed_5c/Branch_2/Conv2d_0b_3x3/BatchNorm/FusedBatchNorm","op":"FusedBatchNorm"},{"input":["InceptionV3/Mixed_5c/Branch_2/Conv2d_0b_3x3/BatchNorm/FusedBatchNorm"],"attr":{"T":{"type":1}},"name":"InceptionV3/Mixed_5c/Branch_2/Conv2d_0b_3x3/Relu6","op":"Relu6"},{"input":["InceptionV3/Mixed_5c/Branch_2/Conv2d_0b_3x3/Relu6","InceptionV3/Mixed_5c/Branch_2/Conv2d_0c_3x3/weights"],"attr":{"dilations":{"list":{"s":[],"i":["1","1","1","1"],"f":[],"b":[],"type":[],"shape":[],"tensor":[],"func":[]}},"T":{"type":1},"strides":{"list":{"s":[],"i":["1","1","1","1"],"f":[],"b":[],"type":[],"shape":[],"tensor":[],"func":[]}},"data_format":{"s":[78,72,87,67]},"use_cudnn_on_gpu":{"b":true},"padding":{"s":[83,65,77,69]}},"name":"InceptionV3/Mixed_5c/Branch_2/Conv2d_0c_3x3/Conv2D","op":"Conv2D"},{"input":["InceptionV3/Mixed_5c/Branch_2/Conv2d_0c_3x3/Conv2D","InceptionV3/Mixed_6a/Branch_1/Conv2d_0b_3x3/BatchNorm/Const","InceptionV3/Mixed_5c/Branch_2/Conv2d_0c_3x3/BatchNorm/beta","InceptionV3/Mixed_5c/Branch_2/Conv2d_0c_3x3/BatchNorm/moving_mean","InceptionV3/Mixed_5c/Branch_2/Conv2d_0c_3x3/BatchNorm/moving_variance"],"attr":{"epsilon":{"f":0.0010000000474974513},"T":{"type":1},"data_format":{"s":[78,72,87,67]},"is_training":{"b":false}},"name":"InceptionV3/Mixed_5c/Branch_2/Conv2d_0c_3x3/BatchNorm/FusedBatchNorm","op":"FusedBatchNorm"},{"input":["InceptionV3/Mixed_5c/Branch_0/Conv2d_0a_1x1/BatchNorm/FusedBatchNorm","InceptionV3/Mixed_5c/Branch_1/Conv_1_0c_5x5/BatchNorm/FusedBatchNorm","InceptionV3/Mixed_5c/Branch_2/Conv2d_0c_3x3/BatchNorm/FusedBatchNorm","InceptionV3/Mixed_5c/Branch_3/Conv2d_0b_1x1/BatchNorm/FusedBatchNorm","InceptionV3/Mixed_5b/concat/axis"],"attr":{"Tidx":{"type":3},"T":{"type":1},"N":{"i":"4"}},"name":"InceptionV3/Mixed_5c/concat","op":"ConcatV2"},{"input":["InceptionV3/Mixed_5c/concat"],"attr":{"T":{"type":1}},"name":"InceptionV3/Mixed_5c/Branch_0/Conv2d_0a_1x1/Relu6","op":"Relu6"},{"input":["InceptionV3/Mixed_5c/Branch_0/Conv2d_0a_1x1/Relu6","InceptionV3/Mixed_5d/Branch_0/Conv2d_0a_1x1/weights"],"attr":{"padding":{"s":[83,65,77,69]},"dilations":{"list":{"s":[],"i":["1","1","1","1"],"f":[],"b":[],"type":[],"shape":[],"tensor":[],"func":[]}},"T":{"type":1},"data_format":{"s":[78,72,87,67]},"strides":{"list":{"s":[],"i":["1","1","1","1"],"f":[],"b":[],"type":[],"shape":[],"tensor":[],"func":[]}},"use_cudnn_on_gpu":{"b":true}},"name":"InceptionV3/Mixed_5d/Branch_0/Conv2d_0a_1x1/Conv2D","op":"Conv2D"},{"input":["InceptionV3/Mixed_5c/Branch_0/Conv2d_0a_1x1/Relu6","InceptionV3/Mixed_5d/Branch_1/Conv2d_0a_1x1/weights"],"attr":{"padding":{"s":[83,65,77,69]},"dilations":{"list":{"s":[],"i":["1","1","1","1"],"f":[],"b":[],"type":[],"shape":[],"tensor":[],"func":[]}},"T":{"type":1},"data_format":{"s":[78,72,87,67]},"strides":{"list":{"s":[],"i":["1","1","1","1"],"f":[],"b":[],"type":[],"shape":[],"tensor":[],"func":[]}},"use_cudnn_on_gpu":{"b":true}},"name":"InceptionV3/Mixed_5d/Branch_1/Conv2d_0a_1x1/Conv2D","op":"Conv2D"},{"input":["InceptionV3/Mixed_5c/Branch_0/Conv2d_0a_1x1/Relu6","InceptionV3/Mixed_5d/Branch_2/Conv2d_0a_1x1/weights"],"attr":{"strides":{"list":{"s":[],"i":["1","1","1","1"],"f":[],"b":[],"type":[],"shape":[],"tensor":[],"func":[]}},"data_format":{"s":[78,72,87,67]},"use_cudnn_on_gpu":{"b":true},"padding":{"s":[83,65,77,69]},"dilations":{"list":{"s":[],"i":["1","1","1","1"],"f":[],"b":[],"type":[],"shape":[],"tensor":[],"func":[]}},"T":{"type":1}},"name":"InceptionV3/Mixed_5d/Branch_2/Conv2d_0a_1x1/Conv2D","op":"Conv2D"},{"input":["InceptionV3/Mixed_5c/Branch_0/Conv2d_0a_1x1/Relu6"],"attr":{"ksize":{"list":{"s":[],"i":["1","3","3","1"],"f":[],"b":[],"type":[],"shape":[],"tensor":[],"func":[]}},"padding":{"s":[83,65,77,69]},"T":{"type":1},"data_format":{"s":[78,72,87,67]},"strides":{"list":{"s":[],"i":["1","1","1","1"],"f":[],"b":[],"type":[],"shape":[],"tensor":[],"func":[]}}},"name":"InceptionV3/Mixed_5d/Branch_3/AvgPool_0a_3x3/AvgPool","op":"AvgPool"},{"input":["InceptionV3/Mixed_5d/Branch_0/Conv2d_0a_1x1/Conv2D","InceptionV3/Mixed_6a/Branch_1/Conv2d_0a_1x1/BatchNorm/Const","InceptionV3/Mixed_5d/Branch_0/Conv2d_0a_1x1/BatchNorm/beta","InceptionV3/Mixed_5d/Branch_0/Conv2d_0a_1x1/BatchNorm/moving_mean","InceptionV3/Mixed_5d/Branch_0/Conv2d_0a_1x1/BatchNorm/moving_variance"],"attr":{"data_format":{"s":[78,72,87,67]},"is_training":{"b":false},"epsilon":{"f":0.0010000000474974513},"T":{"type":1}},"name":"InceptionV3/Mixed_5d/Branch_0/Conv2d_0a_1x1/BatchNorm/FusedBatchNorm","op":"FusedBatchNorm"},{"input":["InceptionV3/Mixed_5d/Branch_1/Conv2d_0a_1x1/Conv2D","InceptionV3/Mixed_5d/Branch_1/Conv2d_0a_1x1/BatchNorm/Const","InceptionV3/Mixed_5d/Branch_1/Conv2d_0a_1x1/BatchNorm/beta","InceptionV3/Mixed_5d/Branch_1/Conv2d_0a_1x1/BatchNorm/moving_mean","InceptionV3/Mixed_5d/Branch_1/Conv2d_0a_1x1/BatchNorm/moving_variance"],"attr":{"epsilon":{"f":0.0010000000474974513},"T":{"type":1},"data_format":{"s":[78,72,87,67]},"is_training":{"b":false}},"name":"InceptionV3/Mixed_5d/Branch_1/Conv2d_0a_1x1/BatchNorm/FusedBatchNorm","op":"FusedBatchNorm"},{"input":["InceptionV3/Mixed_5d/Branch_2/Conv2d_0a_1x1/Conv2D","InceptionV3/Mixed_6a/Branch_1/Conv2d_0a_1x1/BatchNorm/Const","InceptionV3/Mixed_5d/Branch_2/Conv2d_0a_1x1/BatchNorm/beta","InceptionV3/Mixed_5d/Branch_2/Conv2d_0a_1x1/BatchNorm/moving_mean","InceptionV3/Mixed_5d/Branch_2/Conv2d_0a_1x1/BatchNorm/moving_variance"],"attr":{"data_format":{"s":[78,72,87,67]},"is_training":{"b":false},"epsilon":{"f":0.0010000000474974513},"T":{"type":1}},"name":"InceptionV3/Mixed_5d/Branch_2/Conv2d_0a_1x1/BatchNorm/FusedBatchNorm","op":"FusedBatchNorm"},{"input":["InceptionV3/Mixed_5d/Branch_3/AvgPool_0a_3x3/AvgPool","InceptionV3/Mixed_5d/Branch_3/Conv2d_0b_1x1/weights"],"attr":{"dilations":{"list":{"s":[],"i":["1","1","1","1"],"f":[],"b":[],"type":[],"shape":[],"tensor":[],"func":[]}},"T":{"type":1},"strides":{"list":{"s":[],"i":["1","1","1","1"],"f":[],"b":[],"type":[],"shape":[],"tensor":[],"func":[]}},"data_format":{"s":[78,72,87,67]},"use_cudnn_on_gpu":{"b":true},"padding":{"s":[83,65,77,69]}},"name":"InceptionV3/Mixed_5d/Branch_3/Conv2d_0b_1x1/Conv2D","op":"Conv2D"},{"input":["InceptionV3/Mixed_5d/Branch_1/Conv2d_0a_1x1/BatchNorm/FusedBatchNorm"],"attr":{"T":{"type":1}},"name":"InceptionV3/Mixed_5d/Branch_1/Conv2d_0a_1x1/Relu6","op":"Relu6"},{"input":["InceptionV3/Mixed_5d/Branch_2/Conv2d_0a_1x1/BatchNorm/FusedBatchNorm"],"attr":{"T":{"type":1}},"name":"InceptionV3/Mixed_5d/Branch_2/Conv2d_0a_1x1/Relu6","op":"Relu6"},{"input":["InceptionV3/Mixed_5d/Branch_3/Conv2d_0b_1x1/Conv2D","InceptionV3/Mixed_6a/Branch_1/Conv2d_0a_1x1/BatchNorm/Const","InceptionV3/Mixed_5d/Branch_3/Conv2d_0b_1x1/BatchNorm/beta","InceptionV3/Mixed_5d/Branch_3/Conv2d_0b_1x1/BatchNorm/moving_mean","InceptionV3/Mixed_5d/Branch_3/Conv2d_0b_1x1/BatchNorm/moving_variance"],"attr":{"T":{"type":1},"data_format":{"s":[78,72,87,67]},"is_training":{"b":false},"epsilon":{"f":0.0010000000474974513}},"name":"InceptionV3/Mixed_5d/Branch_3/Conv2d_0b_1x1/BatchNorm/FusedBatchNorm","op":"FusedBatchNorm"},{"input":["InceptionV3/Mixed_5d/Branch_1/Conv2d_0a_1x1/Relu6","InceptionV3/Mixed_5d/Branch_1/Conv2d_0b_5x5/weights"],"attr":{"padding":{"s":[83,65,77,69]},"dilations":{"list":{"s":[],"i":["1","1","1","1"],"f":[],"b":[],"type":[],"shape":[],"tensor":[],"func":[]}},"T":{"type":1},"data_format":{"s":[78,72,87,67]},"strides":{"list":{"s":[],"i":["1","1","1","1"],"f":[],"b":[],"type":[],"shape":[],"tensor":[],"func":[]}},"use_cudnn_on_gpu":{"b":true}},"name":"InceptionV3/Mixed_5d/Branch_1/Conv2d_0b_5x5/Conv2D","op":"Conv2D"},{"input":["InceptionV3/Mixed_5d/Branch_2/Conv2d_0a_1x1/Relu6","InceptionV3/Mixed_5d/Branch_2/Conv2d_0b_3x3/weights"],"attr":{"data_format":{"s":[78,72,87,67]},"strides":{"list":{"s":[],"i":["1","1","1","1"],"f":[],"b":[],"type":[],"shape":[],"tensor":[],"func":[]}},"use_cudnn_on_gpu":{"b":true},"padding":{"s":[83,65,77,69]},"dilations":{"list":{"s":[],"i":["1","1","1","1"],"f":[],"b":[],"type":[],"shape":[],"tensor":[],"func":[]}},"T":{"type":1}},"name":"InceptionV3/Mixed_5d/Branch_2/Conv2d_0b_3x3/Conv2D","op":"Conv2D"},{"input":["InceptionV3/Mixed_5d/Branch_1/Conv2d_0b_5x5/Conv2D","InceptionV3/Mixed_6a/Branch_1/Conv2d_0a_1x1/BatchNorm/Const","InceptionV3/Mixed_5d/Branch_1/Conv2d_0b_5x5/BatchNorm/beta","InceptionV3/Mixed_5d/Branch_1/Conv2d_0b_5x5/BatchNorm/moving_mean","InceptionV3/Mixed_5d/Branch_1/Conv2d_0b_5x5/BatchNorm/moving_variance"],"attr":{"data_format":{"s":[78,72,87,67]},"is_training":{"b":false},"epsilon":{"f":0.0010000000474974513},"T":{"type":1}},"name":"InceptionV3/Mixed_5d/Branch_1/Conv2d_0b_5x5/BatchNorm/FusedBatchNorm","op":"FusedBatchNorm"},{"input":["InceptionV3/Mixed_5d/Branch_2/Conv2d_0b_3x3/Conv2D","InceptionV3/Mixed_6a/Branch_1/Conv2d_0b_3x3/BatchNorm/Const","InceptionV3/Mixed_5d/Branch_2/Conv2d_0b_3x3/BatchNorm/beta","InceptionV3/Mixed_5d/Branch_2/Conv2d_0b_3x3/BatchNorm/moving_mean","InceptionV3/Mixed_5d/Branch_2/Conv2d_0b_3x3/BatchNorm/moving_variance"],"attr":{"data_format":{"s":[78,72,87,67]},"is_training":{"b":false},"epsilon":{"f":0.0010000000474974513},"T":{"type":1}},"name":"InceptionV3/Mixed_5d/Branch_2/Conv2d_0b_3x3/BatchNorm/FusedBatchNorm","op":"FusedBatchNorm"},{"input":["InceptionV3/Mixed_5d/Branch_2/Conv2d_0b_3x3/BatchNorm/FusedBatchNorm"],"attr":{"T":{"type":1}},"name":"InceptionV3/Mixed_5d/Branch_2/Conv2d_0b_3x3/Relu6","op":"Relu6"},{"input":["InceptionV3/Mixed_5d/Branch_2/Conv2d_0b_3x3/Relu6","InceptionV3/Mixed_5d/Branch_2/Conv2d_0c_3x3/weights"],"attr":{"padding":{"s":[83,65,77,69]},"dilations":{"list":{"s":[],"i":["1","1","1","1"],"f":[],"b":[],"type":[],"shape":[],"tensor":[],"func":[]}},"T":{"type":1},"data_format":{"s":[78,72,87,67]},"strides":{"list":{"s":[],"i":["1","1","1","1"],"f":[],"b":[],"type":[],"shape":[],"tensor":[],"func":[]}},"use_cudnn_on_gpu":{"b":true}},"name":"InceptionV3/Mixed_5d/Branch_2/Conv2d_0c_3x3/Conv2D","op":"Conv2D"},{"input":["InceptionV3/Mixed_5d/Branch_2/Conv2d_0c_3x3/Conv2D","InceptionV3/Mixed_6a/Branch_1/Conv2d_0b_3x3/BatchNorm/Const","InceptionV3/Mixed_5d/Branch_2/Conv2d_0c_3x3/BatchNorm/beta","InceptionV3/Mixed_5d/Branch_2/Conv2d_0c_3x3/BatchNorm/moving_mean","InceptionV3/Mixed_5d/Branch_2/Conv2d_0c_3x3/BatchNorm/moving_variance"],"attr":{"epsilon":{"f":0.0010000000474974513},"T":{"type":1},"data_format":{"s":[78,72,87,67]},"is_training":{"b":false}},"name":"InceptionV3/Mixed_5d/Branch_2/Conv2d_0c_3x3/BatchNorm/FusedBatchNorm","op":"FusedBatchNorm"},{"input":["InceptionV3/Mixed_5d/Branch_0/Conv2d_0a_1x1/BatchNorm/FusedBatchNorm","InceptionV3/Mixed_5d/Branch_1/Conv2d_0b_5x5/BatchNorm/FusedBatchNorm","InceptionV3/Mixed_5d/Branch_2/Conv2d_0c_3x3/BatchNorm/FusedBatchNorm","InceptionV3/Mixed_5d/Branch_3/Conv2d_0b_1x1/BatchNorm/FusedBatchNorm","InceptionV3/Mixed_5b/concat/axis"],"attr":{"N":{"i":"4"},"Tidx":{"type":3},"T":{"type":1}},"name":"InceptionV3/Mixed_5d/concat","op":"ConcatV2"},{"input":["InceptionV3/Mixed_5d/concat"],"attr":{"T":{"type":1}},"name":"InceptionV3/Mixed_5d/Branch_0/Conv2d_0a_1x1/Relu6","op":"Relu6"},{"input":["InceptionV3/Mixed_5d/Branch_0/Conv2d_0a_1x1/Relu6","InceptionV3/Mixed_6a/Branch_0/Conv2d_1a_1x1/weights"],"attr":{"dilations":{"list":{"s":[],"i":["1","1","1","1"],"f":[],"b":[],"type":[],"shape":[],"tensor":[],"func":[]}},"T":{"type":1},"strides":{"list":{"s":[],"i":["1","2","2","1"],"f":[],"b":[],"type":[],"shape":[],"tensor":[],"func":[]}},"data_format":{"s":[78,72,87,67]},"use_cudnn_on_gpu":{"b":true},"padding":{"s":[86,65,76,73,68]}},"name":"InceptionV3/Mixed_6a/Branch_0/Conv2d_1a_1x1/Conv2D","op":"Conv2D"},{"input":["InceptionV3/Mixed_5d/Branch_0/Conv2d_0a_1x1/Relu6","InceptionV3/Mixed_6a/Branch_1/Conv2d_0a_1x1/weights"],"attr":{"padding":{"s":[83,65,77,69]},"dilations":{"list":{"s":[],"i":["1","1","1","1"],"f":[],"b":[],"type":[],"shape":[],"tensor":[],"func":[]}},"T":{"type":1},"strides":{"list":{"s":[],"i":["1","1","1","1"],"f":[],"b":[],"type":[],"shape":[],"tensor":[],"func":[]}},"data_format":{"s":[78,72,87,67]},"use_cudnn_on_gpu":{"b":true}},"name":"InceptionV3/Mixed_6a/Branch_1/Conv2d_0a_1x1/Conv2D","op":"Conv2D"},{"input":["InceptionV3/Mixed_5d/Branch_0/Conv2d_0a_1x1/Relu6"],"attr":{"padding":{"s":[86,65,76,73,68]},"T":{"type":1},"strides":{"list":{"s":[],"i":["1","2","2","1"],"f":[],"b":[],"type":[],"shape":[],"tensor":[],"func":[]}},"data_format":{"s":[78,72,87,67]},"ksize":{"list":{"s":[],"i":["1","3","3","1"],"f":[],"b":[],"type":[],"shape":[],"tensor":[],"func":[]}}},"name":"InceptionV3/Mixed_6a/Branch_2/MaxPool_1a_3x3/MaxPool","op":"MaxPool"},{"input":["InceptionV3/Mixed_6a/Branch_0/Conv2d_1a_1x1/Conv2D","InceptionV3/Mixed_6a/Branch_0/Conv2d_1a_1x1/BatchNorm/Const","InceptionV3/Mixed_6a/Branch_0/Conv2d_1a_1x1/BatchNorm/beta","InceptionV3/Mixed_6a/Branch_0/Conv2d_1a_1x1/BatchNorm/moving_mean","InceptionV3/Mixed_6a/Branch_0/Conv2d_1a_1x1/BatchNorm/moving_variance"],"attr":{"epsilon":{"f":0.0010000000474974513},"T":{"type":1},"data_format":{"s":[78,72,87,67]},"is_training":{"b":false}},"name":"InceptionV3/Mixed_6a/Branch_0/Conv2d_1a_1x1/BatchNorm/FusedBatchNorm","op":"FusedBatchNorm"},{"input":["InceptionV3/Mixed_6a/Branch_1/Conv2d_0a_1x1/Conv2D","InceptionV3/Mixed_6a/Branch_1/Conv2d_0a_1x1/BatchNorm/Const","InceptionV3/Mixed_6a/Branch_1/Conv2d_0a_1x1/BatchNorm/beta","InceptionV3/Mixed_6a/Branch_1/Conv2d_0a_1x1/BatchNorm/moving_mean","InceptionV3/Mixed_6a/Branch_1/Conv2d_0a_1x1/BatchNorm/moving_variance"],"attr":{"T":{"type":1},"data_format":{"s":[78,72,87,67]},"is_training":{"b":false},"epsilon":{"f":0.0010000000474974513}},"name":"InceptionV3/Mixed_6a/Branch_1/Conv2d_0a_1x1/BatchNorm/FusedBatchNorm","op":"FusedBatchNorm"},{"input":["InceptionV3/Mixed_6a/Branch_0/Conv2d_1a_1x1/BatchNorm/FusedBatchNorm"],"attr":{"T":{"type":1}},"name":"InceptionV3/Mixed_6a/Branch_0/Conv2d_1a_1x1/Relu6","op":"Relu6"},{"input":["InceptionV3/Mixed_6a/Branch_1/Conv2d_0a_1x1/BatchNorm/FusedBatchNorm"],"attr":{"T":{"type":1}},"name":"InceptionV3/Mixed_6a/Branch_1/Conv2d_0a_1x1/Relu6","op":"Relu6"},{"input":["InceptionV3/Mixed_6a/Branch_1/Conv2d_0a_1x1/Relu6","InceptionV3/Mixed_6a/Branch_1/Conv2d_0b_3x3/weights"],"attr":{"padding":{"s":[83,65,77,69]},"dilations":{"list":{"s":[],"i":["1","1","1","1"],"f":[],"b":[],"type":[],"shape":[],"tensor":[],"func":[]}},"T":{"type":1},"strides":{"list":{"s":[],"i":["1","1","1","1"],"f":[],"b":[],"type":[],"shape":[],"tensor":[],"func":[]}},"data_format":{"s":[78,72,87,67]},"use_cudnn_on_gpu":{"b":true}},"name":"InceptionV3/Mixed_6a/Branch_1/Conv2d_0b_3x3/Conv2D","op":"Conv2D"},{"input":["InceptionV3/Mixed_6a/Branch_1/Conv2d_0b_3x3/Conv2D","InceptionV3/Mixed_6a/Branch_1/Conv2d_0b_3x3/BatchNorm/Const","InceptionV3/Mixed_6a/Branch_1/Conv2d_0b_3x3/BatchNorm/beta","InceptionV3/Mixed_6a/Branch_1/Conv2d_0b_3x3/BatchNorm/moving_mean","InceptionV3/Mixed_6a/Branch_1/Conv2d_0b_3x3/BatchNorm/moving_variance"],"attr":{"is_training":{"b":false},"epsilon":{"f":0.0010000000474974513},"T":{"type":1},"data_format":{"s":[78,72,87,67]}},"name":"InceptionV3/Mixed_6a/Branch_1/Conv2d_0b_3x3/BatchNorm/FusedBatchNorm","op":"FusedBatchNorm"},{"input":["InceptionV3/Mixed_6a/Branch_1/Conv2d_0b_3x3/BatchNorm/FusedBatchNorm"],"attr":{"T":{"type":1}},"name":"InceptionV3/Mixed_6a/Branch_1/Conv2d_0b_3x3/Relu6","op":"Relu6"},{"input":["InceptionV3/Mixed_6a/Branch_1/Conv2d_0b_3x3/Relu6","InceptionV3/Mixed_6a/Branch_1/Conv2d_1a_1x1/weights"],"attr":{"padding":{"s":[86,65,76,73,68]},"dilations":{"list":{"s":[],"i":["1","1","1","1"],"f":[],"b":[],"type":[],"shape":[],"tensor":[],"func":[]}},"T":{"type":1},"strides":{"list":{"s":[],"i":["1","2","2","1"],"f":[],"b":[],"type":[],"shape":[],"tensor":[],"func":[]}},"data_format":{"s":[78,72,87,67]},"use_cudnn_on_gpu":{"b":true}},"name":"InceptionV3/Mixed_6a/Branch_1/Conv2d_1a_1x1/Conv2D","op":"Conv2D"},{"input":["InceptionV3/Mixed_6a/Branch_1/Conv2d_1a_1x1/Conv2D","InceptionV3/Mixed_6a/Branch_1/Conv2d_0b_3x3/BatchNorm/Const","InceptionV3/Mixed_6a/Branch_1/Conv2d_1a_1x1/BatchNorm/beta","InceptionV3/Mixed_6a/Branch_1/Conv2d_1a_1x1/BatchNorm/moving_mean","InceptionV3/Mixed_6a/Branch_1/Conv2d_1a_1x1/BatchNorm/moving_variance"],"attr":{"data_format":{"s":[78,72,87,67]},"is_training":{"b":false},"epsilon":{"f":0.0010000000474974513},"T":{"type":1}},"name":"InceptionV3/Mixed_6a/Branch_1/Conv2d_1a_1x1/BatchNorm/FusedBatchNorm","op":"FusedBatchNorm"},{"input":["InceptionV3/Mixed_6a/Branch_1/Conv2d_1a_1x1/BatchNorm/FusedBatchNorm"],"attr":{"T":{"type":1}},"name":"InceptionV3/Mixed_6a/Branch_1/Conv2d_1a_1x1/Relu6","op":"Relu6"},{"input":["InceptionV3/Mixed_6a/Branch_0/Conv2d_1a_1x1/Relu6","InceptionV3/Mixed_6a/Branch_1/Conv2d_1a_1x1/Relu6","InceptionV3/Mixed_6a/Branch_2/MaxPool_1a_3x3/MaxPool","InceptionV3/Mixed_5b/concat/axis"],"attr":{"N":{"i":"3"},"Tidx":{"type":3},"T":{"type":1}},"name":"InceptionV3/Mixed_6a/concat","op":"ConcatV2"},{"input":["InceptionV3/Mixed_6a/concat","InceptionV3/Mixed_6b/Branch_0/Conv2d_0a_1x1/weights"],"attr":{"padding":{"s":[83,65,77,69]},"dilations":{"list":{"s":[],"i":["1","1","1","1"],"f":[],"b":[],"type":[],"shape":[],"tensor":[],"func":[]}},"T":{"type":1},"data_format":{"s":[78,72,87,67]},"strides":{"list":{"s":[],"i":["1","1","1","1"],"f":[],"b":[],"type":[],"shape":[],"tensor":[],"func":[]}},"use_cudnn_on_gpu":{"b":true}},"name":"InceptionV3/Mixed_6b/Branch_0/Conv2d_0a_1x1/Conv2D","op":"Conv2D"},{"input":["InceptionV3/Mixed_6a/concat","InceptionV3/Mixed_6b/Branch_1/Conv2d_0a_1x1/weights"],"attr":{"dilations":{"list":{"s":[],"i":["1","1","1","1"],"f":[],"b":[],"type":[],"shape":[],"tensor":[],"func":[]}},"T":{"type":1},"data_format":{"s":[78,72,87,67]},"strides":{"list":{"s":[],"i":["1","1","1","1"],"f":[],"b":[],"type":[],"shape":[],"tensor":[],"func":[]}},"use_cudnn_on_gpu":{"b":true},"padding":{"s":[83,65,77,69]}},"name":"InceptionV3/Mixed_6b/Branch_1/Conv2d_0a_1x1/Conv2D","op":"Conv2D"},{"input":["InceptionV3/Mixed_6a/concat","InceptionV3/Mixed_6b/Branch_2/Conv2d_0a_1x1/weights"],"attr":{"padding":{"s":[83,65,77,69]},"dilations":{"list":{"s":[],"i":["1","1","1","1"],"f":[],"b":[],"type":[],"shape":[],"tensor":[],"func":[]}},"T":{"type":1},"strides":{"list":{"s":[],"i":["1","1","1","1"],"f":[],"b":[],"type":[],"shape":[],"tensor":[],"func":[]}},"data_format":{"s":[78,72,87,67]},"use_cudnn_on_gpu":{"b":true}},"name":"InceptionV3/Mixed_6b/Branch_2/Conv2d_0a_1x1/Conv2D","op":"Conv2D"},{"input":["InceptionV3/Mixed_6a/concat"],"attr":{"ksize":{"list":{"s":[],"i":["1","3","3","1"],"f":[],"b":[],"type":[],"shape":[],"tensor":[],"func":[]}},"padding":{"s":[83,65,77,69]},"T":{"type":1},"strides":{"list":{"s":[],"i":["1","1","1","1"],"f":[],"b":[],"type":[],"shape":[],"tensor":[],"func":[]}},"data_format":{"s":[78,72,87,67]}},"name":"InceptionV3/Mixed_6b/Branch_3/AvgPool_0a_3x3/AvgPool","op":"AvgPool"},{"input":["InceptionV3/Mixed_6b/Branch_0/Conv2d_0a_1x1/Conv2D","InceptionV3/Mixed_6e/Branch_0/Conv2d_0a_1x1/BatchNorm/Const","InceptionV3/Mixed_6b/Branch_0/Conv2d_0a_1x1/BatchNorm/beta","InceptionV3/Mixed_6b/Branch_0/Conv2d_0a_1x1/BatchNorm/moving_mean","InceptionV3/Mixed_6b/Branch_0/Conv2d_0a_1x1/BatchNorm/moving_variance"],"attr":{"T":{"type":1},"data_format":{"s":[78,72,87,67]},"is_training":{"b":false},"epsilon":{"f":0.0010000000474974513}},"name":"InceptionV3/Mixed_6b/Branch_0/Conv2d_0a_1x1/BatchNorm/FusedBatchNorm","op":"FusedBatchNorm"},{"input":["InceptionV3/Mixed_6b/Branch_1/Conv2d_0a_1x1/Conv2D","InceptionV3/Mixed_6b/Branch_1/Conv2d_0a_1x1/BatchNorm/Const","InceptionV3/Mixed_6b/Branch_1/Conv2d_0a_1x1/BatchNorm/beta","InceptionV3/Mixed_6b/Branch_1/Conv2d_0a_1x1/BatchNorm/moving_mean","InceptionV3/Mixed_6b/Branch_1/Conv2d_0a_1x1/BatchNorm/moving_variance"],"attr":{"data_format":{"s":[78,72,87,67]},"is_training":{"b":false},"epsilon":{"f":0.0010000000474974513},"T":{"type":1}},"name":"InceptionV3/Mixed_6b/Branch_1/Conv2d_0a_1x1/BatchNorm/FusedBatchNorm","op":"FusedBatchNorm"},{"input":["InceptionV3/Mixed_6b/Branch_2/Conv2d_0a_1x1/Conv2D","InceptionV3/Mixed_6b/Branch_1/Conv2d_0a_1x1/BatchNorm/Const","InceptionV3/Mixed_6b/Branch_2/Conv2d_0a_1x1/BatchNorm/beta","InceptionV3/Mixed_6b/Branch_2/Conv2d_0a_1x1/BatchNorm/moving_mean","InceptionV3/Mixed_6b/Branch_2/Conv2d_0a_1x1/BatchNorm/moving_variance"],"attr":{"T":{"type":1},"data_format":{"s":[78,72,87,67]},"is_training":{"b":false},"epsilon":{"f":0.0010000000474974513}},"name":"InceptionV3/Mixed_6b/Branch_2/Conv2d_0a_1x1/BatchNorm/FusedBatchNorm","op":"FusedBatchNorm"},{"input":["InceptionV3/Mixed_6b/Branch_3/AvgPool_0a_3x3/AvgPool","InceptionV3/Mixed_6b/Branch_3/Conv2d_0b_1x1/weights"],"attr":{"T":{"type":1},"data_format":{"s":[78,72,87,67]},"strides":{"list":{"s":[],"i":["1","1","1","1"],"f":[],"b":[],"type":[],"shape":[],"tensor":[],"func":[]}},"use_cudnn_on_gpu":{"b":true},"padding":{"s":[83,65,77,69]},"dilations":{"list":{"s":[],"i":["1","1","1","1"],"f":[],"b":[],"type":[],"shape":[],"tensor":[],"func":[]}}},"name":"InceptionV3/Mixed_6b/Branch_3/Conv2d_0b_1x1/Conv2D","op":"Conv2D"},{"input":["InceptionV3/Mixed_6b/Branch_1/Conv2d_0a_1x1/BatchNorm/FusedBatchNorm"],"attr":{"T":{"type":1}},"name":"InceptionV3/Mixed_6b/Branch_1/Conv2d_0a_1x1/Relu6","op":"Relu6"},{"input":["InceptionV3/Mixed_6b/Branch_2/Conv2d_0a_1x1/BatchNorm/FusedBatchNorm"],"attr":{"T":{"type":1}},"name":"InceptionV3/Mixed_6b/Branch_2/Conv2d_0a_1x1/Relu6","op":"Relu6"},{"input":["InceptionV3/Mixed_6b/Branch_3/Conv2d_0b_1x1/Conv2D","InceptionV3/Mixed_6e/Branch_0/Conv2d_0a_1x1/BatchNorm/Const","InceptionV3/Mixed_6b/Branch_3/Conv2d_0b_1x1/BatchNorm/beta","InceptionV3/Mixed_6b/Branch_3/Conv2d_0b_1x1/BatchNorm/moving_mean","InceptionV3/Mixed_6b/Branch_3/Conv2d_0b_1x1/BatchNorm/moving_variance"],"attr":{"epsilon":{"f":0.0010000000474974513},"T":{"type":1},"data_format":{"s":[78,72,87,67]},"is_training":{"b":false}},"name":"InceptionV3/Mixed_6b/Branch_3/Conv2d_0b_1x1/BatchNorm/FusedBatchNorm","op":"FusedBatchNorm"},{"input":["InceptionV3/Mixed_6b/Branch_1/Conv2d_0a_1x1/Relu6","InceptionV3/Mixed_6b/Branch_1/Conv2d_0b_1x7/weights"],"attr":{"T":{"type":1},"data_format":{"s":[78,72,87,67]},"strides":{"list":{"s":[],"i":["1","1","1","1"],"f":[],"b":[],"type":[],"shape":[],"tensor":[],"func":[]}},"use_cudnn_on_gpu":{"b":true},"padding":{"s":[83,65,77,69]},"dilations":{"list":{"s":[],"i":["1","1","1","1"],"f":[],"b":[],"type":[],"shape":[],"tensor":[],"func":[]}}},"name":"InceptionV3/Mixed_6b/Branch_1/Conv2d_0b_1x7/Conv2D","op":"Conv2D"},{"input":["InceptionV3/Mixed_6b/Branch_2/Conv2d_0a_1x1/Relu6","InceptionV3/Mixed_6b/Branch_2/Conv2d_0b_7x1/weights"],"attr":{"strides":{"list":{"s":[],"i":["1","1","1","1"],"f":[],"b":[],"type":[],"shape":[],"tensor":[],"func":[]}},"data_format":{"s":[78,72,87,67]},"use_cudnn_on_gpu":{"b":true},"padding":{"s":[83,65,77,69]},"dilations":{"list":{"s":[],"i":["1","1","1","1"],"f":[],"b":[],"type":[],"shape":[],"tensor":[],"func":[]}},"T":{"type":1}},"name":"InceptionV3/Mixed_6b/Branch_2/Conv2d_0b_7x1/Conv2D","op":"Conv2D"},{"input":["InceptionV3/Mixed_6b/Branch_1/Conv2d_0b_1x7/Conv2D","InceptionV3/Mixed_6b/Branch_1/Conv2d_0a_1x1/BatchNorm/Const","InceptionV3/Mixed_6b/Branch_1/Conv2d_0b_1x7/BatchNorm/beta","InceptionV3/Mixed_6b/Branch_1/Conv2d_0b_1x7/BatchNorm/moving_mean","InceptionV3/Mixed_6b/Branch_1/Conv2d_0b_1x7/BatchNorm/moving_variance"],"attr":{"data_format":{"s":[78,72,87,67]},"is_training":{"b":false},"epsilon":{"f":0.0010000000474974513},"T":{"type":1}},"name":"InceptionV3/Mixed_6b/Branch_1/Conv2d_0b_1x7/BatchNorm/FusedBatchNorm","op":"FusedBatchNorm"},{"input":["InceptionV3/Mixed_6b/Branch_2/Conv2d_0b_7x1/Conv2D","InceptionV3/Mixed_6b/Branch_1/Conv2d_0a_1x1/BatchNorm/Const","InceptionV3/Mixed_6b/Branch_2/Conv2d_0b_7x1/BatchNorm/beta","InceptionV3/Mixed_6b/Branch_2/Conv2d_0b_7x1/BatchNorm/moving_mean","InceptionV3/Mixed_6b/Branch_2/Conv2d_0b_7x1/BatchNorm/moving_variance"],"attr":{"data_format":{"s":[78,72,87,67]},"is_training":{"b":false},"epsilon":{"f":0.0010000000474974513},"T":{"type":1}},"name":"InceptionV3/Mixed_6b/Branch_2/Conv2d_0b_7x1/BatchNorm/FusedBatchNorm","op":"FusedBatchNorm"},{"input":["InceptionV3/Mixed_6b/Branch_1/Conv2d_0b_1x7/BatchNorm/FusedBatchNorm"],"attr":{"T":{"type":1}},"name":"InceptionV3/Mixed_6b/Branch_1/Conv2d_0b_1x7/Relu6","op":"Relu6"},{"input":["InceptionV3/Mixed_6b/Branch_2/Conv2d_0b_7x1/BatchNorm/FusedBatchNorm"],"attr":{"T":{"type":1}},"name":"InceptionV3/Mixed_6b/Branch_2/Conv2d_0b_7x1/Relu6","op":"Relu6"},{"input":["InceptionV3/Mixed_6b/Branch_1/Conv2d_0b_1x7/Relu6","InceptionV3/Mixed_6b/Branch_1/Conv2d_0c_7x1/weights"],"attr":{"padding":{"s":[83,65,77,69]},"dilations":{"list":{"s":[],"i":["1","1","1","1"],"f":[],"b":[],"type":[],"shape":[],"tensor":[],"func":[]}},"T":{"type":1},"strides":{"list":{"s":[],"i":["1","1","1","1"],"f":[],"b":[],"type":[],"shape":[],"tensor":[],"func":[]}},"data_format":{"s":[78,72,87,67]},"use_cudnn_on_gpu":{"b":true}},"name":"InceptionV3/Mixed_6b/Branch_1/Conv2d_0c_7x1/Conv2D","op":"Conv2D"},{"input":["InceptionV3/Mixed_6b/Branch_2/Conv2d_0b_7x1/Relu6","InceptionV3/Mixed_6b/Branch_2/Conv2d_0c_1x7/weights"],"attr":{"padding":{"s":[83,65,77,69]},"dilations":{"list":{"s":[],"i":["1","1","1","1"],"f":[],"b":[],"type":[],"shape":[],"tensor":[],"func":[]}},"T":{"type":1},"strides":{"list":{"s":[],"i":["1","1","1","1"],"f":[],"b":[],"type":[],"shape":[],"tensor":[],"func":[]}},"data_format":{"s":[78,72,87,67]},"use_cudnn_on_gpu":{"b":true}},"name":"InceptionV3/Mixed_6b/Branch_2/Conv2d_0c_1x7/Conv2D","op":"Conv2D"},{"input":["InceptionV3/Mixed_6b/Branch_1/Conv2d_0c_7x1/Conv2D","InceptionV3/Mixed_6e/Branch_0/Conv2d_0a_1x1/BatchNorm/Const","InceptionV3/Mixed_6b/Branch_1/Conv2d_0c_7x1/BatchNorm/beta","InceptionV3/Mixed_6b/Branch_1/Conv2d_0c_7x1/BatchNorm/moving_mean","InceptionV3/Mixed_6b/Branch_1/Conv2d_0c_7x1/BatchNorm/moving_variance"],"attr":{"epsilon":{"f":0.0010000000474974513},"T":{"type":1},"data_format":{"s":[78,72,87,67]},"is_training":{"b":false}},"name":"InceptionV3/Mixed_6b/Branch_1/Conv2d_0c_7x1/BatchNorm/FusedBatchNorm","op":"FusedBatchNorm"},{"input":["InceptionV3/Mixed_6b/Branch_2/Conv2d_0c_1x7/Conv2D","InceptionV3/Mixed_6b/Branch_1/Conv2d_0a_1x1/BatchNorm/Const","InceptionV3/Mixed_6b/Branch_2/Conv2d_0c_1x7/BatchNorm/beta","InceptionV3/Mixed_6b/Branch_2/Conv2d_0c_1x7/BatchNorm/moving_mean","InceptionV3/Mixed_6b/Branch_2/Conv2d_0c_1x7/BatchNorm/moving_variance"],"attr":{"epsilon":{"f":0.0010000000474974513},"T":{"type":1},"data_format":{"s":[78,72,87,67]},"is_training":{"b":false}},"name":"InceptionV3/Mixed_6b/Branch_2/Conv2d_0c_1x7/BatchNorm/FusedBatchNorm","op":"FusedBatchNorm"},{"input":["InceptionV3/Mixed_6b/Branch_2/Conv2d_0c_1x7/BatchNorm/FusedBatchNorm"],"attr":{"T":{"type":1}},"name":"InceptionV3/Mixed_6b/Branch_2/Conv2d_0c_1x7/Relu6","op":"Relu6"},{"input":["InceptionV3/Mixed_6b/Branch_2/Conv2d_0c_1x7/Relu6","InceptionV3/Mixed_6b/Branch_2/Conv2d_0d_7x1/weights"],"attr":{"padding":{"s":[83,65,77,69]},"dilations":{"list":{"s":[],"i":["1","1","1","1"],"f":[],"b":[],"type":[],"shape":[],"tensor":[],"func":[]}},"T":{"type":1},"data_format":{"s":[78,72,87,67]},"strides":{"list":{"s":[],"i":["1","1","1","1"],"f":[],"b":[],"type":[],"shape":[],"tensor":[],"func":[]}},"use_cudnn_on_gpu":{"b":true}},"name":"InceptionV3/Mixed_6b/Branch_2/Conv2d_0d_7x1/Conv2D","op":"Conv2D"},{"input":["InceptionV3/Mixed_6b/Branch_2/Conv2d_0d_7x1/Conv2D","InceptionV3/Mixed_6b/Branch_1/Conv2d_0a_1x1/BatchNorm/Const","InceptionV3/Mixed_6b/Branch_2/Conv2d_0d_7x1/BatchNorm/beta","InceptionV3/Mixed_6b/Branch_2/Conv2d_0d_7x1/BatchNorm/moving_mean","InceptionV3/Mixed_6b/Branch_2/Conv2d_0d_7x1/BatchNorm/moving_variance"],"attr":{"epsilon":{"f":0.0010000000474974513},"T":{"type":1},"data_format":{"s":[78,72,87,67]},"is_training":{"b":false}},"name":"InceptionV3/Mixed_6b/Branch_2/Conv2d_0d_7x1/BatchNorm/FusedBatchNorm","op":"FusedBatchNorm"},{"input":["InceptionV3/Mixed_6b/Branch_2/Conv2d_0d_7x1/BatchNorm/FusedBatchNorm"],"attr":{"T":{"type":1}},"name":"InceptionV3/Mixed_6b/Branch_2/Conv2d_0d_7x1/Relu6","op":"Relu6"},{"input":["InceptionV3/Mixed_6b/Branch_2/Conv2d_0d_7x1/Relu6","InceptionV3/Mixed_6b/Branch_2/Conv2d_0e_1x7/weights"],"attr":{"dilations":{"list":{"s":[],"i":["1","1","1","1"],"f":[],"b":[],"type":[],"shape":[],"tensor":[],"func":[]}},"T":{"type":1},"strides":{"list":{"s":[],"i":["1","1","1","1"],"f":[],"b":[],"type":[],"shape":[],"tensor":[],"func":[]}},"data_format":{"s":[78,72,87,67]},"use_cudnn_on_gpu":{"b":true},"padding":{"s":[83,65,77,69]}},"name":"InceptionV3/Mixed_6b/Branch_2/Conv2d_0e_1x7/Conv2D","op":"Conv2D"},{"input":["InceptionV3/Mixed_6b/Branch_2/Conv2d_0e_1x7/Conv2D","InceptionV3/Mixed_6e/Branch_0/Conv2d_0a_1x1/BatchNorm/Const","InceptionV3/Mixed_6b/Branch_2/Conv2d_0e_1x7/BatchNorm/beta","InceptionV3/Mixed_6b/Branch_2/Conv2d_0e_1x7/BatchNorm/moving_mean","InceptionV3/Mixed_6b/Branch_2/Conv2d_0e_1x7/BatchNorm/moving_variance"],"attr":{"epsilon":{"f":0.0010000000474974513},"T":{"type":1},"data_format":{"s":[78,72,87,67]},"is_training":{"b":false}},"name":"InceptionV3/Mixed_6b/Branch_2/Conv2d_0e_1x7/BatchNorm/FusedBatchNorm","op":"FusedBatchNorm"},{"input":["InceptionV3/Mixed_6b/Branch_0/Conv2d_0a_1x1/BatchNorm/FusedBatchNorm","InceptionV3/Mixed_6b/Branch_1/Conv2d_0c_7x1/BatchNorm/FusedBatchNorm","InceptionV3/Mixed_6b/Branch_2/Conv2d_0e_1x7/BatchNorm/FusedBatchNorm","InceptionV3/Mixed_6b/Branch_3/Conv2d_0b_1x1/BatchNorm/FusedBatchNorm","InceptionV3/Mixed_5b/concat/axis"],"attr":{"T":{"type":1},"N":{"i":"4"},"Tidx":{"type":3}},"name":"InceptionV3/Mixed_6b/concat","op":"ConcatV2"},{"input":["InceptionV3/Mixed_6b/concat"],"attr":{"T":{"type":1}},"name":"InceptionV3/Mixed_6b/Branch_0/Conv2d_0a_1x1/Relu6","op":"Relu6"},{"input":["InceptionV3/Mixed_6b/Branch_0/Conv2d_0a_1x1/Relu6","InceptionV3/Mixed_6c/Branch_0/Conv2d_0a_1x1/weights"],"attr":{"dilations":{"list":{"s":[],"i":["1","1","1","1"],"f":[],"b":[],"type":[],"shape":[],"tensor":[],"func":[]}},"T":{"type":1},"data_format":{"s":[78,72,87,67]},"strides":{"list":{"s":[],"i":["1","1","1","1"],"f":[],"b":[],"type":[],"shape":[],"tensor":[],"func":[]}},"use_cudnn_on_gpu":{"b":true},"padding":{"s":[83,65,77,69]}},"name":"InceptionV3/Mixed_6c/Branch_0/Conv2d_0a_1x1/Conv2D","op":"Conv2D"},{"input":["InceptionV3/Mixed_6b/Branch_0/Conv2d_…
nv2d_0b_1x7/BatchNorm/FusedBatchNorm"],"attr":{"T":{"type":1}},"name":"InceptionV3/Mixed_6d/Branch_1/Conv2d_0b_1x7/Relu6","op":"Relu6"},{"input":["InceptionV3/Mixed_6d/Branch_2/Conv2d_0b_7x1/BatchNorm/FusedBatchNorm"],"attr":{"T":{"type":1}},"name":"InceptionV3/Mixed_6d/Branch_2/Conv2d_0b_7x1/Relu6","op":"Relu6"},{"input":["InceptionV3/Mixed_6d/Branch_1/Conv2d_0b_1x7/Relu6","InceptionV3/Mixed_6d/Branch_1/Conv2d_0c_7x1/weights"],"attr":{"padding":{"s":[83,65,77,69]},"dilations":{"list":{"s":[],"i":["1","1","1","1"],"f":[],"b":[],"type":[],"shape":[],"tensor":[],"func":[]}},"T":{"type":1},"strides":{"list":{"s":[],"i":["1","1","1","1"],"f":[],"b":[],"type":[],"shape":[],"tensor":[],"func":[]}},"data_format":{"s":[78,72,87,67]},"use_cudnn_on_gpu":{"b":true}},"name":"InceptionV3/Mixed_6d/Branch_1/Conv2d_0c_7x1/Conv2D","op":"Conv2D"},{"input":["InceptionV3/Mixed_6d/Branch_2/Conv2d_0b_7x1/Relu6","InceptionV3/Mixed_6d/Branch_2/Conv2d_0c_1x7/weights"],"attr":{"dilations":{"list":{"s":[],"i":["1","1","1","1"],"f":[],"b":[],"type":[],"shape":[],"tensor":[],"func":[]}},"T":{"type":1},"strides":{"list":{"s":[],"i":["1","1","1","1"],"f":[],"b":[],"type":[],"shape":[],"tensor":[],"func":[]}},"data_format":{"s":[78,72,87,67]},"use_cudnn_on_gpu":{"b":true},"padding":{"s":[83,65,77,69]}},"name":"InceptionV3/Mixed_6d/Branch_2/Conv2d_0c_1x7/Conv2D","op":"Conv2D"},{"input":["InceptionV3/Mixed_6d/Branch_1/Conv2d_0c_7x1/Conv2D","InceptionV3/Mixed_6e/Branch_0/Conv2d_0a_1x1/BatchNorm/Const","InceptionV3/Mixed_6d/Branch_1/Conv2d_0c_7x1/BatchNorm/beta","InceptionV3/Mixed_6d/Branch_1/Conv2d_0c_7x1/BatchNorm/moving_mean","InceptionV3/Mixed_6d/Branch_1/Conv2d_0c_7x1/BatchNorm/moving_variance"],"attr":{"epsilon":{"f":0.0010000000474974513},"T":{"type":1},"data_format":{"s":[78,72,87,67]},"is_training":{"b":false}},"name":"InceptionV3/Mixed_6d/Branch_1/Conv2d_0c_7x1/BatchNorm/FusedBatchNorm","op":"FusedBatchNorm"},{"input":["InceptionV3/Mixed_6d/Branch_2/Conv2d_0c_1x7/Conv2D","InceptionV3/Mixed_6d/Branch_1/Conv2d_0a_1x1/BatchNorm/Const","InceptionV3/Mixed_6d/Branch_2/Conv2d_0c_1x7/BatchNorm/beta","InceptionV3/Mixed_6d/Branch_2/Conv2d_0c_1x7/BatchNorm/moving_mean","InceptionV3/Mixed_6d/Branch_2/Conv2d_0c_1x7/BatchNorm/moving_variance"],"attr":{"epsilon":{"f":0.0010000000474974513},"T":{"type":1},"data_format":{"s":[78,72,87,67]},"is_training":{"b":false}},"name":"InceptionV3/Mixed_6d/Branch_2/Conv2d_0c_1x7/BatchNorm/FusedBatchNorm","op":"FusedBatchNorm"},{"input":["InceptionV3/Mixed_6d/Branch_2/Conv2d_0c_1x7/BatchNorm/FusedBatchNorm"],"attr":{"T":{"type":1}},"name":"InceptionV3/Mixed_6d/Branch_2/Conv2d_0c_1x7/Relu6","op":"Relu6"},{"input":["InceptionV3/Mixed_6d/Branch_2/Conv2d_0c_1x7/Relu6","InceptionV3/Mixed_6d/Branch_2/Conv2d_0d_7x1/weights"],"attr":{"dilations":{"list":{"s":[],"i":["1","1","1","1"],"f":[],"b":[],"type":[],"shape":[],"tensor":[],"func":[]}},"T":{"type":1},"data_format":{"s":[78,72,87,67]},"strides":{"list":{"s":[],"i":["1","1","1","1"],"f":[],"b":[],"type":[],"shape":[],"tensor":[],"func":[]}},"use_cudnn_on_gpu":{"b":true},"padding":{"s":[83,65,77,69]}},"name":"InceptionV3/Mixed_6d/Branch_2/Conv2d_0d_7x1/Conv2D","op":"Conv2D"},{"input":["InceptionV3/Mixed_6d/Branch_2/Conv2d_0d_7x1/Conv2D","InceptionV3/Mixed_6d/Branch_1/Conv2d_0a_1x1/BatchNorm/Const","InceptionV3/Mixed_6d/Branch_2/Conv2d_0d_7x1/BatchNorm/beta","InceptionV3/Mixed_6d/Branch_2/Conv2d_0d_7x1/BatchNorm/moving_mean","InceptionV3/Mixed_6d/Branch_2/Conv2d_0d_7x1/BatchNorm/moving_variance"],"attr":{"epsilon":{"f":0.0010000000474974513},"T":{"type":1},"data_format":{"s":[78,72,87,67]},"is_training":{"b":false}},"name":"InceptionV3/Mixed_6d/Branch_2/Conv2d_0d_7x1/BatchNorm/FusedBatchNorm","op":"FusedBatchNorm"},{"input":["InceptionV3/Mixed_6d/Branch_2/Conv2d_0d_7x1/BatchNorm/FusedBatchNorm"],"attr":{"T":{"type":1}},"name":"InceptionV3/Mixed_6d/Branch_2/Conv2d_0d_7x1/Relu6","op":"Relu6"},{"input":["InceptionV3/Mixed_6d/Branch_2/Conv2d_0d_7x1/Relu6","InceptionV3/Mixed_6d/Branch_2/Conv2d_0e_1x7/weights"],"attr":{"strides":{"list":{"s":[],"i":["1","1","1","1"],"f":[],"b":[],"type":[],"shape":[],"tensor":[],"func":[]}},"data_format":{"s":[78,72,87,67]},"use_cudnn_on_gpu":{"b":true},"padding":{"s":[83,65,77,69]},"dilations":{"list":{"s":[],"i":["1","1","1","1"],"f":[],"b":[],"type":[],"shape":[],"tensor":[],"func":[]}},"T":{"type":1}},"name":"InceptionV3/Mixed_6d/Branch_2/Conv2d_0e_1x7/Conv2D","op":"Conv2D"},{"input":["InceptionV3/Mixed_6d/Branch_2/Conv2d_0e_1x7/Conv2D","InceptionV3/Mixed_6e/Branch_0/Conv2d_0a_1x1/BatchNorm/Const","InceptionV3/Mixed_6d/Branch_2/Conv2d_0e_1x7/BatchNorm/beta","InceptionV3/Mixed_6d/Branch_2/Conv2d_0e_1x7/BatchNorm/moving_mean","InceptionV3/Mixed_6d/Branch_2/Conv2d_0e_1x7/BatchNorm/moving_variance"],"attr":{"epsilon":{"f":0.0010000000474974513},"T":{"type":1},"data_format":{"s":[78,72,87,67]},"is_training":{"b":false}},"name":"InceptionV3/Mixed_6d/Branch_2/Conv2d_0e_1x7/BatchNorm/FusedBatchNorm","op":"FusedBatchNorm"},{"input":["InceptionV3/Mixed_6d/Branch_0/Conv2d_0a_1x1/BatchNorm/FusedBatchNorm","InceptionV3/Mixed_6d/Branch_1/Conv2d_0c_7x1/BatchNorm/FusedBatchNorm","InceptionV3/Mixed_6d/Branch_2/Conv2d_0e_1x7/BatchNorm/FusedBatchNorm","InceptionV3/Mixed_6d/Branch_3/Conv2d_0b_1x1/BatchNorm/FusedBatchNorm","InceptionV3/Mixed_5b/concat/axis"],"attr":{"T":{"type":1},"N":{"i":"4"},"Tidx":{"type":3}},"name":"InceptionV3/Mixed_6d/concat","op":"ConcatV2"},{"input":["InceptionV3/Mixed_6d/concat"],"attr":{"T":{"type":1}},"name":"InceptionV3/Mixed_6d/Branch_0/Conv2d_0a_1x1/Relu6","op":"Relu6"},{"input":["InceptionV3/Mixed_6d/Branch_0/Conv2d_0a_1x1/Relu6","InceptionV3/Mixed_6e/Branch_0/Conv2d_0a_1x1/weights"],"attr":{"padding":{"s":[83,65,77,69]},"dilations":{"list":{"s":[],"i":["1","1","1","1"],"f":[],"b":[],"type":[],"shape":[],"tensor":[],"func":[]}},"T":{"type":1},"data_format":{"s":[78,72,87,67]},"strides":{"list":{"s":[],"i":["1","1","1","1"],"f":[],"b":[],"type":[],"shape":[],"tensor":[],"func":[]}},"use_cudnn_on_gpu":{"b":true}},"name":"InceptionV3/Mixed_6e/Branch_0/Conv2d_0a_1x1/Conv2D","op":"Conv2D"},{"input":["InceptionV3/Mixed_6d/Branch_0/Conv2d_0a_1x1/Relu6","InceptionV3/Mixed_6e/Branch_1/Conv2d_0a_1x1/weights"],"attr":{"dilations":{"list":{"s":[],"i":["1","1","1","1"],"f":[],"b":[],"type":[],"shape":[],"tensor":[],"func":[]}},"T":{"type":1},"strides":{"list":{"s":[],"i":["1","1","1","1"],"f":[],"b":[],"type":[],"shape":[],"tensor":[],"func":[]}},"data_format":{"s":[78,72,87,67]},"use_cudnn_on_gpu":{"b":true},"padding":{"s":[83,65,77,69]}},"name":"InceptionV3/Mixed_6e/Branch_1/Conv2d_0a_1x1/Conv2D","op":"Conv2D"},{"input":["InceptionV3/Mixed_6d/Branch_0/Conv2d_0a_1x1/Relu6","InceptionV3/Mixed_6e/Branch_2/Conv2d_0a_1x1/weights"],"attr":{"padding":{"s":[83,65,77,69]},"dilations":{"list":{"s":[],"i":["1","1","1","1"],"f":[],"b":[],"type":[],"shape":[],"tensor":[],"func":[]}},"T":{"type":1},"data_format":{"s":[78,72,87,67]},"strides":{"list":{"s":[],"i":["1","1","1","1"],"f":[],"b":[],"type":[],"shape":[],"tensor":[],"func":[]}},"use_cudnn_on_gpu":{"b":true}},"name":"InceptionV3/Mixed_6e/Branch_2/Conv2d_0a_1x1/Conv2D","op":"Conv2D"},{"input":["InceptionV3/Mixed_6d/Branch_0/Conv2d_0a_1x1/Relu6"],"attr":{"ksize":{"list":{"s":[],"i":["1","3","3","1"],"f":[],"b":[],"type":[],"shape":[],"tensor":[],"func":[]}},"padding":{"s":[83,65,77,69]},"T":{"type":1},"strides":{"list":{"s":[],"i":["1","1","1","1"],"f":[],"b":[],"type":[],"shape":[],"tensor":[],"func":[]}},"data_format":{"s":[78,72,87,67]}},"name":"InceptionV3/Mixed_6e/Branch_3/AvgPool_0a_3x3/AvgPool","op":"AvgPool"},{"input":["InceptionV3/Mixed_6e/Branch_0/Conv2d_0a_1x1/Conv2D","InceptionV3/Mixed_6e/Branch_0/Conv2d_0a_1x1/BatchNorm/Const","InceptionV3/Mixed_6e/Branch_0/Conv2d_0a_1x1/BatchNorm/beta","InceptionV3/Mixed_6e/Branch_0/Conv2d_0a_1x1/BatchNorm/moving_mean","InceptionV3/Mixed_6e/Branch_0/Conv2d_0a_1x1/BatchNorm/moving_variance"],"attr":{"data_format":{"s":[78,72,87,67]},"is_training":{"b":false},"epsilon":{"f":0.0010000000474974513},"T":{"type":1}},"name":"InceptionV3/Mixed_6e/Branch_0/Conv2d_0a_1x1/BatchNorm/FusedBatchNorm","op":"FusedBatchNorm"},{"input":["InceptionV3/Mixed_6e/Branch_1/Conv2d_0a_1x1/Conv2D","InceptionV3/Mixed_6e/Branch_0/Conv2d_0a_1x1/BatchNorm/Const","InceptionV3/Mixed_6e/Branch_1/Conv2d_0a_1x1/BatchNorm/beta","InceptionV3/Mixed_6e/Branch_1/Conv2d_0a_1x1/BatchNorm/moving_mean","InceptionV3/Mixed_6e/Branch_1/Conv2d_0a_1x1/BatchNorm/moving_variance"],"attr":{"T":{"type":1},"data_format":{"s":[78,72,87,67]},"is_training":{"b":false},"epsilon":{"f":0.0010000000474974513}},"name":"InceptionV3/Mixed_6e/Branch_1/Conv2d_0a_1x1/BatchNorm/FusedBatchNorm","op":"FusedBatchNorm"},{"input":["InceptionV3/Mixed_6e/Branch_2/Conv2d_0a_1x1/Conv2D","InceptionV3/Mixed_6e/Branch_0/Conv2d_0a_1x1/BatchNorm/Const","InceptionV3/Mixed_6e/Branch_2/Conv2d_0a_1x1/BatchNorm/beta","InceptionV3/Mixed_6e/Branch_2/Conv2d_0a_1x1/BatchNorm/moving_mean","InceptionV3/Mixed_6e/Branch_2/Conv2d_0a_1x1/BatchNorm/moving_variance"],"attr":{"epsilon":{"f":0.0010000000474974513},"T":{"type":1},"data_format":{"s":[78,72,87,67]},"is_training":{"b":false}},"name":"InceptionV3/Mixed_6e/Branch_2/Conv2d_0a_1x1/BatchNorm/FusedBatchNorm","op":"FusedBatchNorm"},{"input":["InceptionV3/Mixed_6e/Branch_3/AvgPool_0a_3x3/AvgPool","InceptionV3/Mixed_6e/Branch_3/Conv2d_0b_1x1/weights"],"attr":{"dilations":{"list":{"s":[],"i":["1","1","1","1"],"f":[],"b":[],"type":[],"shape":[],"tensor":[],"func":[]}},"T":{"type":1},"data_format":{"s":[78,72,87,67]},"strides":{"list":{"s":[],"i":["1","1","1","1"],"f":[],"b":[],"type":[],"shape":[],"tensor":[],"func":[]}},"use_cudnn_on_gpu":{"b":true},"padding":{"s":[83,65,77,69]}},"name":"InceptionV3/Mixed_6e/Branch_3/Conv2d_0b_1x1/Conv2D","op":"Conv2D"},{"input":["InceptionV3/Mixed_6e/Branch_1/Conv2d_0a_1x1/BatchNorm/FusedBatchNorm"],"attr":{"T":{"type":1}},"name":"InceptionV3/Mixed_6e/Branch_1/Conv2d_0a_1x1/Relu6","op":"Relu6"},{"input":["InceptionV3/Mixed_6e/Branch_2/Conv2d_0a_1x1/BatchNorm/FusedBatchNorm"],"attr":{"T":{"type":1}},"name":"InceptionV3/Mixed_6e/Branch_2/Conv2d_0a_1x1/Relu6","op":"Relu6"},{"input":["InceptionV3/Mixed_6e/Branch_3/Conv2d_0b_1x1/Conv2D","InceptionV3/Mixed_6e/Branch_0/Conv2d_0a_1x1/BatchNorm/Const","InceptionV3/Mixed_6e/Branch_3/Conv2d_0b_1x1/BatchNorm/beta","InceptionV3/Mixed_6e/Branch_3/Conv2d_0b_1x1/BatchNorm/moving_mean","InceptionV3/Mixed_6e/Branch_3/Conv2d_0b_1x1/BatchNorm/moving_variance"],"attr":{"T":{"type":1},"data_format":{"s":[78,72,87,67]},"is_training":{"b":false},"epsilon":{"f":0.0010000000474974513}},"name":"InceptionV3/Mixed_6e/Branch_3/Conv2d_0b_1x1/BatchNorm/FusedBatchNorm","op":"FusedBatchNorm"},{"input":["InceptionV3/Mixed_6e/Branch_1/Conv2d_0a_1x1/Relu6","InceptionV3/Mixed_6e/Branch_1/Conv2d_0b_1x7/weights"],"attr":{"dilations":{"list":{"s":[],"i":["1","1","1","1"],"f":[],"b":[],"type":[],"shape":[],"tensor":[],"func":[]}},"T":{"type":1},"strides":{"list":{"s":[],"i":["1","1","1","1"],"f":[],"b":[],"type":[],"shape":[],"tensor":[],"func":[]}},"data_format":{"s":[78,72,87,67]},"use_cudnn_on_gpu":{"b":true},"padding":{"s":[83,65,77,69]}},"name":"InceptionV3/Mixed_6e/Branch_1/Conv2d_0b_1x7/Conv2D","op":"Conv2D"},{"input":["InceptionV3/Mixed_6e/Branch_2/Conv2d_0a_1x1/Relu6","InceptionV3/Mixed_6e/Branch_2/Conv2d_0b_7x1/weights"],"attr":{"data_format":{"s":[78,72,87,67]},"strides":{"list":{"s":[],"i":["1","1","1","1"],"f":[],"b":[],"type":[],"shape":[],"tensor":[],"func":[]}},"use_cudnn_on_gpu":{"b":true},"padding":{"s":[83,65,77,69]},"dilations":{"list":{"s":[],"i":["1","1","1","1"],"f":[],"b":[],"type":[],"shape":[],"tensor":[],"func":[]}},"T":{"type":1}},"name":"InceptionV3/Mixed_6e/Branch_2/Conv2d_0b_7x1/Conv2D","op":"Conv2D"},{"input":["InceptionV3/Mixed_6e/Branch_1/Conv2d_0b_1x7/Conv2D","InceptionV3/Mixed_6e/Branch_0/Conv2d_0a_1x1/BatchNorm/Const","InceptionV3/Mixed_6e/Branch_1/Conv2d_0b_1x7/BatchNorm/beta","InceptionV3/Mixed_6e/Branch_1/Conv2d_0b_1x7/BatchNorm/moving_mean","InceptionV3/Mixed_6e/Branch_1/Conv2d_0b_1x7/BatchNorm/moving_variance"],"attr":{"epsilon":{"f":0.0010000000474974513},"T":{"type":1},"data_format":{"s":[78,72,87,67]},"is_training":{"b":false}},"name":"InceptionV3/Mixed_6e/Branch_1/Conv2d_0b_1x7/BatchNorm/FusedBatchNorm","op":"FusedBatchNorm"},{"input":["InceptionV3/Mixed_6e/Branch_2/Conv2d_0b_7x1/Conv2D","InceptionV3/Mixed_6e/Branch_0/Conv2d_0a_1x1/BatchNorm/Const","InceptionV3/Mixed_6e/Branch_2/Conv2d_0b_7x1/BatchNorm/beta","InceptionV3/Mixed_6e/Branch_2/Conv2d_0b_7x1/BatchNorm/moving_mean","InceptionV3/Mixed_6e/Branch_2/Conv2d_0b_7x1/BatchNorm/moving_variance"],"attr":{"data_format":{"s":[78,72,87,67]},"is_training":{"b":false},"epsilon":{"f":0.0010000000474974513},"T":{"type":1}},"name":"InceptionV3/Mixed_6e/Branch_2/Conv2d_0b_7x1/BatchNorm/FusedBatchNorm","op":"FusedBatchNorm"},{"input":["InceptionV3/Mixed_6e/Branch_1/Conv2d_0b_1x7/BatchNorm/FusedBatchNorm"],"attr":{"T":{"type":1}},"name":"InceptionV3/Mixed_6e/Branch_1/Conv2d_0b_1x7/Relu6","op":"Relu6"},{"input":["InceptionV3/Mixed_6e/Branch_2/Conv2d_0b_7x1/BatchNorm/FusedBatchNorm"],"attr":{"T":{"type":1}},"name":"InceptionV3/Mixed_6e/Branch_2/Conv2d_0b_7x1/Relu6","op":"Relu6"},{"input":["InceptionV3/Mixed_6e/Branch_1/Conv2d_0b_1x7/Relu6","InceptionV3/Mixed_6e/Branch_1/Conv2d_0c_7x1/weights"],"attr":{"dilations":{"list":{"s":[],"i":["1","1","1","1"],"f":[],"b":[],"type":[],"shape":[],"tensor":[],"func":[]}},"T":{"type":1},"data_format":{"s":[78,72,87,67]},"strides":{"list":{"s":[],"i":["1","1","1","1"],"f":[],"b":[],"type":[],"shape":[],"tensor":[],"func":[]}},"use_cudnn_on_gpu":{"b":true},"padding":{"s":[83,65,77,69]}},"name":"InceptionV3/Mixed_6e/Branch_1/Conv2d_0c_7x1/Conv2D","op":"Conv2D"},{"input":["InceptionV3/Mixed_6e/Branch_2/Conv2d_0b_7x1/Relu6","InceptionV3/Mixed_6e/Branch_2/Conv2d_0c_1x7/weights"],"attr":{"strides":{"list":{"s":[],"i":["1","1","1","1"],"f":[],"b":[],"type":[],"shape":[],"tensor":[],"func":[]}},"data_format":{"s":[78,72,87,67]},"use_cudnn_on_gpu":{"b":true},"padding":{"s":[83,65,77,69]},"dilations":{"list":{"s":[],"i":["1","1","1","1"],"f":[],"b":[],"type":[],"shape":[],"tensor":[],"func":[]}},"T":{"type":1}},"name":"InceptionV3/Mixed_6e/Branch_2/Conv2d_0c_1x7/Conv2D","op":"Conv2D"},{"input":["InceptionV3/Mixed_6e/Branch_1/Conv2d_0c_7x1/Conv2D","InceptionV3/Mixed_6e/Branch_0/Conv2d_0a_1x1/BatchNorm/Const","InceptionV3/Mixed_6e/Branch_1/Conv2d_0c_7x1/BatchNorm/beta","InceptionV3/Mixed_6e/Branch_1/Conv2d_0c_7x1/BatchNorm/moving_mean","InceptionV3/Mixed_6e/Branch_1/Conv2d_0c_7x1/BatchNorm/moving_variance"],"attr":{"epsilon":{"f":0.0010000000474974513},"T":{"type":1},"data_format":{"s":[78,72,87,67]},"is_training":{"b":false}},"name":"InceptionV3/Mixed_6e/Branch_1/Conv2d_0c_7x1/BatchNorm/FusedBatchNorm","op":"FusedBatchNorm"},{"input":["InceptionV3/Mixed_6e/Branch_2/Conv2d_0c_1x7/Conv2D","InceptionV3/Mixed_6e/Branch_0/Conv2d_0a_1x1/BatchNorm/Const","InceptionV3/Mixed_6e/Branch_2/Conv2d_0c_1x7/BatchNorm/beta","InceptionV3/Mixed_6e/Branch_2/Conv2d_0c_1x7/BatchNorm/moving_mean","InceptionV3/Mixed_6e/Branch_2/Conv2d_0c_1x7/BatchNorm/moving_variance"],"attr":{"epsilon":{"f":0.0010000000474974513},"T":{"type":1},"data_format":{"s":[78,72,87,67]},"is_training":{"b":false}},"name":"InceptionV3/Mixed_6e/Branch_2/Conv2d_0c_1x7/BatchNorm/FusedBatchNorm","op":"FusedBatchNorm"},{"input":["InceptionV3/Mixed_6e/Branch_2/Conv2d_0c_1x7/BatchNorm/FusedBatchNorm"],"attr":{"T":{"type":1}},"name":"InceptionV3/Mixed_6e/Branch_2/Conv2d_0c_1x7/Relu6","op":"Relu6"},{"input":["InceptionV3/Mixed_6e/Branch_2/Conv2d_0c_1x7/Relu6","InceptionV3/Mixed_6e/Branch_2/Conv2d_0d_7x1/weights"],"attr":{"dilations":{"list":{"s":[],"i":["1","1","1","1"],"f":[],"b":[],"type":[],"shape":[],"tensor":[],"func":[]}},"T":{"type":1},"data_format":{"s":[78,72,87,67]},"strides":{"list":{"s":[],"i":["1","1","1","1"],"f":[],"b":[],"type":[],"shape":[],"tensor":[],"func":[]}},"use_cudnn_on_gpu":{"b":true},"padding":{"s":[83,65,77,69]}},"name":"InceptionV3/Mixed_6e/Branch_2/Conv2d_0d_7x1/Conv2D","op":"Conv2D"},{"input":["InceptionV3/Mixed_6e/Branch_2/Conv2d_0d_7x1/Conv2D","InceptionV3/Mixed_6e/Branch_0/Conv2d_0a_1x1/BatchNorm/Const","InceptionV3/Mixed_6e/Branch_2/Conv2d_0d_7x1/BatchNorm/beta","InceptionV3/Mixed_6e/Branch_2/Conv2d_0d_7x1/BatchNorm/moving_mean","InceptionV3/Mixed_6e/Branch_2/Conv2d_0d_7x1/BatchNorm/moving_variance"],"attr":{"T":{"type":1},"data_format":{"s":[78,72,87,67]},"is_training":{"b":false},"epsilon":{"f":0.0010000000474974513}},"name":"InceptionV3/Mixed_6e/Branch_2/Conv2d_0d_7x1/BatchNorm/FusedBatchNorm","op":"FusedBatchNorm"},{"input":["InceptionV3/Mixed_6e/Branch_2/Conv2d_0d_7x1/BatchNorm/FusedBatchNorm"],"attr":{"T":{"type":1}},"name":"InceptionV3/Mixed_6e/Branch_2/Conv2d_0d_7x1/Relu6","op":"Relu6"},{"input":["InceptionV3/Mixed_6e/Branch_2/Conv2d_0d_7x1/Relu6","InceptionV3/Mixed_6e/Branch_2/Conv2d_0e_1x7/weights"],"attr":{"use_cudnn_on_gpu":{"b":true},"padding":{"s":[83,65,77,69]},"dilations":{"list":{"s":[],"i":["1","1","1","1"],"f":[],"b":[],"type":[],"shape":[],"tensor":[],"func":[]}},"T":{"type":1},"data_format":{"s":[78,72,87,67]},"strides":{"list":{"s":[],"i":["1","1","1","1"],"f":[],"b":[],"type":[],"shape":[],"tensor":[],"func":[]}}},"name":"InceptionV3/Mixed_6e/Branch_2/Conv2d_0e_1x7/Conv2D","op":"Conv2D"},{"input":["InceptionV3/Mixed_6e/Branch_2/Conv2d_0e_1x7/Conv2D","InceptionV3/Mixed_6e/Branch_0/Conv2d_0a_1x1/BatchNorm/Const","InceptionV3/Mixed_6e/Branch_2/Conv2d_0e_1x7/BatchNorm/beta","InceptionV3/Mixed_6e/Branch_2/Conv2d_0e_1x7/BatchNorm/moving_mean","InceptionV3/Mixed_6e/Branch_2/Conv2d_0e_1x7/BatchNorm/moving_variance"],"attr":{"data_format":{"s":[78,72,87,67]},"is_training":{"b":false},"epsilon":{"f":0.0010000000474974513},"T":{"type":1}},"name":"InceptionV3/Mixed_6e/Branch_2/Conv2d_0e_1x7/BatchNorm/FusedBatchNorm","op":"FusedBatchNorm"},{"input":["InceptionV3/Mixed_6e/Branch_0/Conv2d_0a_1x1/BatchNorm/FusedBatchNorm","InceptionV3/Mixed_6e/Branch_1/Conv2d_0c_7x1/BatchNorm/FusedBatchNorm","InceptionV3/Mixed_6e/Branch_2/Conv2d_0e_1x7/BatchNorm/FusedBatchNorm","InceptionV3/Mixed_6e/Branch_3/Conv2d_0b_1x1/BatchNorm/FusedBatchNorm","InceptionV3/Mixed_5b/concat/axis"],"attr":{"Tidx":{"type":3},"T":{"type":1},"N":{"i":"4"}},"name":"InceptionV3/Mixed_6e/concat","op":"ConcatV2"},{"input":["InceptionV3/Mixed_6e/concat"],"attr":{"T":{"type":1}},"name":"InceptionV3/Mixed_6e/Branch_0/Conv2d_0a_1x1/Relu6","op":"Relu6"},{"input":["InceptionV3/Mixed_6e/Branch_0/Conv2d_0a_1x1/Relu6","bottleneck/Mean/reduction_indices"],"attr":{"T":{"type":1},"keep_dims":{"b":true},"Tidx":{"type":3}},"name":"bottleneck/Mean","op":"Mean"},{"input":["bottleneck/Mean","Conv/weights"],"attr":{"dilations":{"list":{"s":[],"i":["1","1","1","1"],"f":[],"b":[],"type":[],"shape":[],"tensor":[],"func":[]}},"T":{"type":1},"strides":{"list":{"s":[],"i":["1","1","1","1"],"f":[],"b":[],"type":[],"shape":[],"tensor":[],"func":[]}},"data_format":{"s":[78,72,87,67]},"use_cudnn_on_gpu":{"b":true},"padding":{"s":[83,65,77,69]}},"name":"Conv/Conv2D","op":"Conv2D"},{"input":["Conv/Conv2D","Conv/biases"],"attr":{"T":{"type":1},"data_format":{"s":[78,72,87,67]}},"name":"Conv/BiasAdd","op":"BiasAdd"}],"library":{"function":[],"gradient":[]},"versions":{"badConsumers":[]}},"weightsManifest":[{"paths":["group1-shard1of9","group1-shard2of9","group1-shard3of9","group1-shard4of9","group1-shard5of9","group1-shard6of9","group1-shard7of9","group1-shard8of9","group1-shard9of9"],"weights":[{"name":"InceptionV3/Mixed_6e/Branch_0/Conv2d_0a_1x1/weights","shape":[1,1,768,192],"dtype":"float32"},{"name":"InceptionV3/Mixed_6e/Branch_0/Conv2d_0a_1x1/BatchNorm/beta","shape":[192],"dtype":"float32"},{"name":"InceptionV3/Mixed_6e/Branch_0/Conv2d_0a_1x1/BatchNorm/moving_mean","shape":[192],"dtype":"float32"},{"name":"InceptionV3/Mixed_6e/Branch_0/Conv2d_0a_1x1/BatchNorm/moving_variance","shape":[192],"dtype":"float32"},{"name":"InceptionV3/Mixed_6e/Branch_1/Conv2d_0a_1x1/weights","shape":[1,1,768,192],"dtype":"float32"},{"name":"InceptionV3/Mixed_6e/Branch_1/Conv2d_0a_1x1/BatchNorm/beta","shape":[192],"dtype":"float32"},{"name":"InceptionV3/Mixed_6e/Branch_1/Conv2d_0a_1x1/BatchNorm/moving_mean","shape":[192],"dtype":"float32"},{"name":"InceptionV3/Mixed_6e/Branch_1/Conv2d_0a_1x1/BatchNorm/moving_variance","shape":[192],"dtype":"float32"},{"name":"InceptionV3/Mixed_6e/Branch_1/Conv2d_0b_1x7/weights","shape":[1,7,192,192],"dtype":"float32"},{"name":"InceptionV3/Mixed_6e/Branch_1/Conv2d_0b_1x7/BatchNorm/beta","shape":[192],"dtype":"float32"},{"name":"InceptionV3/Mixed_6e/Branch_1/Conv2d_0b_1x7/BatchNorm/moving_mean","shape":[192],"dtype":"float32"},{"name":"InceptionV3/Mixed_6e/Branch_1/Conv2d_0b_1x7/BatchNorm/moving_variance","shape":[192],"dtype":"float32"},{"name":"InceptionV3/Mixed_6e/Branch_1/Conv2d_0c_7x1/weights","shape":[7,1,192,192],"dtype":"float32"},{"name":"InceptionV3/Mixed_6e/Branch_1/Conv2d_0c_7x1/BatchNorm/beta","shape":[192],"dtype":"float32"},{"name":"InceptionV3/Mixed_6e/Branch_1/Conv2d_0c_7x1/BatchNorm/moving_mean","shape":[192],"dtype":"float32"},{"name":"InceptionV3/Mixed_6e/Branch_1/Conv2d_0c_7x1/BatchNorm/moving_variance","shape":[192],"dtype":"float32"},{"name":"InceptionV3/Mixed_6e/Branch_2/Conv2d_0a_1x1/weights","shape":[1,1,768,192],"dtype":"float32"},{"name":"InceptionV3/Mixed_6e/Branch_2/Conv2d_0a_1x1/BatchNorm/beta","shape":[192],"dtype":"float32"},{"name":"InceptionV3/Mixed_6e/Branch_2/Conv2d_0a_1x1/BatchNorm/moving_mean","shape":[192],"dtype":"float32"},{"name":"InceptionV3/Mixed_6e/Branch_2/Conv2d_0a_1x1/BatchNorm/moving_variance","shape":[192],"dtype":"float32"},{"name":"InceptionV3/Mixed_6e/Branch_2/Conv2d_0b_7x1/weights","shape":[7,1,192,192],"dtype":"float32"},{"name":"InceptionV3/Mixed_6e/Branch_2/Conv2d_0b_7x1/BatchNorm/beta","shape":[192],"dtype":"float32"},{"name":"InceptionV3/Mixed_6e/Branch_2/Conv2d_0b_7x1/BatchNorm/moving_mean","shape":[192],"dtype":"float32"},{"name":"InceptionV3/Mixed_6e/Branch_2/Conv2d_0b_7x1/BatchNorm/moving_variance","shape":[192],"dtype":"float32"},{"name":"InceptionV3/Mixed_6e/Branch_2/Conv2d_0c_1x7/weights","shape":[1,7,192,192],"dtype":"float32"},{"name":"InceptionV3/Mixed_6e/Branch_2/Conv2d_0c_1x7/BatchNorm/beta","shape":[192],"dtype":"float32"},{"name":"InceptionV3/Mixed_6e/Branch_2/Conv2d_0c_1x7/BatchNorm/moving_mean","shape":[192],"dtype":"float32"},{"name":"InceptionV3/Mixed_6e/Branch_2/Conv2d_0c_1x7/BatchNorm/moving_variance","shape":[192],"dtype":"float32"},{"name":"InceptionV3/Mixed_6e/Branch_2/Conv2d_0d_7x1/weights","shape":[7,1,192,192],"dtype":"float32"},{"name":"InceptionV3/Mixed_6e/Branch_2/Conv2d_0d_7x1/BatchNorm/beta","shape":[192],"dtype":"float32"},{"name":"InceptionV3/Mixed_6e/Branch_2/Conv2d_0d_7x1/BatchNorm/moving_mean","shape":[192],"dtype":"float32"},{"name":"InceptionV3/Mixed_6e/Branch_2/Conv2d_0d_7x1/BatchNorm/moving_variance","shape":[192],"dtype":"float32"},{"name":"InceptionV3/Mixed_6e/Branch_2/Conv2d_0e_1x7/weights","shape":[1,7,192,192],"dtype":"float32"},{"name":"InceptionV3/Mixed_6e/Branch_2/Conv2d_0e_1x7/BatchNorm/beta","shape":[192],"dtype":"float32"},{"name":"InceptionV3/Mixed_6e/Branch_2/Conv2d_0e_1x7/BatchNorm/moving_mean","shape":[192],"dtype":"float32"},{"name":"InceptionV3/Mixed_6e/Branch_2/Conv2d_0e_1x7/BatchNorm/moving_variance","shape":[192],"dtype":"float32"},{"name":"InceptionV3/Mixed_6d/Branch_0/Conv2d_0a_1x1/weights","shape":[1,1,768,192],"dtype":"float32"},{"name":"InceptionV3/Mixed_6d/Branch_0/Conv2d_0a_1x1/BatchNorm/beta","shape":[192],"dtype":"float32"},{"name":"InceptionV3/Mixed_6d/Branch_0/Conv2d_0a_1x1/BatchNorm/moving_mean","shape":[192],"dtype":"float32"},{"name":"InceptionV3/Mixed_6d/Branch_0/Conv2d_0a_1x1/BatchNorm/moving_variance","shape":[192],"dtype":"float32"},{"name":"InceptionV3/Mixed_6d/Branch_1/Conv2d_0a_1x1/weights","shape":[1,1,768,160],"dtype":"float32"},{"name":"InceptionV3/Mixed_6d/Branch_1/Conv2d_0a_1x1/BatchNorm/beta","shape":[160],"dtype":"float32"},{"name":"InceptionV3/Mixed_6d/Branch_1/Conv2d_0a_1x1/BatchNorm/moving_mean","shape":[160],"dtype":"float32"},{"name":"InceptionV3/Mixed_6d/Branch_1/Conv2d_0a_1x1/BatchNorm/moving_variance","shape":[160],"dtype":"float32"},{"name":"InceptionV3/Mixed_6d/Branch_1/Conv2d_0b_1x7/weights","shape":[1,7,160,160],"dtype":"float32"},{"name":"InceptionV3/Mixed_6d/Branch_1/Conv2d_0b_1x7/BatchNorm/beta","shape":[160],"dtype":"float32"},{"name":"InceptionV3/Mixed_6d/Branch_1/Conv2d_0b_1x7/BatchNorm/moving_mean","shape":[160],"dtype":"float32"},{"name":"InceptionV3/Mixed_6d/Branch_1/Conv2d_0b_1x7/BatchNorm/moving_variance","shape":[160],"dtype":"float32"},{"name":"InceptionV3/Mixed_6d/Branch_1/Conv2d_0c_7x1/weights","shape":[7,1,160,192],"dtype":"float32"},{"name":"InceptionV3/Mixed_6d/Branch_1/Conv2d_0c_7x1/BatchNorm/beta","shape":[192],"dtype":"float32"},{"name":"InceptionV3/Mixed_6d/Branch_1/Conv2d_0c_7x1/BatchNorm/moving_mean","shape":[192],"dtype":"float32"},{"name":"InceptionV3/Mixed_6d/Branch_1/Conv2d_0c_7x1/BatchNorm/moving_variance","shape":[192],"dtype":"float32"},{"name":"InceptionV3/Mixed_6d/Branch_2/Conv2d_0a_1x1/weights","shape":[1,1,768,160],"dtype":"float32"},{"name":"InceptionV3/Mixed_6d/Branch_2/Conv2d_0a_1x1/BatchNorm/beta","shape":[160],"dtype":"float32"},{"name":"InceptionV3/Mixed_6d/Branch_2/Conv2d_0a_1x1/BatchNorm/moving_mean","shape":[160],"dtype":"float32"},{"name":"InceptionV3/Mixed_6d/Branch_2/Conv2d_0a_1x1/BatchNorm/moving_variance","shape":[160],"dtype":"float32"},{"name":"InceptionV3/Mixed_6d/Branch_2/Conv2d_0b_7x1/weights","shape":[7,1,160,160],"dtype":"float32"},{"name":"InceptionV3/Mixed_6d/Branch_2/Conv2d_0b_7x1/BatchNorm/beta","shape":[160],"dtype":"float32"},{"name":"InceptionV3/Mixed_6d/Branch_2/Conv2d_0b_7x1/BatchNorm/moving_mean","shape":[160],"dtype":"float32"},{"name":"InceptionV3/Mixed_6d/Branch_2/Conv2d_0b_7x1/BatchNorm/moving_variance","shape":[160],"dtype":"float32"},{"name":"InceptionV3/Mixed_6d/Branch_2/Conv2d_0c_1x7/weights","shape":[1,7,160,160],"dtype":"float32"},{"name":"InceptionV3/Mixed_6d/Branch_2/Conv2d_0c_1x7/BatchNorm/beta","shape":[160],"dtype":"float32"},{"name":"InceptionV3/Mixed_6d/Branch_2/Conv2d_0c_1x7/BatchNorm/moving_mean","shape":[160],"dtype":"float32"},{"name":"InceptionV3/Mixed_6d/Branch_2/Conv2d_0c_1x7/BatchNorm/moving_variance","shape":[160],"dtype":"float32"},{"name":"InceptionV3/Mixed_6d/Branch_2/Conv2d_0d_7x1/weights","shape":[7,1,160,160],"dtype":"float32"},{"name":"InceptionV3/Mixed_6d/Branch_2/Conv2d_0d_7x1/BatchNorm/beta","shape":[160],"dtype":"float32"},{"name":"InceptionV3/Mixed_6d/Branch_2/Conv2d_0d_7x1/BatchNorm/moving_mean","shape":[160],"dtype":"float32"},{"name":"InceptionV3/Mixed_6d/Branch_2/Conv2d_0d_7x1/BatchNorm/moving_variance","shape":[160],"dtype":"float32"},{"name":"InceptionV3/Mixed_6d/Branch_2/Conv2d_0e_1x7/weights","shape":[1,7,160,192],"dtype":"float32"},{"name":"InceptionV3/Mixed_6d/Branch_2/Conv2d_0e_1x7/BatchNorm/beta","shape":[192],"dtype":"float32"},{"name":"InceptionV3/Mixed_6d/Branch_2/Conv2d_0e_1x7/BatchNorm/moving_mean","shape":[192],"dtype":"float32"},{"name":"InceptionV3/Mixed_6d/Branch_2/Conv2d_0e_1x7/BatchNorm/moving_variance","shape":[192],"dtype":"float32"},{"name":"InceptionV3/Mixed_6c/Branch_0/Conv2d_0a_1x1/weights","shape":[1,1,768,192],"dtype":"float32"},{"name":"InceptionV3/Mixed_6c/Branch_0/Conv2d_0a_1x1/BatchNorm/beta","shape":[192],"dtype":"float32"},{"name":"InceptionV3/Mixed_6c/Branch_0/Conv2d_0a_1x1/BatchNorm/moving_mean","shape":[192],"dtype":"float32"},{"name":"InceptionV3/Mixed_6c/Branch_0/Conv2d_0a_1x1/BatchNorm/moving_variance","shape":[192],"dtype":"float32"},{"name":"InceptionV3/Mixed_6c/Branch_1/Conv2d_0a_1x1/weights","shape":[1,1,768,160],"dtype":"float32"},{"name":"InceptionV3/Mixed_6c/Branch_1/Conv2d_0a_1x1/BatchNorm/beta","shape":[160],"dtype":"float32"},{"name":"InceptionV3/Mixed_6c/Branch_1/Conv2d_0a_1x1/BatchNorm/moving_mean","shape":[160],"dtype":"float32"},{"name":"InceptionV3/Mixed_6c/Branch_1/Conv2d_0a_1x1/BatchNorm/moving_variance","shape":[160],"dtype":"float32"},{"name":"InceptionV3/Mixed_6c/Branch_1/Conv2d_0b_1x7/weights","shape":[1,7,160,160],"dtype":"float32"},{"name":"InceptionV3/Mixed_6c/Branch_1/Conv2d_0b_1x7/BatchNorm/beta","shape":[160],"dtype":"float32"},{"name":"InceptionV3/Mixed_6c/Branch_1/Conv2d_0b_1x7/BatchNorm/moving_mean","shape":[160],"dtype":"float32"},{"name":"InceptionV3/Mixed_6c/Branch_1/Conv2d_0b_1x7/BatchNorm/moving_variance","shape":[160],"dtype":"float32"},{"name":"InceptionV3/Mixed_6c/Branch_1/Conv2d_0c_7x1/weights","shape":[7,1,160,192],"dtype":"float32"},{"name":"InceptionV3/Mixed_6c/Branch_1/Conv2d_0c_7x1/BatchNorm/beta","shape":[192],"dtype":"float32"},{"name":"InceptionV3/Mixed_6c/Branch_1/Conv2d_0c_7x1/BatchNorm/moving_mean","shape":[192],"dtype":"float32"},{"name":"InceptionV3/Mixed_6c/Branch_1/Conv2d_0c_7x1/BatchNorm/moving_variance","shape":[192],"dtype":"float32"},{"name":"InceptionV3/Mixed_6c/Branch_2/Conv2d_0a_1x1/weights","shape":[1,1,768,160],"dtype":"float32"},{"name":"InceptionV3/Mixed_6c/Branch_2/Conv2d_0a_1x1/BatchNorm/beta","shape":[160],"dtype":"float32"},{"name":"InceptionV3/Mixed_6c/Branch_2/Conv2d_0a_1x1/BatchNorm/moving_mean","shape":[160],"dtype":"float32"},{"name":"InceptionV3/Mixed_6c/Branch_2/Conv2d_0a_1x1/BatchNorm/moving_variance","shape":[160],"dtype":"float32"},{"name":"InceptionV3/Mixed_6c/Branch_2/Conv2d_0b_7x1/weights","shape":[7,1,160,160],"dtype":"float32"},{"name":"InceptionV3/Mixed_6c/Branch_2/Conv2d_0b_7x1/BatchNorm/beta","shape":[160],"dtype":"float32"},{"name":"InceptionV3/Mixed_6c/Branch_2/Conv2d_0b_7x1/BatchNorm/moving_mean","shape":[160],"dtype":"float32"},{"name":"InceptionV3/Mixed_6c/Branch_2/Conv2d_0b_7x1/BatchNorm/moving_variance","shape":[160],"dtype":"float32"},{"name":"InceptionV3/Mixed_6c/Branch_2/Conv2d_0c_1x7/weights","shape":[1,7,160,160],"dtype":"float32"},{"name":"InceptionV3/Mixed_6c/Branch_2/Conv2d_0c_1x7/BatchNorm/beta","shape":[160],"dtype":"float32"},{"name":"InceptionV3/Mixed_6c/Branch_2/Conv2d_0c_1x7/BatchNorm/moving_mean","shape":[160],"dtype":"float32"},{"name":"InceptionV3/Mixed_6c/Branch_2/Conv2d_0c_1x7/BatchNorm/moving_variance","shape":[160],"dtype":"float32"},{"name":"InceptionV3/Mixed_6c/Branch_2/Conv2d_0d_7x1/weights","shape":[7,1,160,160],"dtype":"float32"},{"name":"InceptionV3/Mixed_6d/Branch_1/Conv2d_0a_1x1/BatchNorm/Const","shape":[160],"dtype":"float32"},{"name":"InceptionV3/Mixed_6c/Branch_2/Conv2d_0d_7x1/BatchNorm/beta","shape":[160],"dtype":"float32"},{"name":"InceptionV3/Mixed_6c/Branch_2/Conv2d_0d_7x1/BatchNorm/moving_mean","shape":[160],"dtype":"float32"},{"name":"InceptionV3/Mixed_6c/Branch_2/Conv2d_0d_7x1/BatchNorm/moving_variance","shape":[160],"dtype":"float32"},{"name":"InceptionV3/Mixed_6c/Branch_2/Conv2d_0e_1x7/weights","shape":[1,7,160,192],"dtype":"float32"},{"name":"InceptionV3/Mixed_6c/Branch_2/Conv2d_0e_1x7/BatchNorm/beta","shape":[192],"dtype":"float32"},{"name":"InceptionV3/Mixed_6c/Branch_2/Conv2d_0e_1x7/BatchNorm/moving_mean","shape":[192],"dtype":"float32"},{"name":"InceptionV3/Mixed_6c/Branch_2/Conv2d_0e_1x7/BatchNorm/moving_variance","shape":[192],"dtype":"float32"},{"name":"InceptionV3/Mixed_6b/Branch_0/Conv2d_0a_1x1/weights","shape":[1,1,768,192],"dtype":"float32"},{"name":"InceptionV3/Mixed_6b/Branch_0/Conv2d_0a_1x1/BatchNorm/beta","shape":[192],"dtype":"float32"},{"name":"InceptionV3/Mixed_6b/Branch_0/Conv2d_0a_1x1/BatchNorm/moving_mean","shape":[192],"dtype":"float32"},{"name":"InceptionV3/Mixed_6b/Branch_0/Conv2d_0a_1x1/BatchNorm/moving_variance","shape":[192],"dtype":"float32"},{"name":"InceptionV3/Mixed_6b/Branch_1/Conv2d_0a_1x1/weights","shape":[1,1,768,128],"dtype":"float32"},{"name":"InceptionV3/Mixed_6b/Branch_1/Conv2d_0a_1x1/BatchNorm/beta","shape":[128],"dtype":"float32"},{"name":"InceptionV3/Mixed_6b/Branch_1/Conv2d_0a_1x1/BatchNorm/moving_mean","shape":[128],"dtype":"float32"},{"name":"InceptionV3/Mixed_6b/Branch_1/Conv2d_0a_1x1/BatchNorm/moving_variance","shape":[128],"dtype":"float32"},{"name":"InceptionV3/Mixed_6b/Branch_1/Conv2d_0b_1x7/weights","shape":[1,7,128,128],"dtype":"float32"},{"name":"InceptionV3/Mixed_6b/Branch_1/Conv2d_0b_1x7/BatchNorm/beta","shape":[128],"dtype":"float32"},{"name":"InceptionV3/Mixed_6b/Branch_1/Conv2d_0b_1x7/BatchNorm/moving_mean","shape":[128],"dtype":"float32"},{"name":"InceptionV3/Mixed_6b/Branch_1/Conv2d_0b_1x7/BatchNorm/moving_variance","shape":[128],"dtype":"float32"},{"name":"InceptionV3/Mixed_6b/Branch_1/Conv2d_0c_7x1/weights","shape":[7,1,128,192],"dtype":"float32"},{"name":"InceptionV3/Mixed_6b/Branch_1/Conv2d_0c_7x1/BatchNorm/beta","shape":[192],"dtype":"float32"},{"name":"InceptionV3/Mixed_6b/Branch_1/Conv2d_0c_7x1/BatchNorm/moving_mean","shape":[192],"dtype":"float32"},{"name":"InceptionV3/Mixed_6b/Branch_1/Conv2d_0c_7x1/BatchNorm/moving_variance","shape":[192],"dtype":"float32"},{"name":"InceptionV3/Mixed_6b/Branch_2/Conv2d_0a_1x1/weights","shape":[1,1,768,128],"dtype":"float32"},{"name":"InceptionV3/Mixed_6b/Branch_2/Conv2d_0a_1x1/BatchNorm/beta","shape":[128],"dtype":"float32"},{"name":"InceptionV3/Mixed_6b/Branch_2/Conv2d_0a_1x1/BatchNorm/moving_mean","shape":[128],"dtype":"float32"},{"name":"InceptionV3/Mixed_6b/Branch_2/Conv2d_0a_1x1/BatchNorm/moving_variance","shape":[128],"dtype":"float32"},{"name":"InceptionV3/Mixed_6b/Branch_2/Conv2d_0b_7x1/weights","shape":[7,1,128,128],"dtype":"float32"},{"name":"InceptionV3/Mixed_6b/Branch_2/Conv2d_0b_7x1/BatchNorm/beta","shape":[128],"dtype":"float32"},{"name":"InceptionV3/Mixed_6b/Branch_2/Conv2d_0b_7x1/BatchNorm/moving_mean","shape":[128],"dtype":"float32"},{"name":"InceptionV3/Mixed_6b/Branch_2/Conv2d_0b_7x1/BatchNorm/moving_variance","shape":[128],"dtype":"float32"},{"name":"InceptionV3/Mixed_6b/Branch_2/Conv2d_0c_1x7/weights","shape":[1,7,128,128],"dtype":"float32"},{"name":"InceptionV3/Mixed_6b/Branch_2/Conv2d_0c_1x7/BatchNorm/beta","shape":[128],"dtype":"float32"},{"name":"InceptionV3/Mixed_6b/Branch_2/Conv2d_0c_1x7/BatchNorm/moving_mean","shape":[128],"dtype":"float32"},{"name":"InceptionV3/Mixed_6b/Branch_2/Conv2d_0c_1x7/BatchNorm/moving_variance","shape":[128],"dtype":"float32"},{"name":"InceptionV3/Mixed_6b/Branch_2/Conv2d_0d_7x1/weights","shape":[7,1,128,128],"dtype":"float32"},{"name":"InceptionV3/Mixed_6b/Branch_1/Conv2d_0a_1x1/BatchNorm/Const","shape":[128],"dtype":"float32"},{"name":"InceptionV3/Mixed_6b/Branch_2/Conv2d_0d_7x1/BatchNorm/beta","shape":[128],"dtype":"float32"},{"name":"InceptionV3/Mixed_6b/Branch_2/Conv2d_0d_7x1/BatchNorm/moving_mean","shape":[128],"dtype":"float32"},{"name":"InceptionV3/Mixed_6b/Branch_2/Conv2d_0d_7x1/BatchNorm/moving_variance","shape":[128],"dtype":"float32"},{"name":"InceptionV3/Mixed_6b/Branch_2/Conv2d_0e_1x7/weights","shape":[1,7,128,192],"dtype":"float32"},{"name":"InceptionV3/Mixed_6b/Branch_2/Conv2d_0e_1x7/BatchNorm/beta","shape":[192],"dtype":"float32"},{"name":"InceptionV3/Mixed_6b/Branch_2/Conv2d_0e_1x7/BatchNorm/moving_mean","shape":[192],"dtype":"float32"},{"name":"InceptionV3/Mixed_6b/Branch_2/Conv2d_0e_1x7/BatchNorm/moving_variance","shape":[192],"dtype":"float32"},{"name":"InceptionV3/Mixed_6a/Branch_0/Conv2d_1a_1x1/weights","shape":[3,3,288,384],"dtype":"float32"},{"name":"InceptionV3/Mixed_6a/Branch_0/Conv2d_1a_1x1/BatchNorm/Const","shape":[384],"dtype":"float32"},{"name":"InceptionV3/Mixed_6a/Branch_0/Conv2d_1a_1x1/BatchNorm/beta","shape":[384],"dtype":"float32"},{"name":"InceptionV3/Mixed_6a/Branch_0/Conv2d_1a_1x1/BatchNorm/moving_mean","shape":[384],"dtype":"float32"},{"name":"InceptionV3/Mixed_6a/Branch_0/Conv2d_1a_1x1/BatchNorm/moving_variance","shape":[384],"dtype":"float32"},{"name":"InceptionV3/Mixed_6a/Branch_1/Conv2d_0a_1x1/weights","shape":[1,1,288,64],"dtype":"float32"},{"name":"InceptionV3/Mixed_6a/Branch_1/Conv2d_0a_1x1/BatchNorm/beta","shape":[64],"dtype":"float32"},{"name":"InceptionV3/Mixed_6a/Branch_1/Conv2d_0a_1x1/BatchNorm/moving_mean","shape":[64],"dtype":"float32"},{"name":"InceptionV3/Mixed_6a/Branch_1/Conv2d_0a_1x1/BatchNorm/moving_variance","shape":[64],"dtype":"float32"},{"name":"InceptionV3/Mixed_6a/Branch_1/Conv2d_0b_3x3/weights","shape":[3,3,64,96],"dtype":"float32"},{"name":"InceptionV3/Mixed_6a/Branch_1/Conv2d_0b_3x3/BatchNorm/beta","shape":[96],"dtype":"float32"},{"name":"InceptionV3/Mixed_6a/Branch_1/Conv2d_0b_3x3/BatchNorm/moving_mean","shape":[96],"dtype":"float32"},{"name":"InceptionV3/Mixed_6a/Branch_1/Conv2d_0b_3x3/BatchNorm/moving_variance","shape":[96],"dtype":"float32"},{"name":"InceptionV3/Mixed_6a/Branch_1/Conv2d_1a_1x1/weights","shape":[3,3,96,96],"dtype":"float32"},{"name":"InceptionV3/Mixed_6a/Branch_1/Conv2d_1a_1x1/BatchNorm/beta","shape":[96],"dtype":"float32"},{"name":"InceptionV3/Mixed_6a/Branch_1/Conv2d_1a_1x1/BatchNorm/moving_mean","shape":[96],"dtype":"float32"},{"name":"InceptionV3/Mixed_6a/Branch_1/Conv2d_1a_1x1/BatchNorm/moving_variance","shape":[96],"dtype":"float32"},{"name":"InceptionV3/Mixed_5d/Branch_0/Conv2d_0a_1x1/weights","shape":[1,1,288,64],"dtype":"float32"},{"name":"InceptionV3/Mixed_5d/Branch_0/Conv2d_0a_1x1/BatchNorm/beta","shape":[64],"dtype":"float32"},{"name":"InceptionV3/Mixed_5d/Branch_0/Conv2d_0a_1x1/BatchNorm/moving_mean","shape":[64],"dtype":"float32"},{"name":"InceptionV3/Mixed_5d/Branch_0/Conv2d_0a_1x1/BatchNorm/moving_variance","shape":[64],"dtype":"float32"},{"name":"InceptionV3/Mixed_5d/Branch_1/Conv2d_0a_1x1/weights","shape":[1,1,288,48],"dtype":"float32"},{"name":"InceptionV3/Mixed_5d/Branch_1/Conv2d_0a_1x1/BatchNorm/beta","shape":[48],"dtype":"float32"},{"name":"InceptionV3/Mixed_5d/Branch_1/Conv2d_0a_1x1/BatchNorm/moving_mean","shape":[48],"dtype":"float32"},{"name":"InceptionV3/Mixed_5d/Branch_1/Conv2d_0a_1x1/BatchNorm/moving_variance","shape":[48],"dtype":"float32"},{"name":"InceptionV3/Mixed_5d/Branch_1/Conv2d_0b_5x5/weights","shape":[5,5,48,64],"dtype":"float32"},{"name":"InceptionV3/Mixed_5d/Branch_1/Conv2d_0b_5x5/BatchNorm/beta","shape":[64],"dtype":"float32"},{"name":"InceptionV3/Mixed_5d/Branch_1/Conv2d_0b_5x5/BatchNorm/moving_mean","shape":[64],"dtype":"float32"},{"name":"InceptionV3/Mixed_5d/Branch_1/Conv2d_0b_5x5/BatchNorm/moving_variance","shape":[64],"dtype":"float32"},{"name":"InceptionV3/Mixed_5d/Branch_2/Conv2d_0a_1x1/weights","shape":[1,1,288,64],"dtype":"float32"},{"name":"InceptionV3/Mixed_5d/Branch_2/Conv2d_0a_1x1/BatchNorm/beta","shape":[64],"dtype":"float32"},{"name":"InceptionV3/Mixed_5d/Branch_2/Conv2d_0a_1x1/BatchNorm/moving_mean","shape":[64],"dtype":"float32"},{"name":"InceptionV3/Mixed_5d/Branch_2/Conv2d_0a_1x1/BatchNorm/moving_variance","shape":[64],"dtype":"float32"},{"name":"InceptionV3/Mixed_5d/Branch_2/Conv2d_0b_3x3/weights","shape":[3,3,64,96],"dtype":"float32"},{"name":"InceptionV3/Mixed_5d/Branch_2/Conv2d_0b_3x3/BatchNorm/beta","shape":[96],"dtype":"float32"},{"name":"InceptionV3/Mixed_5d/Branch_2/Conv2d_0b_3x3/BatchNorm/moving_mean","shape":[96],"dtype":"float32"},{"name":"InceptionV3/Mixed_5d/Branch_2/Conv2d_0b_3x3/BatchNorm/moving_variance","shape":[96],"dtype":"float32"},{"name":"InceptionV3/Mixed_5d/Branch_2/Conv2d_0c_3x3/weights","shape":[3,3,96,96],"dtype":"float32"},{"name":"InceptionV3/Mixed_5d/Branch_2/Conv2d_0c_3x3/BatchNorm/beta","shape":[96],"dtype":"float32"},{"name":"InceptionV3/Mixed_5d/Branch_2/Conv2d_0c_3x3/BatchNorm/moving_mean","shape":[96],"dtype":"float32"},{"name":"InceptionV3/Mixed_5d/Branch_2/Conv2d_0c_3x3/BatchNorm/moving_variance","shape":[96],"dtype":"float32"},{"name":"InceptionV3/Mixed_5c/Branch_0/Conv2d_0a_1x1/weights","shape":[1,1,256,64],"dtype":"float32"},{"name":"InceptionV3/Mixed_5c/Branch_0/Conv2d_0a_1x1/BatchNorm/beta","shape":[64],"dtype":"float32"},{"name":"InceptionV3/Mixed_5c/Branch_0/Conv2d_0a_1x1/BatchNorm/moving_mean","shape":[64],"dtype":"float32"},{"name":"InceptionV3/Mixed_5c/Branch_0/Conv2d_0a_1x1/BatchNorm/moving_variance","shape":[64],"dtype":"float32"},{"name":"InceptionV3/Mixed_5c/Branch_1/Conv2d_0b_1x1/weights","shape":[1,1,256,48],"dtype":"float32"},{"name":"InceptionV3/Mixed_5c/Branch_1/Conv2d_0b_1x1/BatchNorm/beta","shape":[48],"dtype":"float32"},{"name":"InceptionV3/Mixed_5c/Branch_1/Conv2d_0b_1x1/BatchNorm/moving_mean","shape":[48],"dtype":"float32"},{"name":"InceptionV3/Mixed_5c/Branch_1/Conv2d_0b_1x1/BatchNorm/moving_variance","shape":[48],"dtype":"float32"},{"name":"InceptionV3/Mixed_5c/Branch_1/Conv_1_0c_5x5/weights","shape":[5,5,48,64],"dtype":"float32"},{"name":"InceptionV3/Mixed_5c/Branch_1/Conv_1_0c_5x5/BatchNorm/beta","shape":[64],"dtype":"float32"},{"name":"InceptionV3/Mixed_5c/Branch_1/Conv_1_0c_5x5/BatchNorm/moving_mean","shape":[64],"dtype":"float32"},{"name":"InceptionV3/Mixed_5c/Branch_1/Conv_1_0c_5x5/BatchNorm/moving_variance","shape":[64],"dtype":"float32"},{"name":"InceptionV3/Mixed_5c/Branch_2/Conv2d_0a_1x1/weights","shape":[1,1,256,64],"dtype":"float32"},{"name":"InceptionV3/Mixed_5c/Branch_2/Conv2d_0a_1x1/BatchNorm/beta","shape":[64],"dtype":"float32"},{"name":"InceptionV3/Mixed_5c/Branch_2/Conv2d_0a_1x1/BatchNorm/moving_mean","shape":[64],"dtype":"float32"},{"name":"InceptionV3/Mixed_5c/Branch_2/Conv2d_0a_1x1/BatchNorm/moving_variance","shape":[64],"dtype":"float32"},{"name":"InceptionV3/Mixed_5c/Branch_2/Conv2d_0b_3x3/weights","shape":[3,3,64,96],"dtype":"float32"},{"name":"InceptionV3/Mixed_5c/Branch_2/Conv2d_0b_3x3/BatchNorm/beta","shape":[96],"dtype":"float32"},{"name":"InceptionV3/Mixed_5c/Branch_2/Conv2d_0b_3x3/BatchNorm/moving_mean","shape":[96],"dtype":"float32"},{"name":"InceptionV3/Mixed_5c/Branch_2/Conv2d_0b_3x3/BatchNorm/moving_variance","shape":[96],"dtype":"float32"},{"name":"InceptionV3/Mixed_5c/Branch_2/Conv2d_0c_3x3/weights","shape":[3,3,96,96],"dtype":"float32"},{"name":"InceptionV3/Mixed_5c/Branch_2/Conv2d_0c_3x3/BatchNorm/beta","shape":[96],"dtype":"float32"},{"name":"InceptionV3/Mixed_5c/Branch_2/Conv2d_0c_3x3/BatchNorm/moving_mean","shape":[96],"dtype":"float32"},{"name":"InceptionV3/Mixed_5c/Branch_2/Conv2d_0c_3x3/BatchNorm/moving_variance","shape":[96],"dtype":"float32"},{"name":"InceptionV3/Mixed_5b/Branch_0/Conv2d_0a_1x1/weights","shape":[1,1,192,64],"dtype":"float32"},{"name":"InceptionV3/Mixed_5b/Branch_0/Conv2d_0a_1x1/BatchNorm/beta","shape":[64],"dtype":"float32"},{"name":"InceptionV3/Mixed_5b/Branch_0/Conv2d_0a_1x1/BatchNorm/moving_mean","shape":[64],"dtype":"float32"},{"name":"InceptionV3/Mixed_5b/Branch_0/Conv2d_0a_1x1/BatchNorm/moving_variance","shape":[64],"dtype":"float32"},{"name":"InceptionV3/Mixed_5b/Branch_1/Conv2d_0a_1x1/weights","shape":[1,1,192,48],"dtype":"float32"},{"name":"InceptionV3/Mixed_5d/Branch_1/Conv2d_0a_1x1/BatchNorm/Const","shape":[48],"dtype":"float32"},{"name":"InceptionV3/Mixed_5b/Branch_1/Conv2d_0a_1x1/BatchNorm/beta","shape":[48],"dtype":"float32"},{"name":"InceptionV3/Mixed_5b/Branch_1/Conv2d_0a_1x1/BatchNorm/moving_mean","shape":[48],"dtype":"float32"},{"name":"InceptionV3/Mixed_5b/Branch_1/Conv2d_0a_1x1/BatchNorm/moving_variance","shape":[48],"dtype":"float32"},{"name":"InceptionV3/Mixed_5b/Branch_1/Conv2d_0b_5x5/weights","shape":[5,5,48,64],"dtype":"float32"},{"name":"InceptionV3/Mixed_5b/Branch_1/Conv2d_0b_5x5/BatchNorm/beta","shape":[64],"dtype":"float32"},{"name":"InceptionV3/Mixed_5b/Branch_1/Conv2d_0b_5x5/BatchNorm/moving_mean","shape":[64],"dtype":"float32"},{"name":"InceptionV3/Mixed_5b/Branch_1/Conv2d_0b_5x5/BatchNorm/moving_variance","shape":[64],"dtype":"float32"},{"name":"InceptionV3/Mixed_5b/Branch_2/Conv2d_0a_1x1/weights","shape":[1,1,192,64],"dtype":"float32"},{"name":"InceptionV3/Mixed_5b/Branch_2/Conv2d_0a_1x1/BatchNorm/beta","shape":[64],"dtype":"float32"},{"name":"InceptionV3/Mixed_5b/Branch_2/Conv2d_0a_1x1/BatchNorm/moving_mean","shape":[64],"dtype":"float32"},{"name":"InceptionV3/Mixed_5b/Branch_2/Conv2d_0a_1x1/BatchNorm/moving_variance","shape":[64],"dtype":"float32"},{"name":"InceptionV3/Mixed_5b/Branch_2/Conv2d_0b_3x3/weights","shape":[3,3,64,96],"dtype":"float32"},{"name":"InceptionV3/Mixed_5b/Branch_2/Conv2d_0b_3x3/BatchNorm/beta","shape":[96],"dtype":"float32"},{"name":"InceptionV3/Mixed_5b/Branch_2/Conv2d_0b_3x3/BatchNorm/moving_mean","shape":[96],"dtype":"float32"},{"name":"InceptionV3/Mixed_5b/Branch_2/Conv2d_0b_3x3/BatchNorm/moving_variance","shape":[96],"dtype":"float32"},{"name":"InceptionV3/Mixed_5b/Branch_2/Conv2d_0c_3x3/weights","shape":[3,3,96,96],"dtype":"float32"},{"name":"InceptionV3/Mixed_6a/Branch_1/Conv2d_0b_3x3/BatchNorm/Const","shape":[96],"dtype":"float32"},{"name":"InceptionV3/Mixed_5b/Branch_2/Conv2d_0c_3x3/BatchNorm/beta","shape":[96],"dtype":"float32"},{"name":"InceptionV3/Mixed_5b/Branch_2/Conv2d_0c_3x3/BatchNorm/moving_mean","shape":[96],"dtype":"float32"},{"name":"InceptionV3/Mixed_5b/Branch_2/Conv2d_0c_3x3/BatchNorm/moving_variance","shape":[96],"dtype":"float32"},{"name":"InceptionV3/Conv2d_1a_3x3/weights","shape":[3,3,3,32],"dtype":"float32"},{"name":"InceptionV3/Conv2d_1a_3x3/BatchNorm/beta","shape":[32],"dtype":"float32"},{"name":"InceptionV3/Conv2d_1a_3x3/BatchNorm/moving_mean","shape":[32],"dtype":"float32"},{"name":"InceptionV3/Conv2d_1a_3x3/BatchNorm/moving_variance","shape":[32],"dtype":"float32"},{"name":"InceptionV3/Conv2d_2a_3x3/weights","shape":[3,3,32,32],"dtype":"float32"},{"name":"InceptionV3/Conv2d_2a_3x3/BatchNorm/beta","shape":[32],"dtype":"float32"},{"name":"InceptionV3/Conv2d_2a_3x3/BatchNorm/moving_mean","shape":[32],"dtype":"float32"},{"name":"InceptionV3/Conv2d_2a_3x3/BatchNorm/moving_variance","shape":[32],"dtype":"float32"},{"name":"InceptionV3/Conv2d_2b_3x3/weights","shape":[3,3,32,64],"dtype":"float32"},{"name":"InceptionV3/Conv2d_2b_3x3/BatchNorm/beta","shape":[64],"dtype":"float32"},{"name":"InceptionV3/Conv2d_2b_3x3/BatchNorm/moving_mean","shape":[64],"dtype":"float32"},{"name":"InceptionV3/Conv2d_2b_3x3/BatchNorm/moving_variance","shape":[64],"dtype":"float32"},{"name":"InceptionV3/Conv2d_3b_1x1/weights","shape":[1,1,64,80],"dtype":"float32"},{"name":"InceptionV3/Conv2d_3b_1x1/BatchNorm/Const","shape":[80],"dtype":"float32"},{"name":"InceptionV3/Conv2d_3b_1x1/BatchNorm/beta","shape":[80],"dtype":"float32"},{"name":"InceptionV3/Conv2d_3b_1x1/BatchNorm/moving_mean","shape":[80],"dtype":"float32"},{"name":"InceptionV3/Conv2d_3b_1x1/BatchNorm/moving_variance","shape":[80],"dtype":"float32"},{"name":"InceptionV3/Conv2d_4a_3x3/weights","shape":[3,3,80,192],"dtype":"float32"},{"name":"InceptionV3/Conv2d_4a_3x3/BatchNorm/beta","shape":[192],"dtype":"float32"},{"name":"InceptionV3/Conv2d_4a_3x3/BatchNorm/moving_mean","shape":[192],"dtype":"float32"},{"name":"InceptionV3/Conv2d_4a_3x3/BatchNorm/moving_variance","shape":[192],"dtype":"float32"},{"name":"InceptionV3/Mixed_5b/Branch_3/Conv2d_0b_1x1/weights","shape":[1,1,192,32],"dtype":"float32"},{"name":"InceptionV3/Conv2d_1a_3x3/BatchNorm/Const","shape":[32],"dtype":"float32"},{"name":"InceptionV3/Mixed_5b/Branch_3/Conv2d_0b_1x1/BatchNorm/beta","shape":[32],"dtype":"float32"},{"name":"InceptionV3/Mixed_5b/Branch_3/Conv2d_0b_1x1/BatchNorm/moving_mean","shape":[32],"dtype":"float32"},{"name":"InceptionV3/Mixed_5b/Branch_3/Conv2d_0b_1x1/BatchNorm/moving_variance","shape":[32],"dtype":"float32"},{"name":"InceptionV3/Mixed_5c/Branch_3/Conv2d_0b_1x1/weights","shape":[1,1,256,64],"dtype":"float32"},{"name":"InceptionV3/Mixed_5c/Branch_3/Conv2d_0b_1x1/BatchNorm/beta","shape":[64],"dtype":"float32"},{"name":"InceptionV3/Mixed_5c/Branch_3/Conv2d_0b_1x1/BatchNorm/moving_mean","shape":[64],"dtype":"float32"},{"name":"InceptionV3/Mixed_5c/Branch_3/Conv2d_0b_1x1/BatchNorm/moving_variance","shape":[64],"dtype":"float32"},{"name":"InceptionV3/Mixed_5d/Branch_3/Conv2d_0b_1x1/weights","shape":[1,1,288,64],"dtype":"float32"},{"name":"InceptionV3/Mixed_6a/Branch_1/Conv2d_0a_1x1/BatchNorm/Const","shape":[64],"dtype":"float32"},{"name":"InceptionV3/Mixed_5d/Branch_3/Conv2d_0b_1x1/BatchNorm/beta","shape":[64],"dtype":"float32"},{"name":"InceptionV3/Mixed_5d/Branch_3/Conv2d_0b_1x1/BatchNorm/moving_mean","shape":[64],"dtype":"float32"},{"name":"InceptionV3/Mixed_5d/Branch_3/Conv2d_0b_1x1/BatchNorm/moving_variance","shape":[64],"dtype":"float32"},{"name":"InceptionV3/Mixed_6b/Branch_3/Conv2d_0b_1x1/weights","shape":[1,1,768,192],"dtype":"float32"},{"name":"InceptionV3/Mixed_6b/Branch_3/Conv2d_0b_1x1/BatchNorm/beta","shape":[192],"dtype":"float32"},{"name":"InceptionV3/Mixed_6b/Branch_3/Conv2d_0b_1x1/BatchNorm/moving_mean","shape":[192],"dtype":"float32"},{"name":"InceptionV3/Mixed_6b/Branch_3/Conv2d_0b_1x1/BatchNorm/moving_variance","shape":[192],"dtype":"float32"},{"name":"InceptionV3/Mixed_6c/Branch_3/Conv2d_0b_1x1/weights","shape":[1,1,768,192],"dtype":"float32"},{"name":"InceptionV3/Mixed_6c/Branch_3/Conv2d_0b_1x1/BatchNorm/beta","shape":[192],"dtype":"float32"},{"name":"InceptionV3/Mixed_6c/Branch_3/Conv2d_0b_1x1/BatchNorm/moving_mean","shape":[192],"dtype":"float32"},{"name":"InceptionV3/Mixed_6c/Branch_3/Conv2d_0b_1x1/BatchNorm/moving_variance","shape":[192],"dtype":"float32"},{"name":"InceptionV3/Mixed_6d/Branch_3/Conv2d_0b_1x1/weights","shape":[1,1,768,192],"dtype":"float32"},{"name":"InceptionV3/Mixed_6d/Branch_3/Conv2d_0b_1x1/BatchNorm/beta","shape":[192],"dtype":"float32"},{"name":"InceptionV3/Mixed_6d/Branch_3/Conv2d_0b_1x1/BatchNorm/moving_mean","shape":[192],"dtype":"float32"},{"name":"InceptionV3/Mixed_6d/Branch_3/Conv2d_0b_1x1/BatchNorm/moving_variance","shape":[192],"dtype":"float32"},{"name":"InceptionV3/Mixed_6e/Branch_3/Conv2d_0b_1x1/weights","shape":[1,1,768,192],"dtype":"float32"},{"name":"InceptionV3/Mixed_6e/Branch_0/Conv2d_0a_1x1/BatchNorm/Const","shape":[192],"dtype":"float32"},{"name":"InceptionV3/Mixed_6e/Branch_3/Conv2d_0b_1x1/BatchNorm/beta","shape":[192],"dtype":"float32"},{"name":"InceptionV3/Mixed_6e/Branch_3/Conv2d_0b_1x1/BatchNorm/moving_mean","shape":[192],"dtype":"float32"},{"name":"InceptionV3/Mixed_6e/Branch_3/Conv2d_0b_1x1/BatchNorm/moving_variance","shape":[192],"dtype":"float32"},{"name":"InceptionV3/Mixed_5b/concat/axis","shape":[],"dtype":"int32"},{"name":"bottleneck/Mean/reduction_indices","shape":[2],"dtype":"int32"},{"name":"Conv/weights","shape":[1,1,768,100],"dtype":"float32"},{"name":"Conv/biases","shape":[100],"dtype":"float32"}]}]}