{"modelTopology":{"node":[{"input":[],"attr":{"value":{"tensor":{"floatVal":[],"doubleVal":[],"intVal":[],"stringVal":[],"scomplexVal":[],"int64Val":[],"boolVal":[],"uint32Val":[],"uint64Val":[],"dtype":1,"tensorShape":{"dim":[{"size":"1"},{"size":"1"},{"size":"160"},{"size":"960"}]}}},"dtype":{"type":1}},"name":"MobilenetV2/expanded_conv_15/expand/weights","op":"Const"},{"input":[],"attr":{"dtype":{"type":1},"value":{"tensor":{"floatVal":[],"doubleVal":[],"intVal":[],"stringVal":[],"scomplexVal":[],"int64Val":[],"boolVal":[],"uint32Val":[],"uint64Val":[],"dtype":1,"tensorShape":{"dim":[{"size":"960"}]}}}},"name":"MobilenetV2/expanded_conv_15/expand/BatchNorm/gamma","op":"Const"},{"input":[],"attr":{"value":{"tensor":{"floatVal":[],"doubleVal":[],"intVal":[],"stringVal":[],"scomplexVal":[],"int64Val":[],"boolVal":[],"uint32Val":[],"uint64Val":[],"dtype":1,"tensorShape":{"dim":[{"size":"960"}]}}},"dtype":{"type":1}},"name":"MobilenetV2/expanded_conv_15/expand/BatchNorm/beta","op":"Const"},{"input":[],"attr":{"dtype":{"type":1},"value":{"tensor":{"floatVal":[],"doubleVal":[],"intVal":[],"stringVal":[],"scomplexVal":[],"int64Val":[],"boolVal":[],"uint32Val":[],"uint64Val":[],"dtype":1,"tensorShape":{"dim":[{"size":"960"}]}}}},"name":"MobilenetV2/expanded_conv_15/expand/BatchNorm/moving_mean","op":"Const"},{"input":[],"attr":{"value":{"tensor":{"floatVal":[],"doubleVal":[],"intVal":[],"stringVal":[],"scomplexVal":[],"int64Val":[],"boolVal":[],"uint32Val":[],"uint64Val":[],"dtype":1,"tensorShape":{"dim":[{"size":"960"}]}}},"dtype":{"type":1}},"name":"MobilenetV2/expanded_conv_15/expand/BatchNorm/moving_variance","op":"Const"},{"input":[],"attr":{"value":{"tensor":{"floatVal":[],"doubleVal":[],"intVal":[],"stringVal":[],"scomplexVal":[],"int64Val":[],"boolVal":[],"uint32Val":[],"uint64Val":[],"dtype":1,"tensorShape":{"dim":[{"size":"3"},{"size":"3"},{"size":"960"},{"size":"1"}]}}},"dtype":{"type":1}},"name":"MobilenetV2/expanded_conv_15/depthwise/depthwise_weights","op":"Const"},{"input":[],"attr":{"value":{"tensor":{"floatVal":[],"doubleVal":[],"intVal":[],"stringVal":[],"scomplexVal":[],"int64Val":[],"boolVal":[],"uint32Val":[],"uint64Val":[],"dtype":1,"tensorShape":{"dim":[{"size":"960"}]}}},"dtype":{"type":1}},"name":"MobilenetV2/expanded_conv_15/depthwise/BatchNorm/gamma","op":"Const"},{"input":[],"attr":{"value":{"tensor":{"floatVal":[],"doubleVal":[],"intVal":[],"stringVal":[],"scomplexVal":[],"int64Val":[],"boolVal":[],"uint32Val":[],"uint64Val":[],"dtype":1,"tensorShape":{"dim":[{"size":"960"}]}}},"dtype":{"type":1}},"name":"MobilenetV2/expanded_conv_15/depthwise/BatchNorm/beta","op":"Const"},{"input":[],"attr":{"value":{"tensor":{"floatVal":[],"doubleVal":[],"intVal":[],"stringVal":[],"scomplexVal":[],"int64Val":[],"boolVal":[],"uint32Val":[],"uint64Val":[],"dtype":1,"tensorShape":{"dim":[{"size":"960"}]}}},"dtype":{"type":1}},"name":"MobilenetV2/expanded_conv_15/depthwise/BatchNorm/moving_mean","op":"Const"},{"input":[],"attr":{"dtype":{"type":1},"value":{"tensor":{"floatVal":[],"doubleVal":[],"intVal":[],"stringVal":[],"scomplexVal":[],"int64Val":[],"boolVal":[],"uint32Val":[],"uint64Val":[],"dtype":1,"tensorShape":{"dim":[{"size":"960"}]}}}},"name":"MobilenetV2/expanded_conv_15/depthwise/BatchNorm/moving_variance","op":"Const"},{"input":[],"attr":{"value":{"tensor":{"floatVal":[],"doubleVal":[],"intVal":[],"stringVal":[],"scomplexVal":[],"int64Val":[],"boolVal":[],"uint32Val":[],"uint64Val":[],"dtype":1,"tensorShape":{"dim":[{"size":"1"},{"size":"1"},{"size":"960"},{"size":"160"}]}}},"dtype":{"type":1}},"name":"MobilenetV2/expanded_conv_15/project/weights","op":"Const"},{"input":[],"attr":{"value":{"tensor":{"floatVal":[],"doubleVal":[],"intVal":[],"stringVal":[],"scomplexVal":[],"int64Val":[],"boolVal":[],"uint32Val":[],"uint64Val":[],"dtype":1,"tensorShape":{"dim":[{"size":"160"}]}}},"dtype":{"type":1}},"name":"MobilenetV2/expanded_conv_15/project/BatchNorm/gamma","op":"Const"},{"input":[],"attr":{"value":{"tensor":{"floatVal":[],"doubleVal":[],"intVal":[],"stringVal":[],"scomplexVal":[],"int64Val":[],"boolVal":[],"uint32Val":[],"uint64Val":[],"dtype":1,"tensorShape":{"dim":[{"size":"160"}]}}},"dtype":{"type":1}},"name":"MobilenetV2/expanded_conv_15/project/BatchNorm/beta","op":"Const"},{"input":[],"attr":{"value":{"tensor":{"floatVal":[],"doubleVal":[],"intVal":[],"stringVal":[],"scomplexVal":[],"int64Val":[],"boolVal":[],"uint32Val":[],"uint64Val":[],"dtype":1,"tensorShape":{"dim":[{"size":"160"}]}}},"dtype":{"type":1}},"name":"MobilenetV2/expanded_conv_15/project/BatchNorm/moving_mean","op":"Const"},{"input":[],"attr":{"dtype":{"type":1},"value":{"tensor":{"floatVal":[],"doubleVal":[],"intVal":[],"stringVal":[],"scomplexVal":[],"int64Val":[],"boolVal":[],"uint32Val":[],"uint64Val":[],"dtype":1,"tensorShape":{"dim":[{"size":"160"}]}}}},"name":"MobilenetV2/expanded_conv_15/project/BatchNorm/moving_variance","op":"Const"},{"input":[],"attr":{"dtype":{"type":1},"value":{"tensor":{"floatVal":[],"doubleVal":[],"intVal":[],"stringVal":[],"scomplexVal":[],"int64Val":[],"boolVal":[],"uint32Val":[],"uint64Val":[],"dtype":1,"tensorShape":{"dim":[{"size":"1"},{"size":"1"},{"size":"160"},{"size":"960"}]}}}},"name":"MobilenetV2/expanded_conv_14/expand/weights","op":"Const"},{"input":[],"attr":{"value":{"tensor":{"floatVal":[],"doubleVal":[],"intVal":[],"stringVal":[],"scomplexVal":[],"int64Val":[],"boolVal":[],"uint32Val":[],"uint64Val":[],"dtype":1,"tensorShape":{"dim":[{"size":"960"}]}}},"dtype":{"type":1}},"name":"MobilenetV2/expanded_conv_14/expand/BatchNorm/gamma","op":"Const"},{"input":[],"attr":{"value":{"tensor":{"floatVal":[],"doubleVal":[],"intVal":[],"stringVal":[],"scomplexVal":[],"int64Val":[],"boolVal":[],"uint32Val":[],"uint64Val":[],"dtype":1,"tensorShape":{"dim":[{"size":"960"}]}}},"dtype":{"type":1}},"name":"MobilenetV2/expanded_conv_14/expand/BatchNorm/beta","op":"Const"},{"input":[],"attr":{"value":{"tensor":{"floatVal":[],"doubleVal":[],"intVal":[],"stringVal":[],"scomplexVal":[],"int64Val":[],"boolVal":[],"uint32Val":[],"uint64Val":[],"dtype":1,"tensorShape":{"dim":[{"size":"960"}]}}},"dtype":{"type":1}},"name":"MobilenetV2/expanded_conv_14/expand/BatchNorm/moving_mean","op":"Const"},{"input":[],"attr":{"value":{"tensor":{"floatVal":[],"doubleVal":[],"intVal":[],"stringVal":[],"scomplexVal":[],"int64Val":[],"boolVal":[],"uint32Val":[],"uint64Val":[],"dtype":1,"tensorShape":{"dim":[{"size":"960"}]}}},"dtype":{"type":1}},"name":"MobilenetV2/expanded_conv_14/expand/BatchNorm/moving_variance","op":"Const"},{"input":[],"attr":{"value":{"tensor":{"floatVal":[],"doubleVal":[],"intVal":[],"stringVal":[],"scomplexVal":[],"int64Val":[],"boolVal":[],"uint32Val":[],"uint64Val":[],"dtype":1,"tensorShape":{"dim":[{"size":"3"},{"size":"3"},{"size":"960"},{"size":"1"}]}}},"dtype":{"type":1}},"name":"MobilenetV2/expanded_conv_14/depthwise/depthwise_weights","op":"Const"},{"input":[],"attr":{"value":{"tensor":{"floatVal":[],"doubleVal":[],"intVal":[],"stringVal":[],"scomplexVal":[],"int64Val":[],"boolVal":[],"uint32Val":[],"uint64Val":[],"dtype":1,"tensorShape":{"dim":[{"size":"960"}]}}},"dtype":{"type":1}},"name":"MobilenetV2/expanded_conv_14/depthwise/BatchNorm/gamma","op":"Const"},{"input":[],"attr":{"dtype":{"type":1},"value":{"tensor":{"floatVal":[],"doubleVal":[],"intVal":[],"stringVal":[],"scomplexVal":[],"int64Val":[],"boolVal":[],"uint32Val":[],"uint64Val":[],"dtype":1,"tensorShape":{"dim":[{"size":"960"}]}}}},"name":"MobilenetV2/expanded_conv_14/depthwise/BatchNorm/beta","op":"Const"},{"input":[],"attr":{"value":{"tensor":{"floatVal":[],"doubleVal":[],"intVal":[],"stringVal":[],"scomplexVal":[],"int64Val":[],"boolVal":[],"uint32Val":[],"uint64Val":[],"dtype":1,"tensorShape":{"dim":[{"size":"960"}]}}},"dtype":{"type":1}},"name":"MobilenetV2/expanded_conv_14/depthwise/BatchNorm/moving_mean","op":"Const"},{"input":[],"attr":{"value":{"tensor":{"floatVal":[],"doubleVal":[],"intVal":[],"stringVal":[],"scomplexVal":[],"int64Val":[],"boolVal":[],"uint32Val":[],"uint64Val":[],"dtype":1,"tensorShape":{"dim":[{"size":"960"}]}}},"dtype":{"type":1}},"name":"MobilenetV2/expanded_conv_14/depthwise/BatchNorm/moving_variance","op":"Const"},{"input":[],"attr":{"value":{"tensor":{"floatVal":[],"doubleVal":[],"intVal":[],"stringVal":[],"scomplexVal":[],"int64Val":[],"boolVal":[],"uint32Val":[],"uint64Val":[],"dtype":1,"tensorShape":{"dim":[{"size":"1"},{"size":"1"},{"size":"960"},{"size":"160"}]}}},"dtype":{"type":1}},"name":"MobilenetV2/expanded_conv_14/project/weights","op":"Const"},{"input":[],"attr":{"value":{"tensor":{"floatVal":[],"doubleVal":[],"intVal":[],"stringVal":[],"scomplexVal":[],"int64Val":[],"boolVal":[],"uint32Val":[],"uint64Val":[],"dtype":1,"tensorShape":{"dim":[{"size":"160"}]}}},"dtype":{"type":1}},"name":"MobilenetV2/expanded_conv_14/project/BatchNorm/gamma","op":"Const"},{"input":[],"attr":{"value":{"tensor":{"floatVal":[],"doubleVal":[],"intVal":[],"stringVal":[],"scomplexVal":[],"int64Val":[],"boolVal":[],"uint32Val":[],"uint64Val":[],"dtype":1,"tensorShape":{"dim":[{"size":"160"}]}}},"dtype":{"type":1}},"name":"MobilenetV2/expanded_conv_14/project/BatchNorm/beta","op":"Const"},{"input":[],"attr":{"value":{"tensor":{"floatVal":[],"doubleVal":[],"intVal":[],"stringVal":[],"scomplexVal":[],"int64Val":[],"boolVal":[],"uint32Val":[],"uint64Val":[],"dtype":1,"tensorShape":{"dim":[{"size":"160"}]}}},"dtype":{"type":1}},"name":"MobilenetV2/expanded_conv_14/project/BatchNorm/moving_mean","op":"Const"},{"input":[],"attr":{"value":{"tensor":{"floatVal":[],"doubleVal":[],"intVal":[],"stringVal":[],"scomplexVal":[],"int64Val":[],"boolVal":[],"uint32Val":[],"uint64Val":[],"dtype":1,"tensorShape":{"dim":[{"size":"160"}]}}},"dtype":{"type":1}},"name":"MobilenetV2/expanded_conv_14/project/BatchNorm/moving_variance","op":"Const"},{"input":[],"attr":{"value":{"tensor":{"floatVal":[],"doubleVal":[],"intVal":[],"stringVal":[],"scomplexVal":[],"int64Val":[],"boolVal":[],"uint32Val":[],"uint64Val":[],"dtype":1,"tensorShape":{"dim":[{"size":"1"},{"size":"1"},{"size":"96"},{"size":"576"}]}}},"dtype":{"type":1}},"name":"MobilenetV2/expanded_conv_12/expand/weights","op":"Const"},{"input":[],"attr":{"value":{"tensor":{"floatVal":[],"doubleVal":[],"intVal":[],"stringVal":[],"scomplexVal":[],"int64Val":[],"boolVal":[],"uint32Val":[],"uint64Val":[],"dtype":1,"tensorShape":{"dim":[{"size":"576"}]}}},"dtype":{"type":1}},"name":"MobilenetV2/expanded_conv_12/expand/BatchNorm/gamma","op":"Const"},{"input":[],"attr":{"value":{"tensor":{"floatVal":[],"doubleVal":[],"intVal":[],"stringVal":[],"scomplexVal":[],"int64Val":[],"boolVal":[],"uint32Val":[],"uint64Val":[],"dtype":1,"tensorShape":{"dim":[{"size":"576"}]}}},"dtype":{"type":1}},"name":"MobilenetV2/expanded_conv_12/expand/BatchNorm/beta","op":"Const"},{"input":[],"attr":{"value":{"tensor":{"floatVal":[],"doubleVal":[],"intVal":[],"stringVal":[],"scomplexVal":[],"int64Val":[],"boolVal":[],"uint32Val":[],"uint64Val":[],"dtype":1,"tensorShape":{"dim":[{"size":"576"}]}}},"dtype":{"type":1}},"name":"MobilenetV2/expanded_conv_12/expand/BatchNorm/moving_mean","op":"Const"},{"input":[],"attr":{"value":{"tensor":{"floatVal":[],"doubleVal":[],"intVal":[],"stringVal":[],"scomplexVal":[],"int64Val":[],"boolVal":[],"uint32Val":[],"uint64Val":[],"dtype":1,"tensorShape":{"dim":[{"size":"576"}]}}},"dtype":{"type":1}},"name":"MobilenetV2/expanded_conv_12/expand/BatchNorm/moving_variance","op":"Const"},{"input":[],"attr":{"value":{"tensor":{"floatVal":[],"doubleVal":[],"intVal":[],"stringVal":[],"scomplexVal":[],"int64Val":[],"boolVal":[],"uint32Val":[],"uint64Val":[],"dtype":1,"tensorShape":{"dim":[{"size":"3"},{"size":"3"},{"size":"576"},{"size":"1"}]}}},"dtype":{"type":1}},"name":"MobilenetV2/expanded_conv_12/depthwise/depthwise_weights","op":"Const"},{"input":[],"attr":{"value":{"tensor":{"floatVal":[],"doubleVal":[],"intVal":[],"stringVal":[],"scomplexVal":[],"int64Val":[],"boolVal":[],"uint32Val":[],"uint64Val":[],"dtype":1,"tensorShape":{"dim":[{"size":"576"}]}}},"dtype":{"type":1}},"name":"MobilenetV2/expanded_conv_12/depthwise/BatchNorm/gamma","op":"Const"},{"input":[],"attr":{"value":{"tensor":{"floatVal":[],"doubleVal":[],"intVal":[],"stringVal":[],"scomplexVal":[],"int64Val":[],"boolVal":[],"uint32Val":[],"uint64Val":[],"dtype":1,"tensorShape":{"dim":[{"size":"576"}]}}},"dtype":{"type":1}},"name":"MobilenetV2/expanded_conv_12/depthwise/BatchNorm/beta","op":"Const"},{"input":[],"attr":{"value":{"tensor":{"floatVal":[],"doubleVal":[],"intVal":[],"stringVal":[],"scomplexVal":[],"int64Val":[],"boolVal":[],"uint32Val":[],"uint64Val":[],"dtype":1,"tensorShape":{"dim":[{"size":"576"}]}}},"dtype":{"type":1}},"name":"MobilenetV2/expanded_conv_12/depthwise/BatchNorm/moving_mean","op":"Const"},{"input":[],"attr":{"value":{"tensor":{"floatVal":[],"doubleVal":[],"intVal":[],"stringVal":[],"scomplexVal":[],"int64Val":[],"boolVal":[],"uint32Val":[],"uint64Val":[],"dtype":1,"tensorShape":{"dim":[{"size":"576"}]}}},"dtype":{"type":1}},"name":"MobilenetV2/expanded_conv_12/depthwise/BatchNorm/moving_variance","op":"Const"},{"input":[],"attr":{"value":{"tensor":{"floatVal":[],"doubleVal":[],"intVal":[],"stringVal":[],"scomplexVal":[],"int64Val":[],"boolVal":[],"uint32Val":[],"uint64Val":[],"dtype":1,"tensorShape":{"dim":[{"size":"1"},{"size":"1"},{"size":"576"},{"size":"96"}]}}},"dtype":{"type":1}},"name":"MobilenetV2/expanded_conv_12/project/weights","op":"Const"},{"input":[],"attr":{"value":{"tensor":{"floatVal":[],"doubleVal":[],"intVal":[],"stringVal":[],"scomplexVal":[],"int64Val":[],"boolVal":[],"uint32Val":[],"uint64Val":[],"dtype":1,"tensorShape":{"dim":[{"size":"96"}]}}},"dtype":{"type":1}},"name":"MobilenetV2/expanded_conv_12/project/BatchNorm/gamma","op":"Const"},{"input":[],"attr":{"dtype":{"type":1},"value":{"tensor":{"floatVal":[],"doubleVal":[],"intVal":[],"stringVal":[],"scomplexVal":[],"int64Val":[],"boolVal":[],"uint32Val":[],"uint64Val":[],"dtype":1,"tensorShape":{"dim":[{"size":"96"}]}}}},"name":"MobilenetV2/expanded_conv_12/project/BatchNorm/beta","op":"Const"},{"input":[],"attr":{"value":{"tensor":{"floatVal":[],"doubleVal":[],"intVal":[],"stringVal":[],"scomplexVal":[],"int64Val":[],"boolVal":[],"uint32Val":[],"uint64Val":[],"dtype":1,"tensorShape":{"dim":[{"size":"96"}]}}},"dtype":{"type":1}},"name":"MobilenetV2/expanded_conv_12/project/BatchNorm/moving_mean","op":"Const"},{"input":[],"attr":{"value":{"tensor":{"floatVal":[],"doubleVal":[],"intVal":[],"stringVal":[],"scomplexVal":[],"int64Val":[],"boolVal":[],"uint32Val":[],"uint64Val":[],"dtype":1,"tensorShape":{"dim":[{"size":"96"}]}}},"dtype":{"type":1}},"name":"MobilenetV2/expanded_conv_12/project/BatchNorm/moving_variance","op":"Const"},{"input":[],"attr":{"value":{"tensor":{"floatVal":[],"doubleVal":[],"intVal":[],"stringVal":[],"scomplexVal":[],"int64Val":[],"boolVal":[],"uint32Val":[],"uint64Val":[],"dtype":1,"tensorShape":{"dim":[{"size":"1"},{"size":"1"},{"size":"96"},{"size":"576"}]}}},"dtype":{"type":1}},"name":"MobilenetV2/expanded_conv_11/expand/weights","op":"Const"},{"input":[],"attr":{"value":{"tensor":{"floatVal":[],"doubleVal":[],"intVal":[],"stringVal":[],"scomplexVal":[],"int64Val":[],"boolVal":[],"uint32Val":[],"uint64Val":[],"dtype":1,"tensorShape":{"dim":[{"size":"576"}]}}},"dtype":{"type":1}},"name":"MobilenetV2/expanded_conv_11/expand/BatchNorm/gamma","op":"Const"},{"input":[],"attr":{"value":{"tensor":{"floatVal":[],"doubleVal":[],"intVal":[],"stringVal":[],"scomplexVal":[],"int64Val":[],"boolVal":[],"uint32Val":[],"uint64Val":[],"dtype":1,"tensorShape":{"dim":[{"size":"576"}]}}},"dtype":{"type":1}},"name":"MobilenetV2/expanded_conv_11/expand/BatchNorm/beta","op":"Const"},{"input":[],"attr":{"value":{"tensor":{"floatVal":[],"doubleVal":[],"intVal":[],"stringVal":[],"scomplexVal":[],"int64Val":[],"boolVal":[],"uint32Val":[],"uint64Val":[],"dtype":1,"tensorShape":{"dim":[{"size":"576"}]}}},"dtype":{"type":1}},"name":"MobilenetV2/expanded_conv_11/expand/BatchNorm/moving_mean","op":"Const"},{"input":[],"attr":{"value":{"tensor":{"floatVal":[],"doubleVal":[],"intVal":[],"stringVal":[],"scomplexVal":[],"int64Val":[],"boolVal":[],"uint32Val":[],"uint64Val":[],"dtype":1,"tensorShape":{"dim":[{"size":"576"}]}}},"dtype":{"type":1}},"name":"MobilenetV2/expanded_conv_11/expand/BatchNorm/moving_variance","op":"Const"},{"input":[],"attr":{"value":{"tensor":{"floatVal":[],"doubleVal":[],"intVal":[],"stringVal":[],"scomplexVal":[],"int64Val":[],"boolVal":[],"uint32Val":[],"uint64Val":[],"dtype":1,"tensorShape":{"dim":[{"size":"3"},{"size":"3"},{"size":"576"},{"size":"1"}]}}},"dtype":{"type":1}},"name":"MobilenetV2/expanded_conv_11/depthwise/depthwise_weights","op":"Const"},{"input":[],"attr":{"dtype":{"type":1},"value":{"tensor":{"floatVal":[],"doubleVal":[],"intVal":[],"stringVal":[],"scomplexVal":[],"int64Val":[],"boolVal":[],"uint32Val":[],"uint64Val":[],"dtype":1,"tensorShape":{"dim":[{"size":"576"}]}}}},"name":"MobilenetV2/expanded_conv_11/depthwise/BatchNorm/gamma","op":"Const"},{"input":[],"attr":{"dtype":{"type":1},"value":{"tensor":{"floatVal":[],"doubleVal":[],"intVal":[],"stringVal":[],"scomplexVal":[],"int64Val":[],"boolVal":[],"uint32Val":[],"uint64Val":[],"dtype":1,"tensorShape":{"dim":[{"size":"576"}]}}}},"name":"MobilenetV2/expanded_conv_11/depthwise/BatchNorm/beta","op":"Const"},{"input":[],"attr":{"value":{"tensor":{"floatVal":[],"doubleVal":[],"intVal":[],"stringVal":[],"scomplexVal":[],"int64Val":[],"boolVal":[],"uint32Val":[],"uint64Val":[],"dtype":1,"tensorShape":{"dim":[{"size":"576"}]}}},"dtype":{"type":1}},"name":"MobilenetV2/expanded_conv_11/depthwise/BatchNorm/moving_mean","op":"Const"},{"input":[],"attr":{"value":{"tensor":{"floatVal":[],"doubleVal":[],"intVal":[],"stringVal":[],"scomplexVal":[],"int64Val":[],"boolVal":[],"uint32Val":[],"uint64Val":[],"dtype":1,"tensorShape":{"dim":[{"size":"576"}]}}},"dtype":{"type":1}},"name":"MobilenetV2/expanded_conv_11/depthwise/BatchNorm/moving_variance","op":"Const"},{"input":[],"attr":{"value":{"tensor":{"floatVal":[],"doubleVal":[],"intVal":[],"stringVal":[],"scomplexVal":[],"int64Val":[],"boolVal":[],"uint32Val":[],"uint64Val":[],"dtype":1,"tensorShape":{"dim":[{"size":"1"},{"size":"1"},{"size":"576"},{"size":"96"}]}}},"dtype":{"type":1}},"name":"MobilenetV2/expanded_conv_11/project/weights","op":"Const"},{"input":[],"attr":{"value":{"tensor":{"floatVal":[],"doubleVal":[],"intVal":[],"stringVal":[],"scomplexVal":[],"int64Val":[],"boolVal":[],"uint32Val":[],"uint64Val":[],"dtype":1,"tensorShape":{"dim":[{"size":"96"}]}}},"dtype":{"type":1}},"name":"MobilenetV2/expanded_conv_11/project/BatchNorm/gamma","op":"Const"},{"input":[],"attr":{"value":{"tensor":{"floatVal":[],"doubleVal":[],"intVal":[],"stringVal":[],"scomplexVal":[],"int64Val":[],"boolVal":[],"uint32Val":[],"uint64Val":[],"dtype":1,"tensorShape":{"dim":[{"size":"96"}]}}},"dtype":{"type":1}},"name":"MobilenetV2/expanded_conv_11/project/BatchNorm/beta","op":"Const"},{"input":[],"attr":{"value":{"tensor":{"floatVal":[],"doubleVal":[],"intVal":[],"stringVal":[],"scomplexVal":[],"int64Val":[],"boolVal":[],"uint32Val":[],"uint64Val":[],"dtype":1,"tensorShape":{"dim":[{"size":"96"}]}}},"dtype":{"type":1}},"name":"MobilenetV2/expanded_conv_11/project/BatchNorm/moving_mean","op":"Const"},{"input":[],"attr":{"dtype":{"type":1},"value":{"tensor":{"floatVal":[],"doubleVal":[],"intVal":[],"stringVal":[],"scomplexVal":[],"int64Val":[],"boolVal":[],"uint32Val":[],"uint64Val":[],"dtype":1,"tensorShape":{"dim":[{"size":"96"}]}}}},"name":"MobilenetV2/expanded_conv_11/project/BatchNorm/moving_variance","op":"Const"},{"input":[],"attr":{"value":{"tensor":{"floatVal":[],"doubleVal":[],"intVal":[],"stringVal":[],"scomplexVal":[],"int64Val":[],"boolVal":[],"uint32Val":[],"uint64Val":[],"dtype":1,"tensorShape":{"dim":[{"size":"1"},{"size":"1"},{"size":"64"},{"size":"384"}]}}},"dtype":{"type":1}},"name":"MobilenetV2/expanded_conv_9/expand/weights","op":"Const"},{"input":[],"attr":{"value":{"tensor":{"floatVal":[],"doubleVal":[],"intVal":[],"stringVal":[],"scomplexVal":[],"int64Val":[],"boolVal":[],"uint32Val":[],"uint64Val":[],"dtype":1,"tensorShape":{"dim":[{"size":"384"}]}}},"dtype":{"type":1}},"name":"MobilenetV2/expanded_conv_9/expand/BatchNorm/gamma","op":"Const"},{"input":[],"attr":{"value":{"tensor":{"floatVal":[],"doubleVal":[],"intVal":[],"stringVal":[],"scomplexVal":[],"int64Val":[],"boolVal":[],"uint32Val":[],"uint64Val":[],"dtype":1,"tensorShape":{"dim":[{"size":"384"}]}}},"dtype":{"type":1}},"name":"MobilenetV2/expanded_conv_9/expand/BatchNorm/beta","op":"Const"},{"input":[],"attr":{"value":{"tensor":{"floatVal":[],"doubleVal":[],"intVal":[],"stringVal":[],"scomplexVal":[],"int64Val":[],"boolVal":[],"uint32Val":[],"uint64Val":[],"dtype":1,"tensorShape":{"dim":[{"size":"384"}]}}},"dtype":{"type":1}},"name":"MobilenetV2/expanded_conv_9/expand/BatchNorm/moving_mean","op":"Const"},{"input":[],"attr":{"value":{"tensor":{"floatVal":[],"doubleVal":[],"intVal":[],"stringVal":[],"scomplexVal":[],"int64Val":[],"boolVal":[],"uint32Val":[],"uint64Val":[],"dtype":1,"tensorShape":{"dim":[{"size":"384"}]}}},"dtype":{"type":1}},"name":"MobilenetV2/expanded_conv_9/expand/BatchNorm/moving_variance","op":"Const"},{"input":[],"attr":{"value":{"tensor":{"floatVal":[],"doubleVal":[],"intVal":[],"stringVal":[],"scomplexVal":[],"int64Val":[],"boolVal":[],"uint32Val":[],"uint64Val":[],"dtype":1,"tensorShape":{"dim":[{"size":"3"},{"size":"3"},{"size":"384"},{"size":"1"}]}}},"dtype":{"type":1}},"name":"MobilenetV2/expanded_conv_9/depthwise/depthwise_weights","op":"Const"},{"input":[],"attr":{"value":{"tensor":{"floatVal":[],"doubleVal":[],"intVal":[],"stringVal":[],"scomplexVal":[],"int64Val":[],"boolVal":[],"uint32Val":[],"uint64Val":[],"dtype":1,"tensorShape":{"dim":[{"size":"384"}]}}},"dtype":{"type":1}},"name":"MobilenetV2/expanded_conv_9/depthwise/BatchNorm/gamma","op":"Const"},{"input":[],"attr":{"value":{"tensor":{"floatVal":[],"doubleVal":[],"intVal":[],"stringVal":[],"scomplexVal":[],"int64Val":[],"boolVal":[],"uint32Val":[],"uint64Val":[],"dtype":1,"tensorShape":{"dim":[{"size":"384"}]}}},"dtype":{"type":1}},"name":"MobilenetV2/expanded_conv_9/depthwise/BatchNorm/beta","op":"Const"},{"input":[],"attr":{"value":{"tensor":{"floatVal":[],"doubleVal":[],"intVal":[],"stringVal":[],"scomplexVal":[],"int64Val":[],"boolVal":[],"uint32Val":[],"uint64Val":[],"dtype":1,"tensorShape":{"dim":[{"size":"384"}]}}},"dtype":{"type":1}},"name":"MobilenetV2/expanded_conv_9/depthwise/BatchNorm/moving_mean","op":"Const"},{"input":[],"attr":{"value":{"tensor":{"floatVal":[],"doubleVal":[],"intVal":[],"stringVal":[],"scomplexVal":[],"int64Val":[],"boolVal":[],"uint32Val":[],"uint64Val":[],"dtype":1,"tensorShape":{"dim":[{"size":"384"}]}}},"dtype":{"type":1}},"name":"MobilenetV2/expanded_conv_9/depthwise/BatchNorm/moving_variance","op":"Const"},{"input":[],"attr":{"value":{"tensor":{"floatVal":[],"doubleVal":[],"intVal":[],"stringVal":[],"scomplexVal":[],"int64Val":[],"boolVal":[],"uint32Val":[],"uint64Val":[],"dtype":1,"tensorShape":{"dim":[{"size":"1"},{"size":"1"},{"size":"384"},{"size":"64"}]}}},"dtype":{"type":1}},"name":"MobilenetV2/expanded_conv_9/project/weights","op":"Const"},{"input":[],"attr":{"value":{"tensor":{"floatVal":[],"doubleVal":[],"intVal":[],"stringVal":[],"scomplexVal":[],"int64Val":[],"boolVal":[],"uint32Val":[],"uint64Val":[],"dtype":1,"tensorShape":{"dim":[{"size":"64"}]}}},"dtype":{"type":1}},"name":"MobilenetV2/expanded_conv_9/project/BatchNorm/gamma","op":"Const"},{"input":[],"attr":{"dtype":{"type":1},"value":{"tensor":{"floatVal":[],"doubleVal":[],"intVal":[],"stringVal":[],"scomplexVal":[],"int64Val":[],"boolVal":[],"uint32Val":[],"uint64Val":[],"dtype":1,"tensorShape":{"dim":[{"size":"64"}]}}}},"name":"MobilenetV2/expanded_conv_9/project/BatchNorm/beta","op":"Const"},{"input":[],"attr":{"value":{"tensor":{"floatVal":[],"doubleVal":[],"intVal":[],"stringVal":[],"scomplexVal":[],"int64Val":[],"boolVal":[],"uint32Val":[],"uint64Val":[],"dtype":1,"tensorShape":{"dim":[{"size":"64"}]}}},"dtype":{"type":1}},"name":"MobilenetV2/expanded_conv_9/project/BatchNorm/moving_mean","op":"Const"},{"input":[],"attr":{"value":{"tensor":{"floatVal":[],"doubleVal":[],"intVal":[],"stringVal":[],"scomplexVal":[],"int64Val":[],"boolVal":[],"uint32Val":[],"uint64Val":[],"dtype":1,"tensorShape":{"dim":[{"size":"64"}]}}},"dtype":{"type":1}},"name":"MobilenetV2/expanded_conv_9/project/BatchNorm/moving_variance","op":"Const"},{"input":[],"attr":{"value":{"tensor":{"floatVal":[],"doubleVal":[],"intVal":[],"stringVal":[],"scomplexVal":[],"int64Val":[],"boolVal":[],"uint32Val":[],"uint64Val":[],"dtype":1,"tensorShape":{"dim":[{"size":"1"},{"size":"1"},{"size":"64"},{"size":"384"}]}}},"dtype":{"type":1}},"name":"MobilenetV2/expanded_conv_8/expand/weights","op":"Const"},{"input":[],"attr":{"value":{"tensor":{"floatVal":[],"doubleVal":[],"intVal":[],"stringVal":[],"scomplexVal":[],"int64Val":[],"boolVal":[],"uint32Val":[],"uint64Val":[],"dtype":1,"tensorShape":{"dim":[{"size":"384"}]}}},"dtype":{"type":1}},"name":"MobilenetV2/expanded_conv_8/expand/BatchNorm/gamma","op":"Const"},{"input":[],"attr":{"value":{"tensor":{"floatVal":[],"doubleVal":[],"intVal":[],"stringVal":[],"scomplexVal":[],"int64Val":[],"boolVal":[],"uint32Val":[],"uint64Val":[],"dtype":1,"tensorShape":{"dim":[{"size":"384"}]}}},"dtype":{"type":1}},"name":"MobilenetV2/expanded_conv_8/expand/BatchNorm/beta","op":"Const"},{"input":[],"attr":{"value":{"tensor":{"floatVal":[],"doubleVal":[],"intVal":[],"stringVal":[],"scomplexVal":[],"int64Val":[],"boolVal":[],"uint32Val":[],"uint64Val":[],"dtype":1,"tensorShape":{"dim":[{"size":"384"}]}}},"dtype":{"type":1}},"name":"MobilenetV2/expanded_conv_8/expand/BatchNorm/moving_mean","op":"Const"},{"input":[],"attr":{"value":{"tensor":{"floatVal":[],"doubleVal":[],"intVal":[],"stringVal":[],"scomplexVal":[],"int64Val":[],"boolVal":[],"uint32Val":[],"uint64Val":[],"dtype":1,"tensorShape":{"dim":[{"size":"384"}]}}},"dtype":{"type":1}},"name":"MobilenetV2/expanded_conv_8/expand/BatchNorm/moving_variance","op":"Const"},{"input":[],"attr":{"dtype":{"type":1},"value":{"tensor":{"floatVal":[],"doubleVal":[],"intVal":[],"stringVal":[],"scomplexVal":[],"int64Val":[],"boolVal":[],"uint32Val":[],"uint64Val":[],"dtype":1,"tensorShape":{"dim":[{"size":"3"},{"size":"3"},{"size":"384"},{"size":"1"}]}}}},"name":"MobilenetV2/expanded_conv_8/depthwise/depthwise_weights","op":"Const"},{"input":[],"attr":{"value":{"tensor":{"floatVal":[],"doubleVal":[],"intVal":[],"stringVal":[],"scomplexVal":[],"int64Val":[],"boolVal":[],"uint32Val":[],"uint64Val":[],"dtype":1,"tensorShape":{"dim":[{"size":"384"}]}}},"dtype":{"type":1}},"name":"MobilenetV2/expanded_conv_8/depthwise/BatchNorm/gamma","op":"Const"},{"input":[],"attr":{"dtype":{"type":1},"value":{"tensor":{"floatVal":[],"doubleVal":[],"intVal":[],"stringVal":[],"scomplexVal":[],"int64Val":[],"boolVal":[],"uint32Val":[],"uint64Val":[],"dtype":1,"tensorShape":{"dim":[{"size":"384"}]}}}},"name":"MobilenetV2/expanded_conv_8/depthwise/BatchNorm/beta","op":"Const"},{"input":[],"attr":{"dtype":{"type":1},"value":{"tensor":{"floatVal":[],"doubleVal":[],"intVal":[],"stringVal":[],"scomplexVal":[],"int64Val":[],"boolVal":[],"uint32Val":[],"uint64Val":[],"dtype":1,"tensorShape":{"dim":[{"size":"384"}]}}}},"name":"MobilenetV2/expanded_conv_8/depthwise/BatchNorm/moving_mean","op":"Const"},{"input":[],"attr":{"value":{"tensor":{"floatVal":[],"doubleVal":[],"intVal":[],"stringVal":[],"scomplexVal":[],"int64Val":[],"boolVal":[],"uint32Val":[],"uint64Val":[],"dtype":1,"tensorShape":{"dim":[{"size":"384"}]}}},"dtype":{"type":1}},"name":"MobilenetV2/expanded_conv_8/depthwise/BatchNorm/moving_variance","op":"Const"},{"input":[],"attr":{"value":{"tensor":{"floatVal":[],"doubleVal":[],"intVal":[],"stringVal":[],"scomplexVal":[],"int64Val":[],"boolVal":[],"uint32Val":[],"uint64Val":[],"dtype":1,"tensorShape":{"dim":[{"size":"1"},{"size":"1"},{"size":"384"},{"size":"64"}]}}},"dtype":{"type":1}},"name":"MobilenetV2/expanded_conv_8/project/weights","op":"Const"},{"input":[],"attr":{"value":{"tensor":{"floatVal":[],"doubleVal":[],"intVal":[],"stringVal":[],"scomplexVal":[],"int64Val":[],"boolVal":[],"uint32Val":[],"uint64Val":[],"dtype":1,"tensorShape":{"dim":[{"size":"64"}]}}},"dtype":{"type":1}},"name":"MobilenetV2/expanded_conv_8/project/BatchNorm/gamma","op":"Const"},{"input":[],"attr":{"value":{"tensor":{"floatVal":[],"doubleVal":[],"intVal":[],"stringVal":[],"scomplexVal":[],"int64Val":[],"boolVal":[],"uint32Val":[],"uint64Val":[],"dtype":1,"tensorShape":{"dim":[{"size":"64"}]}}},"dtype":{"type":1}},"name":"MobilenetV2/expanded_conv_8/project/BatchNorm/beta","op":"Const"},{"input":[],"attr":{"value":{"tensor":{"floatVal":[],"doubleVal":[],"intVal":[],"stringVal":[],"scomplexVal":[],"int64Val":[],"boolVal":[],"uint32Val":[],"uint64Val":[],"dtype":1,"tensorShape":{"dim":[{"size":"64"}]}}},"dtype":{"type":1}},"name":"MobilenetV2/expanded_conv_8/project/BatchNorm/moving_mean","op":"Const"},{"input":[],"attr":{"dtype":{"type":1},"value":{"tensor":{"floatVal":[],"doubleVal":[],"intVal":[],"stringVal":[],"scomplexVal":[],"int64Val":[],"boolVal":[],"uint32Val":[],"uint64Val":[],"dtype":1,"tensorShape":{"dim":[{"size":"64"}]}}}},"name":"MobilenetV2/expanded_conv_8/project/BatchNorm/moving_variance","op":"Const"},{"input":[],"attr":{"value":{"tensor":{"floatVal":[],"doubleVal":[],"intVal":[],"stringVal":[],"scomplexVal":[],"int64Val":[],"boolVal":[],"uint32Val":[],"uint64Val":[],"dtype":1,"tensorShape":{"dim":[{"size":"1"},{"size":"1"},{"size":"64"},{"size":"384"}]}}},"dtype":{"type":1}},"name":"MobilenetV2/expanded_conv_7/expand/weights","op":"Const"},{"input":[],"attr":{"value":{"tensor":{"floatVal":[],"doubleVal":[],"intVal":[],"stringVal":[],"scomplexVal":[],"int64Val":[],"boolVal":[],"uint32Val":[],"uint64Val":[],"dtype":1,"tensorShape":{"dim":[{"size":"384"}]}}},"dtype":{"type":1}},"name":"MobilenetV2/expanded_conv_7/expand/BatchNorm/gamma","op":"Const"},{"input":[],"attr":{"value":{"tensor":{"floatVal":[],"doubleVal":[],"intVal":[],"stringVal":[],"scomplexVal":[],"int64Val":[],"boolVal":[],"uint32Val":[],"uint64Val":[],"dtype":1,"tensorShape":{"dim":[{"size":"384"}]}}},"dtype":{"type":1}},"name":"MobilenetV2/expanded_conv_7/expand/BatchNorm/beta","op":"Const"},{"input":[],"attr":{"value":{"tensor":{"floatVal":[],"doubleVal":[],"intVal":[],"stringVal":[],"scomplexVal":[],"int64Val":[],"boolVal":[],"uint32Val":[],"uint64Val":[],"dtype":1,"tensorShape":{"dim":[{"size":"384"}]}}},"dtype":{"type":1}},"name":"MobilenetV2/expanded_conv_7/expand/BatchNorm/moving_mean","op":"Const"},{"input":[],"attr":{"value":{"tensor":{"floatVal":[],"doubleVal":[],"intVal":[],"stringVal":[],"scomplexVal":[],"int64Val":[],"boolVal":[],"uint32Val":[],"uint64Val":[],"dtype":1,"tensorShape":{"dim":[{"size":"384"}]}}},"dtype":{"type":1}},"name":"MobilenetV2/expanded_conv_7/expand/BatchNorm/moving_variance","op":"Const"},{"input":[],"attr":{"value":{"tensor":{"floatVal":[],"doubleVal":[],"intVal":[],"stringVal":[],"scomplexVal":[],"int64Val":[],"boolVal":[],"uint32Val":[],"uint64Val":[],"dtype":1,"tensorShape":{"dim":[{"size":"3"},{"size":"3"},{"size":"384"},{"size":"1"}]}}},"dtype":{"type":1}},"name":"MobilenetV2/expanded_conv_7/depthwise/depthwise_weights","op":"Const"},{"input":[],"attr":{"value":{"tensor":{"floatVal":[],"doubleVal":[],"intVal":[],"stringVal":[],"scomplexVal":[],"int64Val":[],"boolVal":[],"uint32Val":[],"uint64Val":[],"dtype":1,"tensorShape":{"dim":[{"size":"384"}]}}},"dtype":{"type":1}},"name":"MobilenetV2/expanded_conv_7/depthwise/BatchNorm/gamma","op":"Const"},{"input":[],"attr":{"value":{"tensor":{"floatVal":[],"doubleVal":[],"intVal":[],"stringVal":[],"scomplexVal":[],"int64Val":[],"boolVal":[],"uint32Val":[],"uint64Val":[],"dtype":1,"tensorShape":{"dim":[{"size":"384"}]}}},"dtype":{"type":1}},"name":"MobilenetV2/expanded_conv_7/depthwise/BatchNorm/beta","op":"Const"},{"input":[],"attr":{"value":{"tensor":{"floatVal":[],"doubleVal":[],"intVal":[],"stringVal":[],"scomplexVal":[],"int64Val":[],"boolVal":[],"uint32Val":[],"uint64Val":[],"dtype":1,"tensorShape":{"dim":[{"size":"384"}]}}},"dtype":{"type":1}},"name":"MobilenetV2/expanded_conv_7/depthwise/BatchNorm/moving_mean","op":"Const"},{"input":[],"attr":{"value":{"tensor":{"floatVal":[],"doubleVal":[],"intVal":[],"stringVal":[],"scomplexVal":[],"int64Val":[],"boolVal":[],"uint32Val":[],"uint64Val":[],"dtype":1,"tensorShape":{"dim":[{"size":"384"}]}}},"dtype":{"type":1}},"name":"MobilenetV2/expanded_conv_7/depthwise/BatchNorm/moving_variance","op":"Const"},{"input":[],"attr":{"value":{"tensor":{"floatVal":[],"doubleVal":[],"intVal":[],"stringVal":[],"scomplexVal":[],"int64Val":[],"boolVal":[],"uint32Val":[],"uint64Val":[],"dtype":1,"tensorShape":{"dim":[{"size":"1"},{"size":"1"},{"size":"384"},{"size":"64"}]}}},"dtype":{"type":1}},"name":"MobilenetV2/expanded_conv_7/project/weights","op":"Const"},{"input":[],"attr":{"value":{"tensor":{"floatVal":[],"doubleVal":[],"intVal":[],"stringVal":[],"scomplexVal":[],"int64Val":[],"boolVal":[],"uint32Val":[],"uint64Val":[],"dtype":1,"tensorShape":{"dim":[{"size":"64"}]}}},"dtype":{"type":1}},"name":"MobilenetV2/expanded_conv_7/project/BatchNorm/gamma","op":"Const"},{"input":[],"attr":{"value":{"tensor":{"floatVal":[],"doubleVal":[],"intVal":[],"stringVal":[],"scomplexVal":[],"int64Val":[],"boolVal":[],"uint32Val":[],"uint64Val":[],"dtype":1,"tensorShape":{"dim":[{"size":"64"}]}}},"dtype":{"type":1}},"name":"MobilenetV2/expanded_conv_7/project/BatchNorm/beta","op":"Const"},{"input":[],"attr":{"value":{"tensor":{"floatVal":[],"doubleVal":[],"intVal":[],"stringVal":[],"scomplexVal":[],"int64Val":[],"boolVal":[],"uint32Val":[],"uint64Val":[],"dtype":1,"tensorShape":{"dim":[{"size":"64"}]}}},"dtype":{"type":1}},"name":"MobilenetV2/expanded_conv_7/project/BatchNorm/moving_mean","op":"Const"},{"input":[],"attr":{"value":{"tensor":{"floatVal":[],"doubleVal":[],"intVal":[],"stringVal":[],"scomplexVal":[],"int64Val":[],"boolVal":[],"uint32Val":[],"uint64Val":[],"dtype":1,"tensorShape":{"dim":[{"size":"64"}]}}},"dtype":{"type":1}},"name":"MobilenetV2/expanded_conv_7/project/BatchNorm/moving_variance","op":"Const"},{"input":[],"attr":{"value":{"tensor":{"floatVal":[],"doubleVal":[],"intVal":[],"stringVal":[],"scomplexVal":[],"int64Val":[],"boolVal":[],"uint32Val":[],"uint64Val":[],"dtype":1,"tensorShape":{"dim":[{"size":"1"},{"size":"1"},{"size":"32"},{"size":"192"}]}}},"dtype":{"type":1}},"name":"MobilenetV2/expanded_conv_5/expand/weights","op":"Const"},{"input":[],"attr":{"value":{"tensor":{"floatVal":[],"doubleVal":[],"intVal":[],"stringVal":[],"scomplexVal":[],"int64Val":[],"boolVal":[],"uint32Val":[],"uint64Val":[],"dtype":1,"tensorShape":{"dim":[{"size":"192"}]}}},"dtype":{"type":1}},"name":"MobilenetV2/expanded_conv_5/expand/BatchNorm/gamma","op":"Const"},{"input":[],"attr":{"value":{"tensor":{"floatVal":[],"doubleVal":[],"intVal":[],"stringVal":[],"scomplexVal":[],"int64Val":[],"boolVal":[],"uint32Val":[],"uint64Val":[],"dtype":1,"tensorShape":{"dim":[{"size":"192"}]}}},"dtype":{"type":1}},"name":"MobilenetV2/expanded_conv_5/expand/BatchNorm/beta","op":"Const"},{"input":[],"attr":{"value":{"tensor":{"floatVal":[],"doubleVal":[],"intVal":[],"stringVal":[],"scomplexVal":[],"int64Val":[],"boolVal":[],"uint32Val":[],"uint64Val":[],"dtype":1,"tensorShape":{"dim":[{"size":"192"}]}}},"dtype":{"type":1}},"name":"MobilenetV2/expanded_conv_5/expand/BatchNorm/moving_mean","op":"Const"},{"input":[],"attr":{"value":{"tensor":{"floatVal":[],"doubleVal":[],"intVal":[],"stringVal":[],"scomplexVal":[],"int64Val":[],"boolVal":[],"uint32Val":[],"uint64Val":[],"dtype":1,"tensorShape":{"dim":[{"size":"192"}]}}},"dtype":{"type":1}},"name":"MobilenetV2/expanded_conv_5/expand/BatchNorm/moving_variance","op":"Const"},{"input":[],"attr":{"dtype":{"type":1},"value":{"tensor":{"floatVal":[],"doubleVal":[],"intVal":[],"stringVal":[],"scomplexVal":[],"int64Val":[],"boolVal":[],"uint32Val":[],"uint64Val":[],"dtype":1,"tensorShape":{"dim":[{"size":"3"},{"size":"3"},{"size":"192"},{"size":"1"}]}}}},"name":"MobilenetV2/expanded_conv_5/depthwise/depthwise_weights","op":"Const"},{"input":[],"attr":{"value":{"tensor":{"floatVal":[],"doubleVal":[],"intVal":[],"stringVal":[],"scomplexVal":[],"int64Val":[],"boolVal":[],"uint32Val":[],"uint64Val":[],"dtype":1,"tensorShape":{"dim":[{"size":"192"}]}}},"dtype":{"type":1}},"name":"MobilenetV2/expanded_conv_5/depthwise/BatchNorm/gamma","op":"Const"},{"input":[],"attr":{"value":{"tensor":{"floatVal":[],"doubleVal":[],"intVal":[],"stringVal":[],"scomplexVal":[],"int64Val":[],"boolVal":[],"uint32Val":[],"uint64Val":[],"dtype":1,"tensorShape":{"dim":[{"size":"192"}]}}},"dtype":{"type":1}},"name":"MobilenetV2/expanded_conv_5/depthwise/BatchNorm/beta","op":"Const"},{"input":[],"attr":{"value":{"tensor":{"floatVal":[],"doubleVal":[],"intVal":[],"stringVal":[],"scomplexVal":[],"int64Val":[],"boolVal":[],"uint32Val":[],"uint64Val":[],"dtype":1,"tensorShape":{"dim":[{"size":"192"}]}}},"dtype":{"type":1}},"name":"MobilenetV2/expanded_conv_5/depthwise/BatchNorm/moving_mean","op":"Const"},{"input":[],"attr":{"value":{"tensor":{"floatVal":[],"doubleVal":[],"intVal":[],"stringVal":[],"scomplexVal":[],"int64Val":[],"boolVal":[],"uint32Val":[],"uint64Val":[],"dtype":1,"tensorShape":{"dim":[{"size":"192"}]}}},"dtype":{"type":1}},"name":"MobilenetV2/expanded_conv_5/depthwise/BatchNorm/moving_variance","op":"Const"},{"input":[],"attr":{"value":{"tensor":{"floatVal":[],"doubleVal":[],"intVal":[],"stringVal":[],"scomplexVal":[],"int64Val":[],"boolVal":[],"uint32Val":[],"uint64Val":[],"dtype":1,"tensorShape":{"dim":[{"size":"1"},{"size":"1"},{"size":"192"},{"size":"32"}]}}},"dtype":{"type":1}},"name":"MobilenetV2/expanded_conv_5/project/weights","op":"Const"},{"input":[],"attr":{"value":{"tensor":{"floatVal":[],"doubleVal":[],"intVal":[],"stringVal":[],"scomplexVal":[],"int64Val":[],"boolVal":[],"uint32Val":[],"uint64Val":[],"dtype":1,"tensorShape":{"dim":[{"size":"32"}]}}},"dtype":{"type":1}},"name":"MobilenetV2/expanded_conv_5/project/BatchNorm/gamma","op":"Const"},{"input":[],"attr":{"value":{"tensor":{"floatVal":[],"doubleVal":[],"intVal":[],"stringVal":[],"scomplexVal":[],"int64Val":[],"boolVal":[],"uint32Val":[],"uint64Val":[],"dtype":1,"tensorShape":{"dim":[{"size":"32"}]}}},"dtype":{"type":1}},"name":"MobilenetV2/expanded_conv_5/project/BatchNorm/beta","op":"Const"},{"input":[],"attr":{"value":{"tensor":{"floatVal":[],"doubleVal":[],"intVal":[],"stringVal":[],"scomplexVal":[],"int64Val":[],"boolVal":[],"uint32Val":[],"uint64Val":[],"dtype":1,"tensorShape":{"dim":[{"size":"32"}]}}},"dtype":{"type":1}},"name":"MobilenetV2/expanded_conv_5/project/BatchNorm/moving_mean","op":"Const"},{"input":[],"attr":{"dtype":{"type":1},"value":{"tensor":{"floatVal":[],"doubleVal":[],"intVal":[],"stringVal":[],"scomplexVal":[],"int64Val":[],"boolVal":[],"uint32Val":[],"uint64Val":[],"dtype":1,"tensorShape":{"dim":[{"size":"32"}]}}}},"name":"MobilenetV2/expanded_conv_5/project/BatchNorm/moving_variance","op":"Const"},{"input":[],"attr":{"value":{"tensor":{"floatVal":[],"doubleVal":[],"intVal":[],"stringVal":[],"scomplexVal":[],"int64Val":[],"boolVal":[],"uint32Val":[],"uint64Val":[],"dtype":1,"tensorShape":{"dim":[{"size":"1"},{"size":"1"},{"size":"32"},{"size":"192"}]}}},"dtype":{"type":1}},"name":"MobilenetV2/expanded_conv_4/expand/weights","op":"Const"},{"input":[],"attr":{"value":{"tensor":{"floatVal":[],"doubleVal":[],"intVal":[],"stringVal":[],"scomplexVal":[],"int64Val":[],"boolVal":[],"uint32Val":[],"uint64Val":[],"dtype":1,"tensorShape":{"dim":[{"size":"192"}]}}},"dtype":{"type":1}},"name":"MobilenetV2/expanded_conv_4/expand/BatchNorm/gamma","op":"Const"},{"input":[],"attr":{"value":{"tensor":{"floatVal":[],"doubleVal":[],"intVal":[],"stringVal":[],"scomplexVal":[],"int64Val":[],"boolVal":[],"uint32Val":[],"uint64Val":[],"dtype":1,"tensorShape":{"dim":[{"size":"192"}]}}},"dtype":{"type":1}},"name":"MobilenetV2/expanded_conv_4/expand/BatchNorm/beta","op":"Const"},{"input":[],"attr":{"value":{"tensor":{"floatVal":[],"doubleVal":[],"intVal":[],"stringVal":[],"scomplexVal":[],"int64Val":[],"boolVal":[],"uint32Val":[],"uint64Val":[],"dtype":1,"tensorShape":{"dim":[{"size":"192"}]}}},"dtype":{"type":1}},"name":"MobilenetV2/expanded_conv_4/expand/BatchNorm/moving_mean","op":"Const"},{"input":[],"attr":{"dtype":{"type":1},"value":{"tensor":{"floatVal":[],"doubleVal":[],"intVal":[],"stringVal":[],"scomplexVal":[],"int64Val":[],"boolVal":[],"uint32Val":[],"uint64Val":[],"dtype":1,"tensorShape":{"dim":[{"size":"192"}]}}}},"name":"MobilenetV2/expanded_conv_4/expand/BatchNorm/moving_variance","op":"Const"},{"input":[],"attr":{"value":{"tensor":{"floatVal":[],"doubleVal":[],"intVal":[],"stringVal":[],"scomplexVal":[],"int64Val":[],"boolVal":[],"uint32Val":[],"uint64Val":[],"dtype":1,"tensorShape":{"dim":[{"size":"3"},{"size":"3"},{"size":"192"},{"size":"1"}]}}},"dtype":{"type":1}},"name":"MobilenetV2/expanded_conv_4/depthwise/depthwise_weights","op":"Const"},{"input":[],"attr":{"value":{"tensor":{"floatVal":[],"doubleVal":[],"intVal":[],"stringVal":[],"scomplexVal":[],"int64Val":[],"boolVal":[],"uint32Val":[],"uint64Val":[],"dtype":1,"tensorShape":{"dim":[{"size":"192"}]}}},"dtype":{"type":1}},"name":"MobilenetV2/expanded_conv_4/depthwise/BatchNorm/gamma","op":"Const"},{"input":[],"attr":{"value":{"tensor":{"floatVal":[],"doubleVal":[],"intVal":[],"stringVal":[],"scomplexVal":[],"int64Val":[],"boolVal":[],"uint32Val":[],"uint64Val":[],"dtype":1,"tensorShape":{"dim":[{"size":"192"}]}}},"dtype":{"type":1}},"name":"MobilenetV2/expanded_conv_4/depthwise/BatchNorm/beta","op":"Const"},{"input":[],"attr":{"value":{"tensor":{"floatVal":[],"doubleVal":[],"intVal":[],"stringVal":[],"scomplexVal":[],"int64Val":[],"boolVal":[],"uint32Val":[],"uint64Val":[],"dtype":1,"tensorShape":{"dim":[{"size":"192"}]}}},"dtype":{"type":1}},"name":"MobilenetV2/expanded_conv_4/depthwise/BatchNorm/moving_mean","op":"Const"},{"input":[],"attr":{"value":{"tensor":{"floatVal":[],"doubleVal":[],"intVal":[],"stringVal":[],"scomplexVal":[],"int64Val":[],"boolVal":[],"uint32Val":[],"uint64Val":[],"dtype":1,"tensorShape":{"dim":[{"size":"192"}]}}},"dtype":{"type":1}},"name":"MobilenetV2/expanded_conv_4/depthwise/BatchNorm/moving_variance","op":"Const"},{"input":[],"attr":{"value":{"tensor":{"floatVal":[],"doubleVal":[],"intVal":[],"stringVal":[],"scomplexVal":[],"int64Val":[],"boolVal":[],"uint32Val":[],"uint64Val":[],"dtype":1,"tensorShape":{"dim":[{"size":"1"},{"size":"1"},{"size":"192"},{"size":"32"}]}}},"dtype":{"type":1}},"name":"MobilenetV2/expanded_conv_4/project/weights","op":"Const"},{"input":[],"attr":{"value":{"tensor":{"floatVal":[],"doubleVal":[],"intVal":[],"stringVal":[],"scomplexVal":[],"int64Val":[],"boolVal":[],"uint32Val":[],"uint64Val":[],"dtype":1,"tensorShape":{"dim":[{"size":"32"}]}}},"dtype":{"type":1}},"name":"MobilenetV2/expanded_conv_4/project/BatchNorm/gamma","op":"Const"},{"input":[],"attr":{"value":{"tensor":{"floatVal":[],"doubleVal":[],"intVal":[],"stringVal":[],"scomplexVal":[],"int64Val":[],"boolVal":[],"uint32Val":[],"uint64Val":[],"dtype":1,"tensorShape":{"dim":[{"size":"32"}]}}},"dtype":{"type":1}},"name":"MobilenetV2/expanded_conv_4/project/BatchNorm/beta","op":"Const"},{"input":[],"attr":{"value":{"tensor":{"floatVal":[],"doubleVal":[],"intVal":[],"stringVal":[],"scomplexVal":[],"int64Val":[],"boolVal":[],"uint32Val":[],"uint64Val":[],"dtype":1,"tensorShape":{"dim":[{"size":"32"}]}}},"dtype":{"type":1}},"name":"MobilenetV2/expanded_conv_4/project/BatchNorm/moving_mean","op":"Const"},{"input":[],"attr":{"dtype":{"type":1},"value":{"tensor":{"floatVal":[],"doubleVal":[],"intVal":[],"stringVal":[],"scomplexVal":[],"int64Val":[],"boolVal":[],"uint32Val":[],"uint64Val":[],"dtype":1,"tensorShape":{"dim":[{"size":"32"}]}}}},"name":"MobilenetV2/expanded_conv_4/project/BatchNorm/moving_variance","op":"Const"},{"input":[],"attr":{"value":{"tensor":{"floatVal":[],"doubleVal":[],"intVal":[],"stringVal":[],"scomplexVal":[],"int64Val":[],"boolVal":[],"uint32Val":[],"uint64Val":[],"dtype":1,"tensorShape":{"dim":[{"size":"1"},{"size":"1"},{"size":"24"},{"size":"144"}]}}},"dtype":{"type":1}},"name":"MobilenetV2/expanded_conv_2/expand/weights","op":"Const"},{"input":[],"attr":{"dtype":{"type":1},"value":{"tensor":{"floatVal":[],"doubleVal":[],"intVal":[],"stringVal":[],"scomplexVal":[],"int64Val":[],"boolVal":[],"uint32Val":[],"uint64Val":[],"dtype":1,"tensorShape":{"dim":[{"size":"144"}]}}}},"name":"MobilenetV2/expanded_conv_2/expand/BatchNorm/gamma","op":"Const"},{"input":[],"attr":{"value":{"tensor":{"floatVal":[],"doubleVal":[],"intVal":[],"stringVal":[],"scomplexVal":[],"int64Val":[],"boolVal":[],"uint32Val":[],"uint64Val":[],"dtype":1,"tensorShape":{"dim":[{"size":"144"}]}}},"dtype":{"type":1}},"name":"MobilenetV2/expanded_conv_2/expand/BatchNorm/beta","op":"Const"},{"input":[],"attr":{"value":{"tensor":{"floatVal":[],"doubleVal":[],"intVal":[],"stringVal":[],"scomplexVal":[],"int64Val":[],"boolVal":[],"uint32Val":[],"uint64Val":[],"dtype":1,"tensorShape":{"dim":[{"size":"144"}]}}},"dtype":{"type":1}},"name":"MobilenetV2/expanded_conv_2/expand/BatchNorm/moving_mean","op":"Const"},{"input":[],"attr":{"value":{"tensor":{"floatVal":[],"doubleVal":[],"intVal":[],"stringVal":[],"scomplexVal":[],"int64Val":[],"boolVal":[],"uint32Val":[],"uint64Val":[],"dtype":1,"tensorShape":{"dim":[{"size":"144"}]}}},"dtype":{"type":1}},"name":"MobilenetV2/expanded_conv_2/expand/BatchNorm/moving_variance","op":"Const"},{"input":[],"attr":{"value":{"tensor":{"floatVal":[],"doubleVal":[],"intVal":[],"stringVal":[],"scomplexVal":[],"int64Val":[],"boolVal":[],"uint32Val":[],"uint64Val":[],"dtype":1,"tensorShape":{"dim":[{"size":"3"},{"size":"3"},{"size":"144"},{"size":"1"}]}}},"dtype":{"type":1}},"name":"MobilenetV2/expanded_conv_2/depthwise/depthwise_weights","op":"Const"},{"input":[],"attr":{"value":{"tensor":{"floatVal":[],"doubleVal":[],"intVal":[],"stringVal":[],"scomplexVal":[],"int64Val":[],"boolVal":[],"uint32Val":[],"uint64Val":[],"dtype":1,"tensorShape":{"dim":[{"size":"144"}]}}},"dtype":{"type":1}},"name":"MobilenetV2/expanded_conv_2/depthwise/BatchNorm/gamma","op":"Const"},{"input":[],"attr":{"value":{"tensor":{"floatVal":[],"doubleVal":[],"intVal":[],"stringVal":[],"scomplexVal":[],"int64Val":[],"boolVal":[],"uint32Val":[],"uint64Val":[],"dtype":1,"tensorShape":{"dim":[{"size":"144"}]}}},"dtype":{"type":1}},"name":"MobilenetV2/expanded_conv_2/depthwise/BatchNorm/beta","op":"Const"},{"input":[],"attr":{"value":{"tensor":{"floatVal":[],"doubleVal":[],"intVal":[],"stringVal":[],"scomplexVal":[],"int64Val":[],"boolVal":[],"uint32Val":[],"uint64Val":[],"dtype":1,"tensorShape":{"dim":[{"size":"144"}]}}},"dtype":{"type":1}},"name":"MobilenetV2/expanded_conv_2/depthwise/BatchNorm/moving_mean","op":"Const"},{"input":[],"attr":{"value":{"tensor":{"floatVal":[],"doubleVal":[],"intVal":[],"stringVal":[],"scomplexVal":[],"int64Val":[],"boolVal":[],"uint32Val":[],"uint64Val":[],"dtype":1,"tensorShape":{"dim":[{"size":"144"}]}}},"dtype":{"type":1}},"name":"MobilenetV2/expanded_conv_2/depthwise/BatchNorm/moving_variance","op":"Const"},{"input":[],"attr":{"value":{"tensor":{"floatVal":[],"doubleVal":[],"intVal":[],"stringVal":[],"scomplexVal":[],"int64Val":[],"boolVal":[],"uint32Val":[],"uint64Val":[],"dtype":1,"tensorShape":{"dim":[{"size":"1"},{"size":"1"},{"size":"144"},{"size":"24"}]}}},"dtype":{"type":1}},"name":"MobilenetV2/expanded_conv_2/project/weights","op":"Const"},{"input":[],"attr":{"value":{"tensor":{"floatVal":[],"doubleVal":[],"intVal":[],"stringVal":[],"scomplexVal":[],"int64Val":[],"boolVal":[],"uint32Val":[],"uint64Val":[],"dtype":1,"tensorShape":{"dim":[{"size":"24"}]}}},"dtype":{"type":1}},"name":"MobilenetV2/expanded_conv_2/project/BatchNorm/gamma","op":"Const"},{"input":[],"attr":{"value":{"tensor":{"floatVal":[],"doubleVal":[],"intVal":[],"stringVal":[],"scomplexVal":[],"int64Val":[],"boolVal":[],"uint32Val":[],"uint64Val":[],"dtype":1,"tensorShape":{"dim":[{"size":"24"}]}}},"dtype":{"type":1}},"name":"MobilenetV2/expanded_conv_2/project/BatchNorm/beta","op":"Const"},{"input":[],"attr":{"value":{"tensor":{"floatVal":[],"doubleVal":[],"intVal":[],"stringVal":[],"scomplexVal":[],"int64Val":[],"boolVal":[],"uint32Val":[],"uint64Val":[],"dtype":1,"tensorShape":{"dim":[{"size":"24"}]}}},"dtype":{"type":1}},"name":"MobilenetV2/expanded_conv_2/project/BatchNorm/moving_mean","op":"Const"},{"input":[],"attr":{"value":{"tensor":{"floatVal":[],"doubleVal":[],"intVal":[],"stringVal":[],"scomplexVal":[],"int64Val":[],"boolVal":[],"uint32Val":[],"uint64Val":[],"dtype":1,"tensorShape":{"dim":[{"size":"24"}]}}},"dtype":{"type":1}},"name":"MobilenetV2/expanded_conv_2/project/BatchNorm/moving_variance","op":"Const"},{"input":[],"attr":{"shape":{"shape":{"dim":[{"size":"-1"},{"size":"-1"},{"size":"-1"},{"size":"3"}]}},"dtype":{"type":1}},"name":"Placeholder","op":"Placeholder"},{"input":[],"attr":{"value":{"tensor":{"floatVal":[],"doubleVal":[],"intVal":[],"stringVal":[],"scomplexVal":[],"int64Val":[],"boolVal":[],"uint32Val":[],"uint64Val":[],"dtype":1,"tensorShape":{"dim":[{"size":"3"},{"size":"3"},{"size":"3"},{"size":"32"}]}}},"dtype":{"type":1}},"name":"MobilenetV2/Conv/weights","op":"Const"},{"input":[],"attr":{"dtype":{"type":1},"value":{"tensor":{"floatVal":[],"doubleVal":[],"intVal":[],"stringVal":[],"scomplexVal":[],"int64Val":[],"boolVal":[],"uint32Val":[],"uint64Val":[],"dtype":1,"tensorShape":{"dim":[{"size":"32"}]}}}},"name":"MobilenetV2/Conv/BatchNorm/gamma","op":"Const"},{"input":[],"attr":{"value":{"tensor":{"floatVal":[],"doubleVal":[],"intVal":[],"stringVal":[],"scomplexVal":[],"int64Val":[],"boolVal":[],"uint32Val":[],"uint64Val":[],"dtype":1,"tensorShape":{"dim":[{"size":"32"}]}}},"dtype":{"type":1}},"name":"MobilenetV2/Conv/BatchNorm/beta","op":"Const"},{"input":[],"attr":{"value":{"tensor":{"floatVal":[],"doubleVal":[],"intVal":[],"stringVal":[],"scomplexVal":[],"int64Val":[],"boolVal":[],"uint32Val":[],"uint64Val":[],"dtype":1,"tensorShape":{"dim":[{"size":"32"}]}}},"dtype":{"type":1}},"name":"MobilenetV2/Conv/BatchNorm/moving_mean","op":"Const"},{"input":[],"attr":{"value":{"tensor":{"floatVal":[],"doubleVal":[],"intVal":[],"stringVal":[],"scomplexVal":[],"int64Val":[],"boolVal":[],"uint32Val":[],"uint64Val":[],"dtype":1,"tensorShape":{"dim":[{"size":"32"}]}}},"dtype":{"type":1}},"name":"MobilenetV2/Conv/BatchNorm/moving_variance","op":"Const"},{"input":[],"attr":{"value":{"tensor":{"floatVal":[],"doubleVal":[],"intVal":[],"stringVal":[],"scomplexVal":[],"int64Val":[],"boolVal":[],"uint32Val":[],"uint64Val":[],"dtype":1,"tensorShape":{"dim":[{"size":"3"},{"size":"3"},{"size":"32"},{"size":"1"}]}}},"dtype":{"type":1}},"name":"MobilenetV2/expanded_conv/depthwise/depthwise_weights","op":"Const"},{"input":[],"attr":{"value":{"tensor":{"floatVal":[],"doubleVal":[],"intVal":[],"stringVal":[],"scomplexVal":[],"int64Val":[],"boolVal":[],"uint32Val":[],"uint64Val":[],"dtype":1,"tensorShape":{"dim":[{"size":"32"}]}}},"dtype":{"type":1}},"name":"MobilenetV2/expanded_conv/depthwise/BatchNorm/gamma","op":"Const"},{"input":[],"attr":{"value":{"tensor":{"floatVal":[],"doubleVal":[],"intVal":[],"stringVal":[],"scomplexVal":[],"int64Val":[],"boolVal":[],"uint32Val":[],"uint64Val":[],"dtype":1,"tensorShape":{"dim":[{"size":"32"}]}}},"dtype":{"type":1}},"name":"MobilenetV2/expanded_conv/depthwise/BatchNorm/beta","op":"Const"},{"input":[],"attr":{"value":{"tensor":{"floatVal":[],"doubleVal":[],"intVal":[],"stringVal":[],"scomplexVal":[],"int64Val":[],"boolVal":[],"uint32Val":[],"uint64Val":[],"dtype":1,"tensorShape":{"dim":[{"size":"32"}]}}},"dtype":{"type":1}},"name":"MobilenetV2/expanded_conv/depthwise/BatchNorm/moving_mean","op":"Const"},{"input":[],"attr":{"value":{"tensor":{"floatVal":[],"doubleVal":[],"intVal":[],"stringVal":[],"scomplexVal":[],"int64Val":[],"boolVal":[],"uint32Val":[],"uint64Val":[],"dtype":1,"tensorShape":{"dim":[{"size":"32"}]}}},"dtype":{"type":1}},"name":"MobilenetV2/expanded_conv/depthwise/BatchNorm/moving_variance","op":"Const"},{"input":[],"attr":{"dtype":{"type":1},"value":{"tensor":{"floatVal":[],"doubleVal":[],"intVal":[],"stringVal":[],"scomplexVal":[],"int64Val":[],"boolVal":[],"uint32Val":[],"uint64Val":[],"dtype":1,"tensorShape":{"dim":[{"size":"1"},{"size":"1"},{"size":"32"},{"size":"16"}]}}}},"name":"MobilenetV2/expanded_conv/project/weights","op":"Const"},{"input":[],"attr":{"value":{"tensor":{"floatVal":[],"doubleVal":[],"intVal":[],"stringVal":[],"scomplexVal":[],"int64Val":[],"boolVal":[],"uint32Val":[],"uint64Val":[],"dtype":1,"tensorShape":{"dim":[{"size":"16"}]}}},"dtype":{"type":1}},"name":"MobilenetV2/expanded_conv/project/BatchNorm/gamma","op":"Const"},{"input":[],"attr":{"dtype":{"type":1},"value":{"tensor":{"floatVal":[],"doubleVal":[],"intVal":[],"stringVal":[],"scomplexVal":[],"int64Val":[],"boolVal":[],"uint32Val":[],"uint64Val":[],"dtype":1,"tensorShape":{"dim":[{"size":"16"}]}}}},"name":"MobilenetV2/expanded_conv/project/BatchNorm/beta","op":"Const"},{"input":[],"attr":{"value":{"tensor":{"floatVal":[],"doubleVal":[],"intVal":[],"stringVal":[],"scomplexVal":[],"int64Val":[],"boolVal":[],"uint32Val":[],"uint64Val":[],"dtype":1,"tensorShape":{"dim":[{"size":"16"}]}}},"dtype":{"type":1}},"name":"MobilenetV2/expanded_conv/project/BatchNorm/moving_mean","op":"Const"},{"input":[],"attr":{"value":{"tensor":{"floatVal":[],"doubleVal":[],"intVal":[],"stringVal":[],"scomplexVal":[],"int64Val":[],"boolVal":[],"uint32Val":[],"uint64Val":[],"dtype":1,"tensorShape":{"dim":[{"size":"16"}]}}},"dtype":{"type":1}},"name":"MobilenetV2/expanded_conv/project/BatchNorm/moving_variance","op":"Const"},{"input":[],"attr":{"dtype":{"type":1},"value":{"tensor":{"floatVal":[],"doubleVal":[],"intVal":[],"stringVal":[],"scomplexVal":[],"int64Val":[],"boolVal":[],"uint32Val":[],"uint64Val":[],"dtype":1,"tensorShape":{"dim":[{"size":"1"},{"size":"1"},{"size":"16"},{"size":"96"}]}}}},"name":"MobilenetV2/expanded_conv_1/expand/weights","op":"Const"},{"input":[],"attr":{"value":{"tensor":{"floatVal":[],"doubleVal":[],"intVal":[],"stringVal":[],"scomplexVal":[],"int64Val":[],"boolVal":[],"uint32Val":[],"uint64Val":[],"dtype":1,"tensorShape":{"dim":[{"size":"96"}]}}},"dtype":{"type":1}},"name":"MobilenetV2/expanded_conv_1/expand/BatchNorm/gamma","op":"Const"},{"input":[],"attr":{"value":{"tensor":{"floatVal":[],"doubleVal":[],"intVal":[],"stringVal":[],"scomplexVal":[],"int64Val":[],"boolVal":[],"uint32Val":[],"uint64Val":[],"dtype":1,"tensorShape":{"dim":[{"size":"96"}]}}},"dtype":{"type":1}},"name":"MobilenetV2/expanded_conv_1/expand/BatchNorm/beta","op":"Const"},{"input":[],"attr":{"value":{"tensor":{"floatVal":[],"doubleVal":[],"intVal":[],"stringVal":[],"scomplexVal":[],"int64Val":[],"boolVal":[],"uint32Val":[],"uint64Val":[],"dtype":1,"tensorShape":{"dim":[{"size":"96"}]}}},"dtype":{"type":1}},"name":"MobilenetV2/expanded_conv_1/expand/BatchNorm/moving_mean","op":"Const"},{"input":[],"attr":{"value":{"tensor":{"floatVal":[],"doubleVal":[],"intVal":[],"stringVal":[],"scomplexVal":[],"int64Val":[],"boolVal":[],"uint32Val":[],"uint64Val":[],"dtype":1,"tensorShape":{"dim":[{"size":"96"}]}}},"dtype":{"type":1}},"name":"MobilenetV2/expanded_conv_1/expand/BatchNorm/moving_variance","op":"Const"},{"input":[],"attr":{"value":{"tensor":{"floatVal":[],"doubleVal":[],"intVal":[],"stringVal":[],"scomplexVal":[],"int64Val":[],"boolVal":[],"uint32Val":[],"uint64Val":[],"dtype":1,"tensorShape":{"dim":[{"size":"3"},{"size":"3"},{"size":"96"},{"size":"1"}]}}},"dtype":{"type":1}},"name":"MobilenetV2/expanded_conv_1/depthwise/depthwise_weights","op":"Const"},{"input":[],"attr":{"value":{"tensor":{"floatVal":[],"doubleVal":[],"intVal":[],"stringVal":[],"scomplexVal":[],"int64Val":[],"boolVal":[],"uint32Val":[],"uint64Val":[],"dtype":1,"tensorShape":{"dim":[{"size":"96"}]}}},"dtype":{"type":1}},"name":"MobilenetV2/expanded_conv_1/depthwise/BatchNorm/gamma","op":"Const"},{"input":[],"attr":{"value":{"tensor":{"floatVal":[],"doubleVal":[],"intVal":[],"stringVal":[],"scomplexVal":[],"int64Val":[],"boolVal":[],"uint32Val":[],"uint64Val":[],"dtype":1,"tensorShape":{"dim":[{"size":"96"}]}}},"dtype":{"type":1}},"name":"MobilenetV2/expanded_conv_1/depthwise/BatchNorm/beta","op":"Const"},{"input":[],"attr":{"value":{"tensor":{"floatVal":[],"doubleVal":[],"intVal":[],"stringVal":[],"scomplexVal":[],"int64Val":[],"boolVal":[],"uint32Val":[],"uint64Val":[],"dtype":1,"tensorShape":{"dim":[{"size":"96"}]}}},"dtype":{"type":1}},"name":"MobilenetV2/expanded_conv_1/depthwise/BatchNorm/moving_mean","op":"Const"},{"input":[],"attr":{"value":{"tensor":{"floatVal":[],"doubleVal":[],"intVal":[],"stringVal":[],"scomplexVal":[],"int64Val":[],"boolVal":[],"uint32Val":[],"uint64Val":[],"dtype":1,"tensorShape":{"dim":[{"size":"96"}]}}},"dtype":{"type":1}},"name":"MobilenetV2/expanded_conv_1/depthwise/BatchNorm/moving_variance","op":"Const"},{"input":[],"attr":{"value":{"tensor":{"floatVal":[],"doubleVal":[],"intVal":[],"stringVal":[],"scomplexVal":[],"int64Val":[],"boolVal":[],"uint32Val":[],"uint64Val":[],"dtype":1,"tensorShape":{"dim":[{"size":"1"},{"size":"1"},{"size":"96"},{"size":"24"}]}}},"dtype":{"type":1}},"name":"MobilenetV2/expanded_conv_1/project/weights","op":"Const"},{"input":[],"attr":{"value":{"tensor":{"floatVal":[],"doubleVal":[],"intVal":[],"stringVal":[],"scomplexVal":[],"int64Val":[],"boolVal":[],"uint32Val":[],"uint64Val":[],"dtype":1,"tensorShape":{"dim":[{"size":"24"}]}}},"dtype":{"type":1}},"name":"MobilenetV2/expanded_conv_1/project/BatchNorm/gamma","op":"Const"},{"input":[],"attr":{"value":{"tensor":{"floatVal":[],"doubleVal":[],"intVal":[],"stringVal":[],"scomplexVal":[],"int64Val":[],"boolVal":[],"uint32Val":[],"uint64Val":[],"dtype":1,"tensorShape":{"dim":[{"size":"24"}]}}},"dtype":{"type":1}},"name":"MobilenetV2/expanded_conv_1/project/BatchNorm/beta","op":"Const"},{"input":[],"attr":{"value":{"tensor":{"floatVal":[],"doubleVal":[],"intVal":[],"stringVal":[],"scomplexVal":[],"int64Val":[],"boolVal":[],"uint32Val":[],"uint64Val":[],"dtype":1,"tensorShape":{"dim":[{"size":"24"}]}}},"dtype":{"type":1}},"name":"MobilenetV2/expanded_conv_1/project/BatchNorm/moving_mean","op":"Const"},{"input":[],"attr":{"value":{"tensor":{"floatVal":[],"doubleVal":[],"intVal":[],"stringVal":[],"scomplexVal":[],"int64Val":[],"boolVal":[],"uint32Val":[],"uint64Val":[],"dtype":1,"tensorShape":{"dim":[{"size":"24"}]}}},"dtype":{"type":1}},"name":"MobilenetV2/expanded_conv_1/project/BatchNorm/moving_variance","op":"Const"},{"input":[],"attr":{"value":{"tensor":{"floatVal":[],"doubleVal":[],"intVal":[],"stringVal":[],"scomplexVal":[],"int64Val":[],"boolVal":[],"uint32Val":[],"uint64Val":[],"dtype":1,"tensorShape":{"dim":[{"size":"1"},{"size":"1"},{"size":"24"},{"size":"144"}]}}},"dtype":{"type":1}},"name":"MobilenetV2/expanded_conv_3/expand/weights","op":"Const"},{"input":[],"attr":{"value":{"tensor":{"floatVal":[],"doubleVal":[],"intVal":[],"stringVal":[],"scomplexVal":[],"int64Val":[],"boolVal":[],"uint32Val":[],"uint64Val":[],"dtype":1,"tensorShape":{"dim":[{"size":"144"}]}}},"dtype":{"type":1}},"name":"MobilenetV2/expanded_conv_3/expand/BatchNorm/gamma","op":"Const"},{"input":[],"attr":{"value":{"tensor":{"floatVal":[],"doubleVal":[],"intVal":[],"stringVal":[],"scomplexVal":[],"int64Val":[],"boolVal":[],"uint32Val":[],"uint64Val":[],"dtype":1,"tensorShape":{"dim":[{"size":"144"}]}}},"dtype":{"type":1}},"name":"MobilenetV2/expanded_conv_3/expand/BatchNorm/beta","op":"Const"},{"input":[],"attr":{"dtype":{"type":1},"value":{"tensor":{"floatVal":[],"doubleVal":[],"intVal":[],"stringVal":[],"scomplexVal":[],"int64Val":[],"boolVal":[],"uint32Val":[],"uint64Val":[],"dtype":1,"tensorShape":{"dim":[{"size":"144"}]}}}},"name":"MobilenetV2/expanded_conv_3/expand/BatchNorm/moving_mean","op":"Const"},{"input":[],"attr":{"value":{"tensor":{"floatVal":[],"doubleVal":[],"intVal":[],"stringVal":[],"scomplexVal":[],"int64Val":[],"boolVal":[],"uint32Val":[],"uint64Val":[],"dtype":1,"tensorShape":{"dim":[{"size":"144"}]}}},"dtype":{"type":1}},"name":"MobilenetV2/expanded_conv_3/expand/BatchNorm/moving_variance","op":"Const"},{"input":[],"attr":{"value":{"tensor":{"floatVal":[],"doubleVal":[],"intVal":[],"stringVal":[],"scomplexVal":[],"int64Val":[],"boolVal":[],"uint32Val":[],"uint64Val":[],"dtype":1,"tensorShape":{"dim":[{"size":"3"},{"size":"3"},{"size":"144"},{"size":"1"}]}}},"dtype":{"type":1}},"name":"MobilenetV2/expanded_conv_3/depthwise/depthwise_weights","op":"Const"},{"input":[],"attr":{"value":{"tensor":{"floatVal":[],"doubleVal":[],"intVal":[],"stringVal":[],"scomplexVal":[],"int64Val":[],"boolVal":[],"uint32Val":[],"uint64Val":[],"dtype":1,"tensorShape":{"dim":[{"size":"144"}]}}},"dtype":{"type":1}},"name":"MobilenetV2/expanded_conv_3/depthwise/BatchNorm/gamma","op":"Const"},{"input":[],"attr":{"dtype":{"type":1},"value":{"tensor":{"floatVal":[],"doubleVal":[],"intVal":[],"stringVal":[],"scomplexVal":[],"int64Val":[],"boolVal":[],"uint32Val":[],"uint64Val":[],"dtype":1,"tensorShape":{"dim":[{"size":"144"}]}}}},"name":"MobilenetV2/expanded_conv_3/depthwise/BatchNorm/beta","op":"Const"},{"input":[],"attr":{"value":{"tensor":{"floatVal":[],"doubleVal":[],"intVal":[],"stringVal":[],"scomplexVal":[],"int64Val":[],"boolVal":[],"uint32Val":[],"uint64Val":[],"dtype":1,"tensorShape":{"dim":[{"size":"144"}]}}},"dtype":{"type":1}},"name":"MobilenetV2/expanded_conv_3/depthwise/BatchNorm/moving_mean","op":"Const"},{"input":[],"attr":{"value":{"tensor":{"floatVal":[],"doubleVal":[],"intVal":[],"stringVal":[],"scomplexVal":[],"int64Val":[],"boolVal":[],"uint32Val":[],"uint64Val":[],"dtype":1,"tensorShape":{"dim":[{"size":"144"}]}}},"dtype":{"type":1}},"name":"MobilenetV2/expanded_conv_3/depthwise/BatchNorm/moving_variance","op":"Const"},{"input":[],"attr":{"value":{"tensor":{"floatVal":[],"doubleVal":[],"intVal":[],"stringVal":[],"scomplexVal":[],"int64Val":[],"boolVal":[],"uint32Val":[],"uint64Val":[],"dtype":1,"tensorShape":{"dim":[{"size":"1"},{"size":"1"},{"size":"144"},{"size":"32"}]}}},"dtype":{"type":1}},"name":"MobilenetV2/expanded_conv_3/project/weights","op":"Const"},{"input":[],"attr":{"dtype":{"type":1},"value":{"tensor":{"floatVal":[],"doubleVal":[],"intVal":[],"stringVal":[],"scomplexVal":[],"int64Val":[],"boolVal":[],"uint32Val":[],"uint64Val":[],"dtype":1,"tensorShape":{"dim":[{"size":"32"}]}}}},"name":"MobilenetV2/expanded_conv_3/project/BatchNorm/gamma","op":"Const"},{"input":[],"attr":{"value":{"tensor":{"floatVal":[],"doubleVal":[],"intVal":[],"stringVal":[],"scomplexVal":[],"int64Val":[],"boolVal":[],"uint32Val":[],"uint64Val":[],"dtype":1,"tensorShape":{"dim":[{"size":"32"}]}}},"dtype":{"type":1}},"name":"MobilenetV2/expanded_conv_3/project/BatchNorm/beta","op":"Const"},{"input":[],"attr":{"value":{"tensor":{"floatVal":[],"doubleVal":[],"intVal":[],"stringVal":[],"scomplexVal":[],"int64Val":[],"boolVal":[],"uint32Val":[],"uint64Val":[],"dtype":1,"tensorShape":{"dim":[{"size":"32"}]}}},"dtype":{"type":1}},"name":"MobilenetV2/expanded_conv_3/project/BatchNorm/moving_mean","op":"Const"},{"input":[],"attr":{"value":{"tensor":{"floatVal":[],"doubleVal":[],"intVal":[],"stringVal":[],"scomplexVal":[],"int64Val":[],"boolVal":[],"uint32Val":[],"uint64Val":[],"dtype":1,"tensorShape":{"dim":[{"size":"32"}]}}},"dtype":{"type":1}},"name":"MobilenetV2/expanded_conv_3/project/BatchNorm/moving_variance","op":"Const"},{"input":[],"attr":{"value":{"tensor":{"floatVal":[],"doubleVal":[],"intVal":[],"stringVal":[],"scomplexVal":[],"int64Val":[],"boolVal":[],"uint32Val":[],"uint64Val":[],"dtype":1,"tensorShape":{"dim":[{"size":"1"},{"size":"1"},{"size":"32"},{"size":"192"}]}}},"dtype":{"type":1}},"name":"MobilenetV2/expanded_conv_6/expand/weights","op":"Const"},{"input":[],"attr":{"value":{"tensor":{"floatVal":[],"doubleVal":[],"intVal":[],"stringVal":[],"scomplexVal":[],"int64Val":[],"boolVal":[],"uint32Val":[],"uint64Val":[],"dtype":1,"tensorShape":{"dim":[{"size":"192"}]}}},"dtype":{"type":1}},"name":"MobilenetV2/expanded_conv_6/expand/BatchNorm/gamma","op":"Const"},{"input":[],"attr":{"value":{"tensor":{"floatVal":[],"doubleVal":[],"intVal":[],"stringVal":[],"scomplexVal":[],"int64Val":[],"boolVal":[],"uint32Val":[],"uint64Val":[],"dtype":1,"tensorShape":{"dim":[{"size":"192"}]}}},"dtype":{"type":1}},"name":"MobilenetV2/expanded_conv_6/expand/BatchNorm/beta","op":"Const"},{"input":[],"attr":{"value":{"tensor":{"floatVal":[],"doubleVal":[],"intVal":[],"stringVal":[],"scomplexVal":[],"int64Val":[],"boolVal":[],"uint32Val":[],"uint64Val":[],"dtype":1,"tensorShape":{"dim":[{"size":"192"}]}}},"dtype":{"type":1}},"name":"MobilenetV2/expanded_conv_6/expand/BatchNorm/moving_mean","op":"Const"},{"input":[],"attr":{"dtype":{"type":1},"value":{"tensor":{"floatVal":[],"doubleVal":[],"intVal":[],"stringVal":[],"scomplexVal":[],"int64Val":[],"boolVal":[],"uint32Val":[],"uint64Val":[],"dtype":1,"tensorShape":{"dim":[{"size":"192"}]}}}},"name":"MobilenetV2/expanded_conv_6/expand/BatchNorm/moving_variance","op":"Const"},{"input":[],"attr":{"value":{"tensor":{"floatVal":[],"doubleVal":[],"intVal":[],"stringVal":[],"scomplexVal":[],"int64Val":[],"boolVal":[],"uint32Val":[],"uint64Val":[],"dtype":1,"tensorShape":{"dim":[{"size":"3"},{"size":"3"},{"size":"192"},{"size":"1"}]}}},"dtype":{"type":1}},"name":"MobilenetV2/expanded_conv_6/depthwise/depthwise_weights","op":"Const"},{"input":[],"attr":{"dtype":{"type":1},"value":{"tensor":{"floatVal":[],"doubleVal":[],"intVal":[],"stringVal":[],"scomplexVal":[],"int64Val":[],"boolVal":[],"uint32Val":[],"uint64Val":[],"dtype":1,"tensorShape":{"dim":[{"size":"192"}]}}}},"name":"MobilenetV2/expanded_conv_6/depthwise/BatchNorm/gamma","op":"Const"},{"input":[],"attr":{"value":{"tensor":{"floatVal":[],"doubleVal":[],"intVal":[],"stringVal":[],"scomplexVal":[],"int64Val":[],"boolVal":[],"uint32Val":[],"uint64Val":[],"dtype":1,"tensorShape":{"dim":[{"size":"192"}]}}},"dtype":{"type":1}},"name":"MobilenetV2/expanded_conv_6/depthwise/BatchNorm/beta","op":"Const"},{"input":[],"attr":{"value":{"tensor":{"floatVal":[],"doubleVal":[],"intVal":[],"stringVal":[],"scomplexVal":[],"int64Val":[],"boolVal":[],"uint32Val":[],"uint64Val":[],"dtype":1,"tensorShape":{"dim":[{"size":"192"}]}}},"dtype":{"type":1}},"name":"MobilenetV2/expanded_conv_6/depthwise/BatchNorm/moving_mean","op":"Const"},{"input":[],"attr":{"value":{"tensor":{"floatVal":[],"doubleVal":[],"intVal":[],"stringVal":[],"scomplexVal":[],"int64Val":[],"boolVal":[],"uint32Val":[],"uint64Val":[],"dtype":1,"tensorShape":{"dim":[{"size":"192"}]}}},"dtype":{"type":1}},"name":"MobilenetV2/expanded_conv_6/depthwise/BatchNorm/moving_variance","op":"Const"},{"input":[],"attr":{"value":{"tensor":{"floatVal":[],"doubleVal":[],"intVal":[],"stringVal":[],"scomplexVal":[],"int64Val":[],"boolVal":[],"uint32Val":[],"uint64Val":[],"dtype":1,"tensorShape":{"dim":[{"size":"1"},{"size":"1"},{"size":"192"},{"size":"64"}]}}},"dtype":{"type":1}},"name":"MobilenetV2/expanded_conv_6/project/weights","op":"Const"},{"input":[],"attr":{"value":{"tensor":{"floatVal":[],"doubleVal":[],"intVal":[],"stringVal":[],"scomplexVal":[],"int64Val":[],"boolVal":[],"uint32Val":[],"uint64Val":[],"dtype":1,"tensorShape":{"dim":[{"size":"64"}]}}},"dtype":{"type":1}},"name":"MobilenetV2/expanded_conv_6/project/BatchNorm/gamma","op":"Const"},{"input":[],"attr":{"value":{"tensor":{"floatVal":[],"doubleVal":[],"intVal":[],"stringVal":[],"scomplexVal":[],"int64Val":[],"boolVal":[],"uint32Val":[],"uint64Val":[],"dtype":1,"tensorShape":{"dim":[{"size":"64"}]}}},"dtype":{"type":1}},"name":"MobilenetV2/expanded_conv_6/project/BatchNorm/beta","op":"Const"},{"input":[],"attr":{"dtype":{"type":1},"value":{"tensor":{"floatVal":[],"doubleVal":[],"intVal":[],"stringVal":[],"scomplexVal":[],"int64Val":[],"boolVal":[],"uint32Val":[],"uint64Val":[],"dtype":1,"tensorShape":{"dim":[{"size":"64"}]}}}},"name":"MobilenetV2/expanded_conv_6/project/BatchNorm/moving_mean","op":"Const"},{"input":[],"attr":{"value":{"tensor":{"floatVal":[],"doubleVal":[],"intVal":[],"stringVal":[],"scomplexVal":[],"int64Val":[],"boolVal":[],"uint32Val":[],"uint64Val":[],"dtype":1,"tensorShape":{"dim":[{"size":"64"}]}}},"dtype":{"type":1}},"name":"MobilenetV2/expanded_conv_6/project/BatchNorm/moving_variance","op":"Const"},{"input":[],"attr":{"value":{"tensor":{"floatVal":[],"doubleVal":[],"intVal":[],"stringVal":[],"scomplexVal":[],"int64Val":[],"boolVal":[],"uint32Val":[],"uint64Val":[],"dtype":1,"tensorShape":{"dim":[{"size":"1"},{"size":"1"},{"size":"64"},{"size":"384"}]}}},"dtype":{"type":1}},"name":"MobilenetV2/expanded_conv_10/expand/weights","op":"Const"},{"input":[],"attr":{"value":{"tensor":{"floatVal":[],"doubleVal":[],"intVal":[],"stringVal":[],"scomplexVal":[],"int64Val":[],"boolVal":[],"uint32Val":[],"uint64Val":[],"dtype":1,"tensorShape":{"dim":[{"size":"384"}]}}},"dtype":{"type":1}},"name":"MobilenetV2/expanded_conv_10/expand/BatchNorm/gamma","op":"Const"},{"input":[],"attr":{"value":{"tensor":{"floatVal":[],"doubleVal":[],"intVal":[],"stringVal":[],"scomplexVal":[],"int64Val":[],"boolVal":[],"uint32Val":[],"uint64Val":[],"dtype":1,"tensorShape":{"dim":[{"size":"384"}]}}},"dtype":{"type":1}},"name":"MobilenetV2/expanded_conv_10/expand/BatchNorm/beta","op":"Const"},{"input":[],"attr":{"value":{"tensor":{"floatVal":[],"doubleVal":[],"intVal":[],"stringVal":[],"scomplexVal":[],"int64Val":[],"boolVal":[],"uint32Val":[],"uint64Val":[],"dtype":1,"tensorShape":{"dim":[{"size":"384"}]}}},"dtype":{"type":1}},"name":"MobilenetV2/expanded_conv_10/expand/BatchNorm/moving_mean","op":"Const"},{"input":[],"attr":{"value":{"tensor":{"floatVal":[],"doubleVal":[],"intVal":[],"stringVal":[],"scomplexVal":[],"int64Val":[],"boolVal":[],"uint32Val":[],"uint64Val":[],"dtype":1,"tensorShape":{"dim":[{"size":"384"}]}}},"dtype":{"type":1}},"name":"MobilenetV2/expanded_conv_10/expand/BatchNorm/moving_variance","op":"Const"},{"input":[],"attr":{"value":{"tensor":{"floatVal":[],"doubleVal":[],"intVal":[],"stringVal":[],"scomplexVal":[],"int64Val":[],"boolVal":[],"uint32Val":[],"uint64Val":[],"dtype":1,"tensorShape":{"dim":[{"size":"3"},{"size":"3"},{"size":"384"},{"size":"1"}]}}},"dtype":{"type":1}},"name":"MobilenetV2/expanded_conv_10/depthwise/depthwise_weights","op":"Const"},{"input":[],"attr":{"value":{"tensor":{"floatVal":[],"doubleVal":[],"intVal":[],"stringVal":[],"scomplexVal":[],"int64Val":[],"boolVal":[],"uint32Val":[],"uint64Val":[],"dtype":1,"tensorShape":{"dim":[{"size":"384"}]}}},"dtype":{"type":1}},"name":"MobilenetV2/expanded_conv_10/depthwise/BatchNorm/gamma","op":"Const"},{"input":[],"attr":{"value":{"tensor":{"floatVal":[],"doubleVal":[],"intVal":[],"stringVal":[],"scomplexVal":[],"int64Val":[],"boolVal":[],"uint32Val":[],"uint64Val":[],"dtype":1,"tensorShape":{"dim":[{"size":"384"}]}}},"dtype":{"type":1}},"name":"MobilenetV2/expanded_conv_10/depthwise/BatchNorm/beta","op":"Const"},{"input":[],"attr":{"value":{"tensor":{"floatVal":[],"doubleVal":[],"intVal":[],"stringVal":[],"scomplexVal":[],"int64Val":[],"boolVal":[],"uint32Val":[],"uint64Val":[],"dtype":1,"tensorShape":{"dim":[{"size":"384"}]}}},"dtype":{"type":1}},"name":"MobilenetV2/expanded_conv_10/depthwise/BatchNorm/moving_mean","op":"Const"},{"input":[],"attr":{"value":{"tensor":{"floatVal":[],"doubleVal":[],"intVal":[],"stringVal":[],"scomplexVal":[],"int64Val":[],"boolVal":[],"uint32Val":[],"uint64Val":[],"dtype":1,"tensorShape":{"dim":[{"size":"384"}]}}},"dtype":{"type":1}},"name":"MobilenetV2/expanded_conv_10/depthwise/BatchNorm/moving_variance","op":"Const"},{"input":[],"attr":{"value":{"tensor":{"floatVal":[],"doubleVal":[],"intVal":[],"stringVal":[],"scomplexVal":[],"int64Val":[],"boolVal":[],"uint32Val":[],"uint64Val":[],"dtype":1,"tensorShape":{"dim":[{"size":"1"},{"size":"1"},{"size":"384"},{"size":"96"}]}}},"dtype":{"type":1}},"name":"MobilenetV2/expanded_conv_10/project/weights","op":"Const"},{"input":[],"attr":{"dtype":{"type":1},"value":{"tensor":{"floatVal":[],"doubleVal":[],"intVal":[],"stringVal":[],"scomplexVal":[],"int64Val":[],"boolVal":[],"uint32Val":[],"uint64Val":[],"dtype":1,"tensorShape":{"dim":[{"size":"96"}]}}}},"name":"MobilenetV2/expanded_conv_10/project/BatchNorm/gamma","op":"Const"},{"input":[],"attr":{"value":{"tensor":{"floatVal":[],"doubleVal":[],"intVal":[],"stringVal":[],"scomplexVal":[],"int64Val":[],"boolVal":[],"uint32Val":[],"uint64Val":[],"dtype":1,"tensorShape":{"dim":[{"size":"96"}]}}},"dtype":{"type":1}},"name":"MobilenetV2/expanded_conv_10/project/BatchNorm/beta","op":"Const"},{"input":[],"attr":{"value":{"tensor":{"floatVal":[],"doubleVal":[],"intVal":[],"stringVal":[],"scomplexVal":[],"int64Val":[],"boolVal":[],"uint32Val":[],"uint64Val":[],"dtype":1,"tensorShape":{"dim":[{"size":"96"}]}}},"dtype":{"type":1}},"name":"MobilenetV2/expanded_conv_10/project/BatchNorm/moving_mean","op":"Const"},{"input":[],"attr":{"value":{"tensor":{"floatVal":[],"doubleVal":[],"intVal":[],"stringVal":[],"scomplexVal":[],"int64Val":[],"boolVal":[],"uint32Val":[],"uint64Val":[],"dtype":1,"tensorShape":{"dim":[{"size":"96"}]}}},"dtype":{"type":1}},"name":"MobilenetV2/expanded_conv_10/project/BatchNorm/moving_variance","op":"Const"},{"input":[],"attr":{"value":{"tensor":{"floatVal":[],"doubleVal":[],"intVal":[],"stringVal":[],"scomplexVal":[],"int64Val":[],"boolVal":[],"uint32Val":[],"uint64Val":[],"dtype":1,"tensorShape":{"dim":[{"size":"1"},{"size":"1"},{"size":"96"},{"size":"576"}]}}},"dtype":{"type":1}},"name":"MobilenetV2/expanded_conv_13/expand/weights","op":"Const"},{"input":[],"attr":{"dtype":{"type":1},"value":{"tensor":{"floatVal":[],"doubleVal":[],"intVal":[],"stringVal":[],"scomplexVal":[],"int64Val":[],"boolVal":[],"uint32Val":[],"uint64Val":[],"dtype":1,"tensorShape":{"dim":[{"size":"576"}]}}}},"name":"MobilenetV2/expanded_conv_13/expand/BatchNorm/gamma","op":"Const"},{"input":[],"attr":{"dtype":{"type":1},"value":{"tensor":{"floatVal":[],"doubleVal":[],"intVal":[],"stringVal":[],"scomplexVal":[],"int64Val":[],"boolVal":[],"uint32Val":[],"uint64Val":[],"dtype":1,"tensorShape":{"dim":[{"size":"576"}]}}}},"name":"MobilenetV2/expanded_conv_13/expand/BatchNorm/beta","op":"Const"},{"input":[],"attr":{"value":{"tensor":{"floatVal":[],"doubleVal":[],"intVal":[],"stringVal":[],"scomplexVal":[],"int64Val":[],"boolVal":[],"uint32Val":[],"uint64Val":[],"dtype":1,"tensorShape":{"dim":[{"size":"576"}]}}},"dtype":{"type":1}},"name":"MobilenetV2/expanded_conv_13/expand/BatchNorm/moving_mean","op":"Const"},{"input":[],"attr":{"value":{"tensor":{"floatVal":[],"doubleVal":[],"intVal":[],"stringVal":[],"scomplexVal":[],"int64Val":[],"boolVal":[],"uint32Val":[],"uint64Val":[],"dtype":1,"tensorShape":{"dim":[{"size":"576"}]}}},"dtype":{"type":1}},"name":"MobilenetV2/expanded_conv_13/expand/BatchNorm/moving_variance","op":"Const"},{"input":[],"attr":{"dtype":{"type":1},"value":{"tensor":{"floatVal":[],"doubleVal":[],"intVal":[],"stringVal":[],"scomplexVal":[],"int64Val":[],"boolVal":[],"uint32Val":[],"uint64Val":[],"dtype":1,"tensorShape":{"dim":[{"size":"3"},{"size":"3"},{"size":"576"},{"size":"1"}]}}}},"name":"MobilenetV2/expanded_conv_13/depthwise/depthwise_weights","op":"Const"},{"input":[],"attr":{"dtype":{"type":1},"value":{"tensor":{"floatVal":[],"doubleVal":[],"intVal":[],"stringVal":[],"scomplexVal":[],"int64Val":[],"boolVal":[],"uint32Val":[],"uint64Val":[],"dtype":1,"tensorShape":{"dim":[{"size":"576"}]}}}},"name":"MobilenetV2/expanded_conv_13/depthwise/BatchNorm/gamma","op":"Const"},{"input":[],"attr":{"value":{"tensor":{"floatVal":[],"doubleVal":[],"intVal":[],"stringVal":[],"scomplexVal":[],"int64Val":[],"boolVal":[],"uint32Val":[],"uint64Val":[],"dtype":1,"tensorShape":{"dim":[{"size":"576"}]}}},"dtype":{"type":1}},"name":"MobilenetV2/expanded_conv_13/depthwise/BatchNorm/beta","op":"Const"},{"input":[],"attr":{"value":{"tensor":{"floatVal":[],"doubleVal":[],"intVal":[],"stringVal":[],"scomplexVal":[],"int64Val":[],"boolVal":[],"uint32Val":[],"uint64Val":[],"dtype":1,"tensorShape":{"dim":[{"size":"576"}]}}},"dtype":{"type":1}},"name":"MobilenetV2/expanded_conv_13/depthwise/BatchNorm/moving_mean","op":"Const"},{"input":[],"attr":{"value":{"tensor":{"floatVal":[],"doubleVal":[],"intVal":[],"stringVal":[],"scomplexVal":[],"int64Val":[],"boolVal":[],"uint32Val":[],"uint64Val":[],"dtype":1,"tensorShape":{"dim":[{"size":"576"}]}}},"dtype":{"type":1}},"name":"MobilenetV2/expanded_conv_13/depthwise/BatchNorm/moving_variance","op":"Const"},{"input":[],"attr":{"dtype":{"type":1},"value":{"tensor":{"floatVal":[],"doubleVal":[],"intVal":[],"stringVal":[],"scomplexVal":[],"int64Val":[],"boolVal":[],"uint32Val":[],"uint64Val":[],"dtype":1,"tensorShape":{"dim":[{"size":"1"},{"size":"1"},{"size":"576"},{"size":"160"}]}}}},"name":"MobilenetV2/expanded_conv_13/project/weights","op":"Const"},{"input":[],"attr":{"value":{"tensor":{"floatVal":[],"doubleVal":[],"intVal":[],"stringVal":[],"scomplexVal":[],"int64Val":[],"boolVal":[],"uint32Val":[],"uint64Val":[],"dtype":1,"tensorShape":{"dim":[{"size":"160"}]}}},"dtype":{"type":1}},"name":"MobilenetV2/expanded_conv_13/project/BatchNorm/gamma","op":"Const"},{"input":[],"attr":{"value":{"tensor":{"floatVal":[],"doubleVal":[],"intVal":[],"stringVal":[],"scomplexVal":[],"int64Val":[],"boolVal":[],"uint32Val":[],"uint64Val":[],"dtype":1,"tensorShape":{"dim":[{"size":"160"}]}}},"dtype":{"type":1}},"name":"MobilenetV2/expanded_conv_13/project/BatchNorm/beta","op":"Const"},{"input":[],"attr":{"value":{"tensor":{"floatVal":[],"doubleVal":[],"intVal":[],"stringVal":[],"scomplexVal":[],"int64Val":[],"boolVal":[],"uint32Val":[],"uint64Val":[],"dtype":1,"tensorShape":{"dim":[{"size":"160"}]}}},"dtype":{"type":1}},"name":"MobilenetV2/expanded_conv_13/project/BatchNorm/moving_mean","op":"Const"},{"input":[],"attr":{"value":{"tensor":{"floatVal":[],"doubleVal":[],"intVal":[],"stringVal":[],"scomplexVal":[],"int64Val":[],"boolVal":[],"uint32Val":[],"uint64Val":[],"dtype":1,"tensorShape":{"dim":[{"size":"160"}]}}},"dtype":{"type":1}},"name":"MobilenetV2/expanded_conv_13/project/BatchNorm/moving_variance","op":"Const"},{"input":[],"attr":{"dtype":{"type":1},"value":{"tensor":{"floatVal":[],"doubleVal":[],"intVal":[],"stringVal":[],"scomplexVal":[],"int64Val":[],"boolVal":[],"uint32Val":[],"uint64Val":[],"dtype":1,"tensorShape":{"dim":[{"size":"1"},{"size":"1"},{"size":"160"},{"size":"960"}]}}}},"name":"MobilenetV2/expanded_conv_16/expand/weights","op":"Const"},{"input":[],"attr":{"value":{"tensor":{"floatVal":[],"doubleVal":[],"intVal":[],"stringVal":[],"scomplexVal":[],"int64Val":[],"boolVal":[],"uint32Val":[],"uint64Val":[],"dtype":1,"tensorShape":{"dim":[{"size":"960"}]}}},"dtype":{"type":1}},"name":"MobilenetV2/expanded_conv_16/expand/BatchNorm/gamma","op":"Const"},{"input":[],"attr":{"value":{"tensor":{"floatVal":[],"doubleVal":[],"intVal":[],"stringVal":[],"scomplexVal":[],"int64Val":[],"boolVal":[],"uint32Val":[],"uint64Val":[],"dtype":1,"tensorShape":{"dim":[{"size":"960"}]}}},"dtype":{"type":1}},"name":"MobilenetV2/expanded_conv_16/expand/BatchNorm/beta","op":"Const"},{"input":[],"attr":{"value":{"tensor":{"floatVal":[],"doubleVal":[],"intVal":[],"stringVal":[],"scomplexVal":[],"int64Val":[],"boolVal":[],"uint32Val":[],"uint64Val":[],"dtype":1,"tensorShape":{"dim":[{"size":"960"}]}}},"dtype":{"type":1}},"name":"MobilenetV2/expanded_conv_16/expand/BatchNorm/moving_mean","op":"Const"},{"input":[],"attr":{"value":{"tensor":{"floatVal":[],"doubleVal":[],"intVal":[],"stringVal":[],"scomplexVal":[],"int64Val":[],"boolVal":[],"uint32Val":[],"uint64Val":[],"dtype":1,"tensorShape":{"dim":[{"size":"960"}]}}},"dtype":{"type":1}},"name":"MobilenetV2/expanded_conv_16/expand/BatchNorm/moving_variance","op":"Const"},{"input":[],"attr":{"value":{"tensor":{"floatVal":[],"doubleVal":[],"intVal":[],"stringVal":[],"scomplexVal":[],"int64Val":[],"boolVal":[],"uint32Val":[],"uint64Val":[],"dtype":1,"tensorShape":{"dim":[{"size":"3"},{"size":"3"},{"size":"960"},{"size":"1"}]}}},"dtype":{"type":1}},"name":"MobilenetV2/expanded_conv_16/depthwise/depthwise_weights","op":"Const"},{"input":[],"attr":{"value":{"tensor":{"floatVal":[],"doubleVal":[],"intVal":[],"stringVal":[],"scomplexVal":[],"int64Val":[],"boolVal":[],"uint32Val":[],"uint64Val":[],"dtype":1,"tensorShape":{"dim":[{"size":"960"}]}}},"dtype":{"type":1}},"name":"MobilenetV2/expanded_conv_16/depthwise/BatchNorm/gamma","op":"Const"},{"input":[],"attr":{"dtype":{"type":1},"value":{"tensor":{"floatVal":[],"doubleVal":[],"intVal":[],"stringVal":[],"scomplexVal":[],"int64Val":[],"boolVal":[],"uint32Val":[],"uint64Val":[],"dtype":1,"tensorShape":{"dim":[{"size":"960"}]}}}},"name":"MobilenetV2/expanded_conv_16/depthwise/BatchNorm/beta","op":"Const"},{"input":[],"attr":{"value":{"tensor":{"floatVal":[],"doubleVal":[],"intVal":[],"stringVal":[],"scomplexVal":[],"int64Val":[],"boolVal":[],"uint32Val":[],"uint64Val":[],"dtype":1,"tensorShape":{"dim":[{"size":"960"}]}}},"dtype":{"type":1}},"name":"MobilenetV2/expanded_conv_16/depthwise/BatchNorm/moving_mean","op":"Const"},{"input":[],"attr":{"value":{"tensor":{"floatVal":[],"doubleVal":[],"intVal":[],"stringVal":[],"scomplexVal":[],"int64Val":[],"boolVal":[],"uint32Val":[],"uint64Val":[],"dtype":1,"tensorShape":{"dim":[{"size":"960"}]}}},"dtype":{"type":1}},"name":"MobilenetV2/expanded_conv_16/depthwise/BatchNorm/moving_variance","op":"Const"},{"input":[],"attr":{"value":{"tensor":{"floatVal":[],"doubleVal":[],"intVal":[],"stringVal":[],"scomplexVal":[],"int64Val":[],"boolVal":[],"uint32Val":[],"uint64Val":[],"dtype":1,"tensorShape":{"dim":[{"size":"1"},{"size":"1"},{"size":"960"},{"size":"320"}]}}},"dtype":{"type":1}},"name":"MobilenetV2/expanded_conv_16/project/weights","op":"Const"},{"input":[],"attr":{"value":{"tensor":{"floatVal":[],"doubleVal":[],"intVal":[],"stringVal":[],"scomplexVal":[],"int64Val":[],"boolVal":[],"uint32Val":[],"uint64Val":[],"dtype":1,"tensorShape":{"dim":[{"size":"320"}]}}},"dtype":{"type":1}},"name":"MobilenetV2/expanded_conv_16/project/BatchNorm/gamma","op":"Const"},{"input":[],"attr":{"value":{"tensor":{"floatVal":[],"doubleVal":[],"intVal":[],"stringVal":[],"scomplexVal":[],"int64Val":[],"boolVal":[],"uint32Val":[],"uint64Val":[],"dtype":1,"tensorShape":{"dim":[{"size":"320"}]}}},"dtype":{"type":1}},"name":"MobilenetV2/expanded_conv_16/project/BatchNorm/beta","op":"Const"},{"input":[],"attr":{"value":{"tensor":{"floatVal":[],"doubleVal":[],"intVal":[],"stringVal":[],"scomplexVal":[],"int64Val":[],"boolVal":[],"uint32Val":[],"uint64Val":[],"dtype":1,"tensorShape":{"dim":[{"size":"320"}]}}},"dtype":{"type":1}},"name":"MobilenetV2/expanded_conv_16/project/BatchNorm/moving_mean","op":"Const"},{"input":[],"attr":{"value":{"tensor":{"floatVal":[],"doubleVal":[],"intVal":[],"stringVal":[],"scomplexVal":[],"int64Val":[],"boolVal":[],"uint32Val":[],"uint64Val":[],"dtype":1,"tensorShape":{"dim":[{"size":"320"}]}}},"dtype":{"type":1}},"name":"MobilenetV2/expanded_conv_16/project/BatchNorm/moving_variance","op":"Const"},{"input":[],"attr":{"value":{"tensor":{"floatVal":[],"doubleVal":[],"intVal":[],"stringVal":[],"scomplexVal":[],"int64Val":[],"boolVal":[],"uint32Val":[],"uint64Val":[],"dtype":1,"tensorShape":{"dim":[{"size":"1"},{"size":"1"},{"size":"320"},{"size":"1280"}]}}},"dtype":{"type":1}},"name":"MobilenetV2/Conv_1/weights","op":"Const"},{"input":[],"attr":{"dtype":{"type":1},"value":{"tensor":{"floatVal":[],"doubleVal":[],"intVal":[],"stringVal":[],"scomplexVal":[],"int64Val":[],"boolVal":[],"uint32Val":[],"uint64Val":[],"dtype":1,"tensorShape":{"dim":[{"size":"1280"}]}}}},"name":"MobilenetV2/Conv_1/BatchNorm/gamma","op":"Const"},{"input":[],"attr":{"value":{"tensor":{"floatVal":[],"doubleVal":[],"intVal":[],"stringVal":[],"scomplexVal":[],"int64Val":[],"boolVal":[],"uint32Val":[],"uint64Val":[],"dtype":1,"tensorShape":{"dim":[{"size":"1280"}]}}},"dtype":{"type":1}},"name":"MobilenetV2/Conv_1/BatchNorm/beta","op":"Const"},{"input":[],"attr":{"value":{"tensor":{"floatVal":[],"doubleVal":[],"intVal":[],"stringVal":[],"scomplexVal":[],"int64Val":[],"boolVal":[],"uint32Val":[],"uint64Val":[],"dtype":1,"tensorShape":{"dim":[{"size":"1280"}]}}},"dtype":{"type":1}},"name":"MobilenetV2/Conv_1/BatchNorm/moving_mean","op":"Const"},{"input":[],"attr":{"value":{"tensor":{"floatVal":[],"doubleVal":[],"intVal":[],"stringVal":[],"scomplexVal":[],"int64Val":[],"boolVal":[],"uint32Val":[],"uint64Val":[],"dtype":1,"tensorShape":{"dim":[{"size":"1280"}]}}},"dtype":{"type":1}},"name":"MobilenetV2/Conv_1/BatchNorm/moving_variance","op":"Const"},{"input":[],"attr":{"value":{"tensor":{"floatVal":[],"doubleVal":[],"intVal":[],"stringVal":[],"scomplexVal":[],"int64Val":[],"boolVal":[],"uint32Val":[],"uint64Val":[],"dtype":3,"tensorShape":{"dim":[{"size":"2"}]}}},"dtype":{"type":3}},"name":"bottleneck/Mean/reduction_indices","op":"Const"},{"input":[],"attr":{"value":{"tensor":{"floatVal":[],"doubleVal":[],"intVal":[],"stringVal":[],"scomplexVal":[],"int64Val":[],"boolVal":[],"uint32Val":[],"uint64Val":[],"dtype":1,"tensorShape":{"dim":[{"size":"1"},{"size":"1"},{"size":"1280"},{"size":"100"}]}}},"dtype":{"type":1}},"name":"mobilenet_conv/Conv/weights","op":"Const"},{"input":[],"attr":{"value":{"tensor":{"floatVal":[],"doubleVal":[],"intVal":[],"stringVal":[],"scomplexVal":[],"int64Val":[],"boolVal":[],"uint32Val":[],"uint64Val":[],"dtype":1,"tensorShape":{"dim":[{"size":"100"}]}}},"dtype":{"type":1}},"name":"mobilenet_conv/Conv/biases","op":"Const"},{"input":["Placeholder","MobilenetV2/Conv/weights"],"attr":{"dilations":{"list":{"s":[],"i":["1","1","1","1"],"f":[],"b":[],"type":[],"shape":[],"tensor":[],"func":[]}},"T":{"type":1},"data_format":{"s":[78,72,87,67]},"strides":{"list":{"s":[],"i":["1","2","2","1"],"f":[],"b":[],"type":[],"shape":[],"tensor":[],"func":[]}},"use_cudnn_on_gpu":{"b":true},"padding":{"s":[83,65,77,69]}},"name":"MobilenetV2/Conv/Conv2D","op":"Conv2D"},{"input":["MobilenetV2/Conv/Conv2D","MobilenetV2/Conv/BatchNorm/gamma","MobilenetV2/Conv/BatchNorm/beta","MobilenetV2/Conv/BatchNorm/moving_mean","MobilenetV2/Conv/BatchNorm/moving_variance"],"attr":{"epsilon":{"f":0.0010000000474974513},"T":{"type":1},"data_format":{"s":[78,72,87,67]},"is_training":{"b":false}},"name":"MobilenetV2/Conv/BatchNorm/FusedBatchNorm","op":"FusedBatchNorm"},{"input":["MobilenetV2/Conv/BatchNorm/FusedBatchNorm"],"attr":{"T":{"type":1}},"name":"MobilenetV2/Conv/Relu6","op":"Relu6"},{"input":["MobilenetV2/Conv/Relu6","MobilenetV2/expanded_conv/depthwise/depthwise_weights"],"attr":{"padding":{"s":[83,65,77,69]},"dilations":{"list":{"s":[],"i":["1","1","1","1"],"f":[],"b":[],"type":[],"shape":[],"tensor":[],"func":[]}},"T":{"type":1},"data_format":{"s":[78,72,87,67]},"strides":{"list":{"s":[],"i":["1","1","1","1"],"f":[],"b":[],"type":[],"shape":[],"tensor":[],"func":[]}}},"name":"MobilenetV2/expanded_conv/depthwise/depthwise","op":"DepthwiseConv2dNative"},{"input":["MobilenetV2/expanded_conv/depthwise/depthwise","MobilenetV2/expanded_conv/depthwise/BatchNorm/gamma","MobilenetV2/expanded_conv/depthwise/BatchNorm/beta","MobilenetV2/expanded_conv/depthwise/BatchNorm/moving_mean","MobilenetV2/expanded_conv/depthwise/BatchNorm/moving_variance"],"attr":{"T":{"type":1},"data_format":{"s":[78,72,87,67]},"is_training":{"b":false},"epsilon":{"f":0.0010000000474974513}},"name":"MobilenetV2/expanded_conv/depthwise/BatchNorm/FusedBatchNorm","op":"FusedBatchNorm"},{"input":["MobilenetV2/expanded_conv/depthwise/BatchNorm/FusedBatchNorm"],"attr":{"T":{"type":1}},"name":"MobilenetV2/expanded_conv/depthwise/Relu6","op":"Relu6"},{"input":["MobilenetV2/expanded_conv/depthwise/Relu6","MobilenetV2/expanded_conv/project/weights"],"attr":{"padding":{"s":[83,65,77,69]},"dilations":{"list":{"s":[],"i":["1","1","1","1"],"f":[],"b":[],"type":[],"shape":[],"tensor":[],"func":[]}},"T":{"type":1},"strides":{"list":{"s":[],"i":["1","1","1","1"],"f":[],"b":[],"type":[],"shape":[],"tensor":[],"func":[]}},"data_format":{"s":[78,72,87,67]},"use_cudnn_on_gpu":{"b":true}},"name":"MobilenetV2/expanded_conv/project/Conv2D","op":"Conv2D"},{"input":["MobilenetV2/expanded_conv/project/Conv2D","MobilenetV2/expanded_conv/project/BatchNorm/gamma","MobilenetV2/expanded_conv/project/BatchNorm/beta","MobilenetV2/expanded_conv/project/BatchNorm/moving_mean","MobilenetV2/expanded_conv/project/BatchNorm/moving_variance"],"attr":{"data_format":{"s":[78,72,87,67]},"is_training":{"b":false},"epsilon":{"f":0.0010000000474974513},"T":{"type":1}},"name":"MobilenetV2/expanded_conv/project/BatchNorm/FusedBatchNorm","op":"FusedBatchNorm"},{"input":["MobilenetV2/expanded_conv/project/BatchNorm/FusedBatchNorm","MobilenetV2/expanded_conv_1/expand/weights"],"attr":{"dilations":{"list":{"s":[],"i":["1","1","1","1"],"f":[],"b":[],"type":[],"shape":[],"tensor":[],"func":[]}},"T":{"type":1},"data_format":{"s":[78,72,87,67]},"strides":{"list":{"s":[],"i":["1","1","1","1"],"f":[],"b":[],"type":[],"shape":[],"tensor":[],"func":[]}},"use_cudnn_on_gpu":{"b":true},"padding":{"s":[83,65,77,69]}},"name":"MobilenetV2/expanded_conv_1/expand/Conv2D","op":"Conv2D"},{"input":["MobilenetV2/expanded_conv_1/expand/Conv2D","MobilenetV2/expanded_conv_1/expand/BatchNorm/gamma","MobilenetV2/expanded_conv_1/expand/BatchNorm/beta","MobilenetV2/expanded_conv_1/expand/BatchNorm/moving_mean","MobilenetV2/expanded_conv_1/expand/BatchNorm/moving_variance"],"attr":{"data_format":{"s":[78,72,87,67]},"is_training":{"b":false},"epsilon":{"f":0.0010000000474974513},"T":{"type":1}},"name":"MobilenetV2/expanded_conv_1/expand/BatchNorm/FusedBatchNorm","op":"FusedBatchNorm"},{"input":["MobilenetV2/expanded_conv_1/expand/BatchNorm/FusedBatchNorm"],"attr":{"T":{"type":1}},"name":"MobilenetV2/expanded_conv_1/expand/Relu6","op":"Relu6"},{"input":["MobilenetV2/expanded_conv_1/expand/Relu6","MobilenetV2/expanded_conv_1/depthwise/depthwise_weights"],"attr":{"padding":{"s":[83,65,77,69]},"dilations":{"list":{"s":[],"i":["1","1","1","1"],"f":[],"b":[],"type":[],"shape":[],"tensor":[],"func":[]}},"T":{"type":1},"strides":{"list":{"s":[],"i":["1","2","2","1"],"f":[],"b":[],"type":[],"shape":[],"tensor":[],"func":[]}},"data_format":{"s":[78,72,87,67]}},"name":"MobilenetV2/expanded_conv_1/depthwise/depthwise","op":"DepthwiseConv2dNative"},{"input":["MobilenetV2/expanded_conv_1/depthwise/depthwise","MobilenetV2/expanded_conv_1/depthwise/BatchNorm/gamma","MobilenetV2/expanded_conv_1/depthwise/BatchNorm/beta","MobilenetV2/expanded_conv_1/depthwise/BatchNorm/moving_mean","MobilenetV2/expanded_conv_1/depthwise/BatchNorm/moving_variance"],"attr":{"epsilon":{"f":0.0010000000474974513},"T":{"type":1},"data_format":{"s":[78,72,87,67]},"is_training":{"b":false}},"name":"MobilenetV2/expanded_conv_1/depthwise/BatchNorm/FusedBatchNorm","op":"FusedBatchNorm"},{"input":["MobilenetV2/expanded_conv_1/depthwise/BatchNorm/FusedBatchNorm"],"attr":{"T":{"type":1}},"name":"MobilenetV2/expanded_conv_1/depthwise/Relu6","op":"Relu6"},{"input":["MobilenetV2/expanded_conv_1/depthwise/Relu6","MobilenetV2/expanded_conv_1/project/weights"],"attr":{"padding":{"s":[83,65,77,69]},"dilations":{"list":{"s":[],"i":["1","1","1","1"],"f":[],"b":[],"type":[],"shape":[],"tensor":[],"func":[]}},"T":{"type":1},"strides":{"list":{"s":[],"i":["1","1","1","1"],"f":[],"b":[],"type":[],"shape":[],"tensor":[],"func":[]}},"data_format":{"s":[78,72,87,67]},"use_cudnn_on_gpu":{"b":true}},"name":"MobilenetV2/expanded_conv_1/project/Conv2D","op":"Conv2D"},{"input":["MobilenetV2/expanded_conv_1/project/Conv2D","MobilenetV2/expanded_conv_1/project/BatchNorm/gamma","MobilenetV2/expanded_conv_1/project/BatchNorm/beta","MobilenetV2/expanded_conv_1/project/BatchNorm/moving_mean","MobilenetV2/expanded_conv_1/project/BatchNorm/moving_variance"],"attr":{"T":{"type":1},"data_format":{"s":[78,72,87,67]},"is_training":{"b":false},"epsilon":{"f":0.0010000000474974513}},"name":"MobilenetV2/expanded_conv_1/project/BatchNorm/FusedBatchNorm","op":"FusedBatchNorm"},{"input":["MobilenetV2/expanded_conv_1/project/BatchNorm/FusedBatchNorm","MobilenetV2/expanded_conv_2/expand/weights"],"attr":{"dilations":{"list":{"s":[],"i":["1","1","1","1"],"f":[],"b":[],"type":[],"shape":[],"tensor":[],"func":[]}},"T":{"type":1},"data_format":{"s":[78,72,87,67]},"strides":{"list":{"s":[],"i":["1","1","1","1"],"f":[],"b":[],"type":[],"shape":[],"tensor":[],"func":[]}},"use_cudnn_on_gpu":{"b":true},"padding":{"s":[83,65,77,69]}},"name":"MobilenetV2/expanded_conv_2/expand/Conv2D","op":"Conv2D"},{"input":["MobilenetV2/expanded_conv_2/expand/Conv2D","MobilenetV2/expanded_conv_2/expand/BatchNorm/gamma","MobilenetV2/expanded_conv_2/expand/BatchNorm/beta","MobilenetV2/expanded_conv_2/expand/BatchNorm/moving_mean","MobilenetV2/expanded_conv_2/expand/BatchNorm/moving_variance"],"attr":{"data_format":{"s":[78,72,87,67]},"is_training":{"b":false},"epsilon":{"f":0.0010000000474974513},"T":{"type":1}},"name":"MobilenetV2/expanded_conv_2/expand/BatchNorm/FusedBatchNorm","op":"FusedBatchNorm"},{"input":["MobilenetV2/expanded_conv_2/expand/BatchNorm/FusedBatchNorm"],"attr":{"T":{"type":1}},"name":"MobilenetV2/expanded_conv_2/expand/Relu6","op":"Relu6"},{"input":["MobilenetV2/expanded_conv_2/expand/Relu6","MobilenetV2/expanded_conv_2/depthwise/depthwise_weights"],"attr":{"T":{"type":1},"data_format":{"s":[78,72,87,67]},"strides":{"list":{"s":[],"i":["1","1","1","1"],"f":[],"b":[],"type":[],"shape":[],"tensor":[],"func":[]}},"dilations":{"list":{"s":[],"i":["1","1","1","1"],"f":[],"b":[],"type":[],"shape":[],"tensor":[],"func":[]}},"padding":{"s":[83,65,77,69]}},"name":"MobilenetV2/expanded_conv_2/depthwise/depthwise","op":"DepthwiseConv2dNative"},{"input":["MobilenetV2/expanded_conv_2/depthwise/depthwise","MobilenetV2/expanded_conv_2/depthwise/BatchNorm/gamma","MobilenetV2/expanded_conv_2/depthwise/BatchNorm/beta","MobilenetV2/expanded_conv_2/depthwise/BatchNorm/moving_mean","MobilenetV2/expanded_conv_2/depthwise/BatchNorm/moving_variance"],"attr":{"is_training":{"b":false},"epsilon":{"f":0.0010000000474974513},"T":{"type":1},"data_format":{"s":[78,72,87,67]}},"name":"MobilenetV2/expanded_conv_2/depthwise/BatchNorm/FusedBatchNorm","op":"FusedBatchNorm"},{"input":["MobilenetV2/expanded_conv_2/depthwise/BatchNorm/FusedBatchNorm"],"attr":{"T":{"type":1}},"name":"MobilenetV2/expanded_conv_2/depthwise/Relu6","op":"Relu6"},{"input":["MobilenetV2/expanded_conv_2/depthwise/Relu6","MobilenetV2/expanded_conv_2/project/weights"],"attr":{"dilations":{"list":{"s":[],"i":["1","1","1","1"],"f":[],"b":[],"type":[],"shape":[],"tensor":[],"func":[]}},"T":{"type":1},"data_format":{"s":[78,72,87,67]},"strides":{"list":{"s":[],"i":["1","1","1","1"],"f":[],"b":[],"type":[],"shape":[],"tensor":[],"func":[]}},"use_cudnn_on_gpu":{"b":true},"padding":{"s":[83,65,77,69]}},"name":"MobilenetV2/expanded_conv_2/project/Conv2D","op":"Conv2D"},{"input":["MobilenetV2/expanded_conv_2/project/Conv2D","MobilenetV2/expanded_conv_2/project/BatchNorm/gamma","MobilenetV2/expanded_conv_2/project/BatchNorm/beta","MobilenetV2/expanded_conv_2/project/BatchNorm/moving_mean","MobilenetV2/expanded_conv_2/project/BatchNorm/moving_variance"],"attr":{"data_format":{"s":[78,72,87,67]},"is_training":{"b":false},"epsilon":{"f":0.0010000000474974513},"T":{"type":1}},"name":"MobilenetV2/expanded_conv_2/project/BatchNorm/FusedBatchNorm","op":"FusedBatchNorm"},{"input":["MobilenetV2/expanded_conv_2/project/BatchNorm/FusedBatchNorm","MobilenetV2/expanded_conv_1/project/BatchNorm/FusedBatchNorm"],"attr":{"T":{"type":1}},"name":"MobilenetV2/expanded_conv_2/add","op":"Add"},{"input":["MobilenetV2/expanded_conv_2/add","MobilenetV2/expanded_conv_3/expand/weights"],"attr":{"padding":{"s":[83,65,77,69]},"dilations":{"list":{"s":[],"i":["1","1","1","1"],"f":[],"b":[],"type":[],"shape":[],"tensor":[],"func":[]}},"T":{"type":1},"strides":{"list":{"s":[],"i":["1","1","1","1"],"f":[],"b":[],"type":[],"shape":[],"tensor":[],"func":[]}},"data_format":{"s":[78,72,87,67]},"use_cudnn_on_gpu":{"b":true}},"name":"MobilenetV2/expanded_conv_3/expand/Conv2D","op":"Conv2D"},{"input":["MobilenetV2/expanded_conv_3/expand/Conv2D","MobilenetV2/expanded_conv_3/expand/BatchNorm/gamma","MobilenetV2/expanded_conv_3/expand/BatchNorm/beta","MobilenetV2/expanded_conv_3/expand/BatchNorm/moving_mean","MobilenetV2/expanded_conv_3/expand/BatchNorm/moving_variance"],"attr":{"epsilon":{"f":0.0010000000474974513},"T":{"type":1},"data_format":{"s":[78,72,87,67]},"is_training":{"b":false}},"name":"MobilenetV2/expanded_conv_3/expand/BatchNorm/FusedBatchNorm","op":"FusedBatchNorm"},{"input":["MobilenetV2/expanded_conv_3/expand/BatchNorm/FusedBatchNorm"],"attr":{"T":{"type":1}},"name":"MobilenetV2/expanded_conv_3/expand/Relu6","op":"Relu6"},{"input":["MobilenetV2/expanded_conv_3/expand/Relu6","MobilenetV2/expanded_conv_3/depthwise/depthwise_weights"],"attr":{"T":{"type":1},"strides":{"list":{"s":[],"i":["1","2","2","1"],"f":[],"b":[],"type":[],"shape":[],"tensor":[],"func":[]}},"data_format":{"s":[78,72,87,67]},"dilations":{"list":{"s":[],"i":["1","1","1","1"],"f":[],"b":[],"type":[],"shape":[],"tensor":[],"func":[]}},"padding":{"s":[83,65,77,69]}},"name":"MobilenetV2/expanded_conv_3/depthwise/depthwise","op":"DepthwiseConv2dNative"},{"input":["MobilenetV2/expanded_conv_3/depthwise/depthwise","MobilenetV2/expanded_conv_3/depthwise/BatchNorm/gamma","MobilenetV2/expanded_conv_3/depthwise/BatchNorm/beta","MobilenetV2/expanded_conv_3/depthwise/BatchNorm/moving_mean","MobilenetV2/expanded_conv_3/depthwise/BatchNorm/moving_variance"],"attr":{"T":{"type":1},"data_format":{"s":[78,72,87,67]},"is_training":{"b":false},"epsilon":{"f":0.0010000000474974513}},"name":"MobilenetV2/expanded_conv_3/depthwise/BatchNorm/FusedBatchNorm","op":"FusedBatchNorm"},{"input":["MobilenetV2/expanded_conv_3/depthwise/BatchNorm/FusedBatchNorm"],"attr":{"T":{"type":1}},"name":"MobilenetV2/expanded_conv_3/depthwise/Relu6","op":"Relu6"},{"input":["MobilenetV2/expanded_conv_3/depthwise/Relu6","MobilenetV2/expanded_conv_3/project/weights"],"attr":{"padding":{"s":[83,65,77,69]},"dilations":{"list":{"s":[],"i":["1","1","1","1"],"f":[],"b":[],"type":[],"shape":[],"tensor":[],"func":[]}},"T":{"type":1},"strides":{"list":{"s":[],"i":["1","1","1","1"],"f":[],"b":[],"type":[],"shape":[],"tensor":[],"func":[]}},"data_format":{"s":[78,72,87,67]},"use_cudnn_on_gpu":{"b":true}},"name":"MobilenetV2/expanded_conv_3/project/Conv2D","op":"Conv2D"},{"input":["MobilenetV2/expanded_conv_3/project/Conv2D","MobilenetV2/expanded_conv_3/project/BatchNorm/gamma","MobilenetV2/expanded_conv_3/project/BatchNorm/beta","MobilenetV2/expanded_conv_3/project/BatchNorm/moving_mean","MobilenetV2/expanded_conv_3/project/BatchNorm/moving_variance"],"attr":{"epsilon":{"f":0.0010000000474974513},"T":{"type":1},"data_format":{"s":[78,72,87,67]},"is_training":{"b":false}},"name":"MobilenetV2/expanded_conv_3/project/BatchNorm/FusedBatchNorm","op":"FusedBatchNorm"},{"input":["MobilenetV2/expanded_conv_3/project/BatchNorm/FusedBatchNorm","MobilenetV2/expanded_conv_4/expand/weights"],"attr":{"dilations":{"list":{"s":[],"i":["1","1","1","1"],"f":[],"b":[],"type":[],"shape":[],"tensor":[],"func":[]}},"T":{"type":1},"data_format":{"s":[78,72,87,67]},"strides":{"list":{"s":[],"i":["1","1","1","1"],"f":[],"b":[],"type":[],"shape":[],"tensor":[],"func":[]}},"use_cudnn_on_gpu":{"b":true},"padding":{"s":[83,65,77,69]}},"name":"MobilenetV2/expanded_conv_4/expand/Conv2D","op":"Conv2D"},{"input":["MobilenetV2/expanded_conv_4/expand/Conv2D","MobilenetV2/expanded_conv_4/expand/BatchNorm/gamma","MobilenetV2/expanded_conv_4/expand/BatchNorm/beta","MobilenetV2/expanded_conv_4/expand/BatchNorm/moving_mean","MobilenetV2/expanded_conv_4/expand/BatchNorm/moving_variance"],"attr":{"data_format":{"s":[78,72,87,67]},"is_training":{"b":false},"epsilon":{"f":0.0010000000474974513},"T":{"type":1}},"name":"MobilenetV2/expanded_conv_4/expand/BatchNorm/FusedBatchNorm","op":"FusedBatchNorm"},{"input":["MobilenetV2/expanded_conv_4/expand/BatchNorm/FusedBatchNorm"],"attr":{"T":{"type":1}},"name":"MobilenetV2/expanded_conv_4/expand/Relu6","op":"Relu6"},{"input":["MobilenetV2/expanded_conv_4/expand/Relu6","MobilenetV2/expanded_conv_4/depthwise/depthwise_weights"],"attr":{"T":{"type":1},"data_format":{"s":[78,72,87,67]},"strides":{"list":{"s":[],"i":["1","1","1","1"],"f":[],"b":[],"type":[],"shape":[],"tensor":[],"func":[]}},"dilations":{"list":{"s":[],"i":["1","1","1","1"],"f":[],"b":[],"type":[],"shape":[],"tensor":[],"func":[]}},"padding":{"s":[83,65,77,69]}},"name":"MobilenetV2/expanded_conv_4/depthwise/depthwise","op":"DepthwiseConv2dNative"},{"input":["MobilenetV2/expanded_conv_4/depthwise/depthwise","MobilenetV2/expanded_conv_4/depthwise/BatchNorm/gamma","MobilenetV2/expanded_conv_4/depthwise/BatchNorm/beta","MobilenetV2/expanded_conv_4/depthwise/BatchNorm/moving_mean","MobilenetV2/expanded_conv_4/depthwise/BatchNorm/moving_variance"],"attr":{"T":{"type":1},"data_format":{"s":[78,72,87,67]},"is_training":{"b":false},"epsilon":{"f":0.0010000000474974513}},"name":"MobilenetV2/expanded_conv_4/depthwise/BatchNorm/FusedBatchNorm","op":"FusedBatchNorm"},{"input":["MobilenetV2/expanded_conv_4/depthwise/BatchNorm/FusedBatchNorm"],"attr":{"T":{"type":1}},"name":"MobilenetV2/expanded_conv_4/depthwise/Relu6","op":"Relu6"},{"input":["MobilenetV2/expanded_conv_4/depthwise/Relu6","MobilenetV2/expanded_conv_4/project/weights"],"attr":{"padding":{"s":[83,65,77,69]},"dilations":{"list":{"s":[],"i":["1","1","1","1"],"f":[],"b":[],"type":[],"shape":[],"tensor":[],"func":[]}},"T":{"type":1},"strides":{"list":{"s":[],"i":["1","1","1","1"],"f":[],"b":[],"type":[],"shape":[],"tensor":[],"func":[]}},"data_format":{"s":[78,72,87,67]},"use_cudnn_on_gpu":{"b":true}},"name":"MobilenetV2/expanded_conv_4/project/Conv2D","op":"Conv2D"},{"input":["MobilenetV2/expanded_conv_4/project/Conv2D","MobilenetV2/expanded_conv_4/project/BatchNorm/gamma","MobilenetV2/expanded_conv_4/project/BatchNorm/beta","MobilenetV2/expanded_conv_4/project/BatchNorm/moving_mean","MobilenetV2/expanded_conv_4/project/BatchNorm/moving_variance"],"attr":{"is_training":{"b":false},"epsilon":{"f":0.0010000000474974513},"T":{"type":1},"data_format":{"s":[78,72,87,67]}},"name":"MobilenetV2/expanded_conv_4/project/BatchNorm/FusedBatchNorm","op":"FusedBatchNorm"},{"input":["MobilenetV2/expanded_conv_4/project/BatchNorm/FusedBatchNorm","MobilenetV2/expanded_conv_3/project/BatchNorm/FusedBatchNorm"],"attr":{"T":{"type":1}},"name":"MobilenetV2/expanded_conv_4/add","op":"Add"},{"input":["MobilenetV2/expanded_conv_4/add","MobilenetV2/expanded_conv_5/expand/weights"],"attr":{"padding":{"s":[83,65,77,69]},"dilations":{"list":{"s":[],"i":["1","1","1","1"],"f":[],"b":[],"type":[],"shape":[],"tensor":[],"func":[]}},"T":{"type":1},"strides":{"list":{"s":[],"i":["1","1","1","1"],"f":[],"b":[],"type":[],"shape":[],"tensor":[],"func":[]}},"data_format":{"s":[78,72,87,67]},"use_cudnn_on_gpu":{"b":true}},"name":"MobilenetV2/expanded_conv_5/expand/Conv2D","op":"Conv2D"},{"input":["MobilenetV2/expanded_conv_5/expand/Conv2D","MobilenetV2/expanded_conv_5/expand/BatchNorm/gamma","MobilenetV2/expanded_conv_5/expand/BatchNorm/beta","MobilenetV2/expanded_conv_5/expand/BatchNorm/moving_mean","MobilenetV2/expanded_conv_5/expand/BatchNorm/moving_variance"],"attr":{"T":{"type":1},"data_format":{"s":[78,72,87,67]},"is_training":{"b":false},"epsilon":{"f":0.0010000000474974513}},"name":"MobilenetV2/expanded_conv_5/expand/BatchNorm/FusedBatchNorm","op":"FusedBatchNorm"},{"input":["MobilenetV2/expanded_conv_5/expand/BatchNorm/FusedBatchNorm"],"attr":{"T":{"type":1}},"name":"MobilenetV2/expanded_conv_5/expand/Relu6","op":"Relu6"},{"input":["MobilenetV2/expanded_conv_5/expand/Relu6","MobilenetV2/expanded_conv_5/depthwise/depthwise_weights"],"attr":{"padding":{"s":[83,65,77,69]},"dilations":{"list":{"s":[],"i":["1","1","1","1"],"f":[],"b":[],"type":[],"shape":[],"tensor":[],"func":[]}},"T":{"type":1},"strides":{"list":{"s":[],"i":["1","1","1","1"],"f":[],"b":[],"type":[],"shape":[],"tensor":[],"func":[]}},"data_format":{"s":[78,72,87,67]}},"name":"MobilenetV2/expanded_conv_5/depthwise/depthwise","op":"DepthwiseConv2dNative"},{"input":["MobilenetV2/expanded_conv_5/depthwise/depthwise","MobilenetV2/expanded_conv_5/depthwise/BatchNorm/gamma","MobilenetV2/expanded_conv_5/depthwise/BatchNorm/beta","MobilenetV2/expanded_conv_5/depthwise/BatchNorm/moving_mean","MobilenetV2/expanded_conv_5/depthwise/BatchNorm/moving_variance"],"attr":{"T":{"type":1},"data_format":{"s":[78,72,87,67]},"is_training":{"b":false},"epsilon":{"f":0.0010000000474974513}},"name":"MobilenetV2/expanded_conv_5/depthwise/BatchNorm/FusedBatchNorm","op":"FusedBatchNorm"},{"input":["MobilenetV2/expanded_conv_5/depthwise/BatchNorm/FusedBatchNorm"],"attr":{"T":{"type":1}},"name":"MobilenetV2/expanded_conv_5/depthwise/Relu6","op":"Relu6"},{"input":["MobilenetV2/expanded_conv_5/depthwise/Relu6","MobilenetV2/expanded_conv_5/project/weights"],"attr":{"dilations":{"list":{"s":[],"i":["1","1","1","1"],"f":[],"b":[],"type":[],"shape":[],"tensor":[],"func":[]}},"T":{"type":1},"data_format":{"s":[78,72,87,67]},"strides":{"list":{"s":[],"i":["1","1","1","1"],"f":[],"b":[],"type":[],"shape":[],"tensor":[],"func":[]}},"use_cudnn_on_gpu":{"b":true},"padding":{"s":[83,65,77,69]}},"name":"MobilenetV2/expanded_conv_5/project/Conv2D","op":"Conv2D"},{"input":["MobilenetV2/expanded_conv_5/project/Conv2D","MobilenetV2/expanded_conv_5/project/BatchNorm/gamma","MobilenetV2/expanded_conv_5/project/BatchNorm/beta","MobilenetV2/expanded_conv_5/project/BatchNorm/moving_mean","MobilenetV2/expanded_conv_5/project/BatchNorm/moving_variance"],"attr":{"epsilon":{"f":0.0010000000474974513},"T":{"type":1},"data_format":{"s":[78,72,87,67]},"is_training":{"b":false}},"name":"MobilenetV2/expanded_conv_5/project/BatchNorm/FusedBatchNorm","op":"FusedBatchNorm"},{"input":["MobilenetV2/expanded_conv_5/project/BatchNorm/FusedBatchNorm","MobilenetV2/expanded_conv_4/add"],"attr":{"T":{"type":1}},"name":"MobilenetV2/expanded_conv_5/add","op":"Add"},{"input":["MobilenetV2/expanded_conv_5/add","MobilenetV2/expanded_conv_6/expand/weights"],"attr":{"dilations":{"list":{"s":[],"i":["1","1","1","1"],"f":[],"b":[],"type":[],"shape":[],"tensor":[],"func":[]}},"T":{"type":1},"strides":{"list":{"s":[],"i":["1","1","1","1"],"f":[],"b":[],"type":[],"shape":[],"tensor":[],"func":[]}},"data_format":{"s":[78,72,87,67]},"use_cudnn_on_gpu":{"b":true},"padding":{"s":[83,65,77,69]}},"name":"MobilenetV2/expanded_conv_6/expand/Conv2D","op":"Conv2D"},{"input":["MobilenetV2/expanded_conv_6/expand/Conv2D","MobilenetV2/expanded_conv_6/expand/BatchNorm/gamma","MobilenetV2/expanded_conv_6/expand/BatchNorm/beta","MobilenetV2/expanded_conv_6/expand/BatchNorm/moving_mean","MobilenetV2/expanded_conv_6/expand/BatchNorm/moving_variance"],"attr":{"data_format":{"s":[78,72,87,67]},"is_training":{"b":false},"epsilon":{"f":0.0010000000474974513},"T":{"type":1}},"name":"MobilenetV2/expanded_conv_6/expand/BatchNorm/FusedBatchNorm","op":"FusedBatchNorm"},{"input":["MobilenetV2/expanded_conv_6/expand/BatchNorm/FusedBatchNorm"],"attr":{"T":{"type":1}},"name":"MobilenetV2/expanded_conv_6/expand/Relu6","op":"Relu6"},{"input":["MobilenetV2/expanded_conv_6/expand/Relu6","MobilenetV2/expanded_conv_6/depthwise/depthwise_weights"],"attr":{"strides":{"list":{"s":[],"i":["1","2","2","1"],"f":[],"b":[],"type":[],"shape":[],"tensor":[],"func":[]}},"data_format":{"s":[78,72,87,67]},"padding":{"s":[83,65,77,69]},"dilations":{"list":{"s":[],"i":["1","1","1","1"],"f":[],"b":[],"type":[],"shape":[],"tensor":[],"func":[]}},"T":{"type":1}},"name":"MobilenetV2/expanded_conv_6/depthwise/depthwise","op":"DepthwiseConv2dNative"},{"input":["MobilenetV2/expanded_conv_6/depthwise/depthwise","MobilenetV2/expanded_conv_6/depthwise/BatchNorm/gamma","MobilenetV2/expanded_conv_6/depthwise/BatchNorm/beta","MobilenetV2/expanded_conv_6/depthwise/BatchNorm/moving_mean","MobilenetV2/expanded_conv_6/depthwise/BatchNorm/moving_variance"],"attr":{"T":{"type":1},"data_format":{"s":[78,72,87,67]},"is_training":{"b":false},"epsilon":{"f":0.0010000000474974513}},"name":"MobilenetV2/expanded_conv_6/depthwise/BatchNorm/FusedBatchNorm","op":"FusedBatchNorm"},{"input":["MobilenetV2/expanded_conv_6/depthwise/BatchNorm/FusedBatchNorm"],"attr":{"T":{"type":1}},"name":"MobilenetV2/expanded_conv_6/depthwise/Relu6","op":"Relu6"},{"input":["MobilenetV2/expanded_conv_6/depthwise/Relu6","MobilenetV2/expanded_conv_6/project/weights"],"attr":{"padding":{"s":[83,65,77,69]},"dilations":{"list":{"s":[],"i":["1","1","1","1"],"f":[],"b":[],"type":[],"shape":[],"tensor":[],"func":[]}},"T":{"type":1},"data_format":{"s":[78,72,87,67]},"strides":{"list":{"s":[],"i":["1","1","1","1"],"f":[],"b":[],"type":[],"shape":[],"tensor":[],"func":[]}},"use_cudnn_on_gpu":{"b":true}},"name":"MobilenetV2/expanded_conv_6/project/Conv2D","op":"Conv2D"},{"input":["MobilenetV2/expanded_conv_6/project/Conv2D","MobilenetV2/expanded_conv_6/project/BatchNorm/gamma","MobilenetV2/expanded_conv_6/project/BatchNorm/beta","MobilenetV2/expanded_conv_6/project/BatchNorm/moving_mean","MobilenetV2/expanded_conv_6/project/BatchNorm/moving_variance"],"attr":{"T":{"type":1},"data_format":{"s":[78,72,87,67]},"is_training":{"b":false},"epsilon":{"f":0.0010000000474974513}},"name":"MobilenetV2/expanded_conv_6/project/BatchNorm/FusedBatchNorm","op":"FusedBatchNorm"},{"input":["MobilenetV2/expanded_conv_6/project/BatchNorm/FusedBatchNorm","MobilenetV2/expanded_conv_7/expand/weights"],"attr":{"dilations":{"list":{"s":[],"i":["1","1","1","1"],"f":[],"b":[],"type":[],"shape":[],"tensor":[],"func":[]}},"T":{"type":1},"strides":{"list":{"s":[],"i":["1","1","1","1"],"f":[],"b":[],"type":[],"shape":[],"tensor":[],"func":[]}},"data_format":{"s":[78,72,87,67]},"use_cudnn_on_gpu":{"b":true},"padding":{"s":[83,65,77,69]}},"name":"MobilenetV2/expanded_conv_7/expand/Conv2D","op":"Conv2D"},{"input":["MobilenetV2/expanded_conv_7/expand/Conv2D","MobilenetV2/expanded_conv_7/expand/BatchNorm/gamma","MobilenetV2/expanded_conv_7/expand/BatchNorm/beta","MobilenetV2/expanded_conv_7/expand/BatchNorm/moving_mean","MobilenetV2/expanded_conv_7/expand/BatchNorm/moving_variance"],"attr":{"epsilon":{"f":0.0010000000474974513},"T":{"type":1},"data_format":{"s":[78,72,87,67]},"is_training":{"b":false}},"name":"MobilenetV2/expanded_conv_7/expand/BatchNorm/FusedBatchNorm","op":"FusedBatchNorm"},{"input":["MobilenetV2/expanded_conv_7/expand/BatchNorm/FusedBatchNorm"],"attr":{"T":{"type":1}},"name":"MobilenetV2/expanded_conv_7/expand/Relu6","op":"Relu6"},{"input":["MobilenetV2/expanded_conv_7/expand/Relu6","MobilenetV2/expanded_conv_7/depthwise/depthwise_weights"],"attr":{"dilations":{"list":{"s":[],"i":["1","1","1","1"],"f":[],"b":[],"type":[],"shape":[],"tensor":[],"func":[]}},"padding":{"s":[83,65,77,69]},"T":{"type":1},"strides":{"list":{"s":[],"i":["1","1","1","1"],"f":[],"b":[],"type":[],"shape":[],"tensor":[],"func":[]}},"data_format":{"s":[78,72,87,67]}},"name":"MobilenetV2/expanded_conv_7/depthwise/depthwise","op":"DepthwiseConv2dNative"},{"input":["MobilenetV2/expanded_conv_7/depthwise/depthwise","MobilenetV2/expanded_conv_7/depthwise/BatchNorm/gamma","MobilenetV2/expanded_conv_7/depthwise/BatchNorm/beta","MobilenetV2/expanded_conv_7/depthwise/BatchNorm/moving_mean","MobilenetV2/expanded_conv_7/depthwise/BatchNorm/moving_variance"],"attr":{"data_format":{"s":[78,72,87,67]},"is_training":{"b":false},"epsilon":{"f":0.0010000000474974513},"T":{"type":1}},"name":"MobilenetV2/expanded_conv_7/depthwise/BatchNorm/FusedBatchNorm","op":"FusedBatchNorm"},{"input":["MobilenetV2/expanded_conv_7/depthwise/BatchNorm/FusedBatchNorm"],"attr":{"T":{"type":1}},"name":"MobilenetV2/expanded_conv_7/depthwise/Relu6","op":"Relu6"},{"input":["MobilenetV2/expanded_conv_7/depthwise/Relu6","MobilenetV2/expanded_conv_7/project/weights"],"attr":{"padding":{"s":[83,65,77,69]},"dilations":{"list":{"s":[],"i":["1","1","1","1"],"f":[],"b":[],"type":[],"shape":[],"tensor":[],"func":[]}},"T":{"type":1},"data_format":{"s":[78,72,87,67]},"strides":{"list":{"s":[],"i":["1","1","1","1"],"f":[],"b":[],"type":[],"shape":[],"tensor":[],"func":[]}},"use_cudnn_on_gpu":{"b":true}},"name":"MobilenetV2/expanded_conv_7/project/Conv2D","op":"Conv2D"},{"input":["MobilenetV2/expanded_conv_7/project/Conv2D","MobilenetV2/expanded_conv_7/project/BatchNorm/gamma","MobilenetV2/expanded_conv_7/project/BatchNorm/beta","MobilenetV2/expanded_conv_7/project/BatchNorm/moving_mean","MobilenetV2/expanded_conv_7/project/BatchNorm/moving_variance"],"attr":{"epsilon":{"f":0.0010000000474974513},"T":{"type":1},"data_format":{"s":[78,72,87,67]},"is_training":{"b":false}},"name":"MobilenetV2/expanded_conv_7/project/BatchNorm/FusedBatchNorm","op":"FusedBatchNorm"},{"input":["MobilenetV2/expanded_conv_7/project/BatchNorm/FusedBatchNorm","MobilenetV2/expanded_conv_6/project/BatchNorm/FusedBatchNorm"],"attr":{"T":{"type":1}},"name":"MobilenetV2/expanded_conv_7/add","op":"Add"},{"input":["MobilenetV2/expanded_conv_7/add","MobilenetV2/expanded_conv_8/expand/weights"],"attr":{"T":{"type":1},"data_format":{"s":[78,72,87,67]},"strides":{"list":{"s":[],"i":["1","1","1","1"],"f":[],"b":[],"type":[],"shape":[],"tensor":[],"func":[]}},"use_cudnn_on_gpu":{"b":true},"padding":{"s":[83,65,77,69]},"dilations":{"list":{"s":[],"i":["1","1","1","1"],"f":[],"b":[],"type":[],"shape":[],"tensor":[],"func":[]}}},"name":"MobilenetV2/expanded_conv_8/expand/Conv2D","op":"Conv2D"},{"input":["MobilenetV2/expanded_conv_8/expand/Conv2D","MobilenetV2/expanded_conv_8/expand/BatchNorm/gamma","MobilenetV2/expanded_conv_8/expand/BatchNorm/beta","MobilenetV2/expanded_conv_8/expand/BatchNorm/moving_mean","MobilenetV2/expanded_conv_8/expand/BatchNorm/moving_variance"],"attr":{"epsilon":{"f":0.0010000000474974513},"T":{"type":1},"data_format":{"s":[78,72,87,67]},"is_training":{"b":false}},"name":"MobilenetV2/expanded_conv_8/expand/BatchNorm/FusedBatchNorm","op":"FusedBatchNorm"},{"input":["MobilenetV2/expanded_conv_8/expand/BatchNorm/FusedBatchNorm"],"attr":{"T":{"type":1}},"name":"MobilenetV2/expanded_conv_8/expand/Relu6","op":"Relu6"},{"input":["MobilenetV2/expanded_conv_8/expand/Relu6","MobilenetV2/expanded_conv_8/depthwise/depthwise_weights"],"attr":{"dilations":{"list":{"s":[],"i":["1","1","1","1"],"f":[],"b":[],"type":[],"shape":[],"tensor":[],"func":[]}},"padding":{"s":[83,65,77,69]},"T":{"type":1},"data_format":{"s":[78,72,87,67]},"strides":{"list":{"s":[],"i":["1","1","1","1"],"f":[],"b":[],"type":[],"shape":[],"tensor":[],"func":[]}}},"name":"MobilenetV2/expanded_conv_8/depthwise/depthwise","op":"DepthwiseConv2dNative"},{"input":["MobilenetV2/expanded_conv_8/depthwise/depthwise","MobilenetV2/expanded_conv_8/depthwise/BatchNorm/gamma","MobilenetV2/expanded_conv_8/depthwise/BatchNorm/beta","MobilenetV2/expanded_conv_8/depthwise/BatchNorm/moving_mean","MobilenetV2/expanded_conv_8/depthwise/BatchNorm/moving_variance"],"attr":{"epsilon":{"f":0.0010000000474974513},"T":{"type":1},"data_format":{"s":[78,72,87,67]},"is_training":{"b":false}},"name":"MobilenetV2/expanded_conv_8/depthwise/BatchNorm/FusedBatchNorm","op":"FusedBatchNorm"},{"input":["MobilenetV2/expanded_conv_8/depthwise/BatchNorm/FusedBatchNorm"],"attr":{"T":{"type":1}},"name":"MobilenetV2/expanded_conv_8/depthwise/Relu6","op":"Relu6"},{"input":["MobilenetV2/expanded_conv_8/depthwise/Relu6","MobilenetV2/expanded_conv_8/project/weights"],"attr":{"dilations":{"list":{"s":[],"i":["1","1","1","1"],"f":[],"b":[],"type":[],"shape":[],"tensor":[],"func":[]}},"T":{"type":1},"strides":{"list":{"s":[],"i":["1","1","1","1"],"f":[],"b":[],"type":[],"shape":[],"tensor":[],"func":[]}},"data_format":{"s":[78,72,87,67]},"use_cudnn_on_gpu":{"b":true},"padding":{"s":[83,65,77,69]}},"name":"MobilenetV2/expanded_conv_8/project/Conv2D","op":"Conv2D"},{"input":["MobilenetV2/expanded_conv_8/project/Conv2D","MobilenetV2/expanded_conv_8/project/BatchNorm/gamma","MobilenetV2/expanded_conv_8/project/BatchNorm/beta","MobilenetV2/expanded_conv_8/project/BatchNorm/moving_mean","MobilenetV2/expanded_conv_8/project/BatchNorm/moving_variance"],"attr":{"data_format":{"s":[78,72,87,67]},"is_training":{"b":false},"epsilon":{"f":0.0010000000474974513},"T":{"type":1}},"name":"MobilenetV2/expanded_conv_8/project/BatchNorm/FusedBatchNorm","op":"FusedBatchNorm"},{"input":["MobilenetV2/expanded_conv_8/project/BatchNorm/FusedBatchNorm","MobilenetV2/expanded_conv_7/add"],"attr":{"T":{"type":1}},"name":"MobilenetV2/expanded_conv_8/add","op":"Add"},{"input":["MobilenetV2/expanded_conv_8/add","MobilenetV2/expanded_conv_9/expand/weights"],"attr":{"dilations":{"list":{"s":[],"i":["1","1","1","1"],"f":[],"b":[],"type":[],"shape":[],"tensor":[],"func":[]}},"T":{"type":1},"data_format":{"s":[78,72,87,67]},"strides":{"list":{"s":[],"i":["1","1","1","1"],"f":[],"b":[],"type":[],"shape":[],"tensor":[],"func":[]}},"use_cudnn_on_gpu":{"b":true},"padding":{"s":[83,65,77,69]}},"name":"MobilenetV2/expanded_conv_9/expand/Conv2D","op":"Conv2D"},{"input":["MobilenetV2/expanded_conv_9/expand/Conv2D","MobilenetV2/expanded_conv_9/expand/BatchNorm/gamma","MobilenetV2/expanded_conv_9/expand/BatchNorm/beta","MobilenetV2/expanded_conv_9/expand/BatchNorm/moving_mean","MobilenetV2/expanded_conv_9/expand/BatchNorm/moving_variance"],"attr":{"data_format":{"s":[78,72,87,67]},"is_training":{"b":false},"epsilon":{"f":0.0010000000474974513},"T":{"type":1}},"name":"MobilenetV2/expanded_conv_9/expand/BatchNorm/FusedBatchNorm","op":"FusedBatchNorm"},{"input":["MobilenetV2/expanded_conv_9/expand/BatchNorm/FusedBatchNorm"],"attr":{"T":{"type":1}},"name":"MobilenetV2/expanded_conv_9/expand/Relu6","op":"Relu6"},{"input":["MobilenetV2/expanded_conv_9/expand/Relu6","MobilenetV2/expanded_conv_9/depthwise/depthwise_weights"],"attr":{"padding":{"s":[83,65,77,69]},"dilations":{"list":{"s":[],"i":["1","1","1","1"],"f":[],"b":[],"type":[],"shape":[],"tensor":[],"func":[]}},"T":{"type":1},"strides":{"list":{"s":[],"i":["1","1","1","1"],"f":[],"b":[],"type":[],"shape":[],"tensor":[],"func":[]}},"data_format":{"s":[78,72,87,67]}},"name":"MobilenetV2/expanded_conv_9/depthwise/depthwise","op":"DepthwiseConv2dNative"},{"input":["MobilenetV2/expanded_conv_9/depthwise/depthwise","MobilenetV2/expanded_conv_9/depthwise/BatchNorm/gamma","MobilenetV2/expanded_conv_9/depthwise/BatchNorm/beta","MobilenetV2/expanded_conv_9/depthwise/BatchNorm/moving_mean","MobilenetV2/expanded_conv_9/depthwise/BatchNorm/moving_variance"],"attr":{"data_format":{"s":[78,72,87,67]},"is_training":{"b":false},"epsilon":{"f":0.0010000000474974513},"T":{"type":1}},"name":"MobilenetV2/expanded_conv_9/depthwise/BatchNorm/FusedBatchNorm","op":"FusedBatchNorm"},{"input":["MobilenetV2/expanded_conv_9/depthwise/BatchNorm/FusedBatchNorm"],"attr":{"T":{"type":1}},"name":"MobilenetV2/expanded_conv_9/depthwise/Relu6","op":"Relu6"},{"input":["MobilenetV2/expanded_conv_9/depthwise/Relu6","MobilenetV2/expanded_conv_9/project/weights"],"attr":{"padding":{"s":[83,65,77,69]},"dilations":{"list":{"s":[],"i":["1","1","1","1"],"f":[],"b":[],"type":[],"shape":[],"tensor":[],"func":[]}},"T":{"type":1},"data_format":{"s":[78,72,87,67]},"strides":{"list":{"s":[],"i":["1","1","1","1"],"f":[],"b":[],"type":[],"shape":[],"tensor":[],"func":[]}},"use_cudnn_on_gpu":{"b":true}},"name":"MobilenetV2/expanded_conv_9/project/Conv2D","op":"Conv2D"},{"input":["MobilenetV2/expanded_conv_9/project/Conv2D","MobilenetV2/expanded_conv_9/project/BatchNorm/gamma","MobilenetV2/expanded_conv_9/project/BatchNorm/beta","MobilenetV2/expanded_conv_9/project/BatchNorm/moving_mean","MobilenetV2/expanded_conv_9/project/BatchNorm/moving_variance"],"attr":{"epsilon":{"f":0.0010000000474974513},"T":{"type":1},"data_format":{"s":[78,72,87,67]},"is_training":{"b":false}},"name":"MobilenetV2/expanded_conv_9/project/BatchNorm/FusedBatchNorm","op":"FusedBatchNorm"},{"input":["MobilenetV2/expanded_conv_9/project/BatchNorm/FusedBatchNorm","MobilenetV2/expanded_conv_8/add"],"attr":{"T":{"type":1}},"name":"MobilenetV2/expanded_conv_9/add","op":"Add"},{"input":["MobilenetV2/expanded_conv_9/add","MobilenetV2/expanded_conv_10/expand/weights"],"attr":{"dilations":{"list":{"s":[],"i":["1","1","1","1"],"f":[],"b":[],"type":[],"shape":[],"tensor":[],"func":[]}},"T":{"type":1},"strides":{"list":{"s":[],"i":["1","1","1","1"],"f":[],"b":[],"type":[],"shape":[],"tensor":[],"func":[]}},"data_format":{"s":[78,72,87,67]},"use_cudnn_on_gpu":{"b":true},"padding":{"s":[83,65,77,69]}},"name":"MobilenetV2/expanded_conv_10/expand/Conv2D","op":"Conv2D"},{"input":["MobilenetV2/expanded_conv_10/expand/Conv2D","MobilenetV2/expanded_conv_10/expand/BatchNorm/gamma","MobilenetV2/expanded_conv_10/expand/BatchNorm/beta","MobilenetV2/expanded_conv_10/expand/BatchNorm/moving_mean","MobilenetV2/expanded_conv_10/expand/BatchNorm/moving_variance"],"attr":{"T":{"type":1},"data_format":{"s":[78,72,87,67]},"is_training":{"b":false},"epsilon":{"f":0.0010000000474974513}},"name":"MobilenetV2/expanded_conv_10/expand/BatchNorm/FusedBatchNorm","op":"FusedBatchNorm"},{"input":["MobilenetV2/expanded_conv_10/expand/BatchNorm/FusedBatchNorm"],"attr":{"T":{"type":1}},"name":"MobilenetV2/expanded_conv_10/expand/Relu6","op":"Relu6"},{"input":["MobilenetV2/expanded_conv_10/expand/Relu6","MobilenetV2/expanded_conv_10/depthwise/depthwise_weights"],"attr":{"dilations":{"list":{"s":[],"i":["1","1","1","1"],"f":[],"b":[],"type":[],"shape":[],"tensor":[],"func":[]}},"padding":{"s":[83,65,77,69]},"T":{"type":1},"data_format":{"s":[78,72,87,67]},"strides":{"list":{"s":[],"i":["1","1","1","1"],"f":[],"b":[],"type":[],"shape":[],"tensor":[],"func":[]}}},"name":"MobilenetV2/expanded_conv_10/depthwise/depthwise","op":"DepthwiseConv2dNative"},{"input":["MobilenetV2/expanded_conv_10/depthwise/depthwise","MobilenetV2/expanded_conv_10/depthwise/BatchNorm/gamma","MobilenetV2/expanded_conv_10/depthwise/BatchNorm/beta","MobilenetV2/expanded_conv_10/depthwise/BatchNorm/moving_mean","MobilenetV2/expanded_conv_10/depthwise/BatchNorm/moving_variance"],"attr":{"epsilon":{"f":0.0010000000474974513},"T":{"type":1},"data_format":{"s":[78,72,87,67]},"is_training":{"b":false}},"name":"MobilenetV2/expanded_conv_10/depthwise/BatchNorm/FusedBatchNorm","op":"FusedBatchNorm"},{"input":["MobilenetV2/expanded_conv_10/depthwise/BatchNorm/FusedBatchNorm"],"attr":{"T":{"type":1}},"name":"MobilenetV2/expanded_conv_10/depthwise/Relu6","op":"Relu6"},{"input":["MobilenetV2/expanded_conv_10/depthwise/Relu6","MobilenetV2/expanded_conv_10/project/weights"],"attr":{"use_cudnn_on_gpu":{"b":true},"padding":{"s":[83,65,77,69]},"dilations":{"list":{"s":[],"i":["1","1","1","1"],"f":[],"b":[],"type":[],"shape":[],"tensor":[],"func":[]}},"T":{"type":1},"strides":{"list":{"s":[],"i":["1","1","1","1"],"f":[],"b":[],"type":[],"shape":[],"tensor":[],"func":[]}},"data_format":{"s":[78,72,87,67]}},"name":"MobilenetV2/expanded_conv_10/project/Conv2D","op":"Conv2D"},{"input":["MobilenetV2/expanded_conv_10/project/Conv2D","MobilenetV2/expanded_conv_10/project/BatchNorm/gamma","MobilenetV2/expanded_conv_10/project/BatchNorm/beta","MobilenetV2/expanded_conv_10/project/BatchNorm/moving_mean","MobilenetV2/expanded_conv_10/project/BatchNorm/moving_variance"],"attr":{"epsilon":{"f":0.0010000000474974513},"T":{"type":1},"data_format":{"s":[78,72,87,67]},"is_training":{"b":false}},"name":"MobilenetV2/expanded_conv_10/project/BatchNorm/FusedBatchNorm","op":"FusedBatchNorm"},{"input":["MobilenetV2/expanded_conv_10/project/BatchNorm/FusedBatchNorm","MobilenetV2/expanded_conv_11/expand/weights"],"attr":{"dilations":{"list":{"s":[],"i":["1","1","1","1"],"f":[],"b":[],"type":[],"shape":[],"tensor":[],"func":[]}},"T":{"type":1},"data_format":{"s":[78,72,87,67]},"strides":{"list":{"s":[],"i":["1","1","1","1"],"f":[],"b":[],"type":[],"shape":[],"tensor":[],"func":[]}},"use_cudnn_on_gpu":{"b":true},"padding":{"s":[83,65,77,69]}},"name":"MobilenetV2/expanded_conv_11/expand/Conv2D","op":"Conv2D"},{"input":["MobilenetV2/expanded_conv_11/expand/Conv2D","MobilenetV2/expanded_conv_11/expand/BatchNorm/gamma","MobilenetV2/expanded_conv_11/expand/BatchNorm/beta","MobilenetV2/expanded_conv_11/expand/BatchNorm/moving_mean","MobilenetV2/expanded_conv_11/expand/BatchNorm/moving_variance"],"attr":{"epsilon":{"f":0.0010000000474974513},"T":{"type":1},"data_format":{"s":[78,72,87,67]},"is_training":{"b":false}},"name":"MobilenetV2/expanded_conv_11/expand/BatchNorm/FusedBatchNorm","op":"FusedBatchNorm"},{"input":["MobilenetV2/expanded_conv_11/expand/BatchNorm/FusedBatchNorm"],"attr":{"T":{"type":1}},"name":"MobilenetV2/expanded_conv_11/expand/Relu6","op":"Relu6"},{"input":["MobilenetV2/expanded_conv_11/expand/Relu6","MobilenetV2/expanded_conv_11/depthwise/depthwise_weights"],"attr":{"data_format":{"s":[78,72,87,67]},"strides":{"list":{"s":[],"i":["1","1","1","1"],"f":[],"b":[],"type":[],"shape":[],"tensor":[],"func":[]}},"dilations":{"list":{"s":[],"i":["1","1","1","1"],"f":[],"b":[],"type":[],"shape":[],"tensor":[],"func":[]}},"padding":{"s":[83,65,77,69]},"T":{"type":1}},"name":"MobilenetV2/expanded_conv_11/depthwise/depthwise","op":"DepthwiseConv2dNative"},{"input":["MobilenetV2/expanded_conv_11/depthwise/depthwise","MobilenetV2/expanded_conv_11/depthwise/BatchNorm/gamma","MobilenetV2/expanded_conv_11/depthwise/BatchNorm/beta","MobilenetV2/expanded_conv_11/depthwise/BatchNorm/moving_mean","MobilenetV2/expanded_conv_11/depthwise/BatchNorm/moving_variance"],"attr":{"epsilon":{"f":0.0010000000474974513},"T":{"type":1},"data_format":{"s":[78,72,87,67]},"is_training":{"b":false}},"name":"MobilenetV2/expanded_conv_11/depthwise/BatchNorm/FusedBatchNorm","op":"FusedBatchNorm"},{"input":["MobilenetV2/expanded_conv_11/depthwise/BatchNorm/FusedBatchNorm"],"attr":{"T":{"type":1}},"name":"MobilenetV2/expanded_conv_11/depthwise/Relu6","op":"Relu6"},{"input":["MobilenetV2/expanded_conv_11/depthwise/Relu6","MobilenetV2/expanded_conv_11/project/weights"],"attr":{"dilations":{"list":{"s":[],"i":["1","1","1","1"],"f":[],"b":[],"type":[],"shape":[],"tensor":[],"func":[]}},"T":{"type":1},"strides":{"list":{"s":[],"i":["1","1","1","1"],"f":[],"b":[],"type":[],"shape":[],"tensor":[],"func":[]}},"data_format":{"s":[78,72,87,67]},"use_cudnn_on_gpu":{"b":true},"padding":{"s":[83,65,77,69]}},"name":"MobilenetV2/expanded_conv_11/project/Conv2D","op":"Conv2D"},{"input":["MobilenetV2/expanded_conv_11/project/Conv2D","MobilenetV2/expanded_conv_11/project/BatchNorm/gamma","MobilenetV2/expanded_conv_11/project/BatchNorm/beta","MobilenetV2/expanded_conv_11/project/BatchNorm/moving_mean","MobilenetV2/expanded_conv_11/project/BatchNorm/moving_variance"],"attr":{"data_format":{"s":[78,72,87,67]},"is_training":{"b":false},"epsilon":{"f":0.0010000000474974513},"T":{"type":1}},"name":"MobilenetV2/expanded_conv_11/project/BatchNorm/FusedBatchNorm","op":"FusedBatchNorm"},{"input":["MobilenetV2/expanded_conv_11/project/BatchNorm/FusedBatchNorm","MobilenetV2/expanded_conv_10/project/BatchNorm/FusedBatchNorm"],"attr":{"T":{"type":1}},"name":"MobilenetV2/expanded_conv_11/add","op":"Add"},{"input":["MobilenetV2/expanded_conv_11/add","MobilenetV2/expanded_conv_12/expand/weights"],"attr":{"dilations":{"list":{"s":[],"i":["1","1","1","1"],"f":[],"b":[],"type":[],"shape":[],"tensor":[],"func":[]}},"T":{"type":1},"data_format":{"s":[78,72,87,67]},"strides":{"list":{"s":[],"i":["1","1","1","1"],"f":[],"b":[],"type":[],"shape":[],"tensor":[],"func":[]}},"use_cudnn_on_gpu":{"b":true},"padding":{"s":[83,65,77,69]}},"name":"MobilenetV2/expanded_conv_12/expand/Conv2D","op":"Conv2D"},{"input":["MobilenetV2/expanded_conv_12/expand/Conv2D","MobilenetV2/expanded_conv_12/expand/BatchNorm/gamma","MobilenetV2/expanded_conv_12/expand/BatchNorm/beta","MobilenetV2/expanded_conv_12/expand/BatchNorm/moving_mean","MobilenetV2/expanded_conv_12/expand/BatchNorm/moving_variance"],"attr":{"T":{"type":1},"data_format":{"s":[78,72,87,67]},"is_training":{"b":false},"epsilon":{"f":0.0010000000474974513}},"name":"MobilenetV2/expanded_conv_12/expand/BatchNorm/FusedBatchNorm","op":"FusedBatchNorm"},{"input":["MobilenetV2/expanded_conv_12/expand/BatchNorm/FusedBatchNorm"],"attr":{"T":{"type":1}},"name":"MobilenetV2/expanded_conv_12/expand/Relu6","op":"Relu6"},{"input":["MobilenetV2/expanded_conv_12/expand/Relu6","MobilenetV2/expanded_conv_12/depthwise/depthwise_weights"],"attr":{"dilations":{"list":{"s":[],"i":["1","1","1","1"],"f":[],"b":[],"type":[],"shape":[],"tensor":[],"func":[]}},"padding":{"s":[83,65,77,69]},"T":{"type":1},"strides":{"list":{"s":[],"i":["1","1","1","1"],"f":[],"b":[],"type":[],"shape":[],"tensor":[],"func":[]}},"data_format":{"s":[78,72,87,67]}},"name":"MobilenetV2/expanded_conv_12/depthwise/depthwise","op":"DepthwiseConv2dNative"},{"input":["MobilenetV2/expanded_conv_12/depthwise/depthwise","MobilenetV2/expanded_conv_12/depthwise/BatchNorm/gamma","MobilenetV2/expanded_conv_12/depthwise/BatchNorm/beta","MobilenetV2/expanded_conv_12/depthwise/BatchNorm/moving_mean","MobilenetV2/expanded_conv_12/depthwise/BatchNorm/moving_variance"],"attr":{"is_training":{"b":false},"epsilon":{"f":0.0010000000474974513},"T":{"type":1},"data_format":{"s":[78,72,87,67]}},"name":"MobilenetV2/expanded_conv_12/depthwise/BatchNorm/FusedBatchNorm","op":"FusedBatchNorm"},{"input":["MobilenetV2/expanded_conv_12/depthwise/BatchNorm/FusedBatchNorm"],"attr":{"T":{"type":1}},"name":"MobilenetV2/expanded_conv_12/depthwise/Relu6","op":"Relu6"},{"input":["MobilenetV2/expanded_conv_12/depthwise/Relu6","MobilenetV2/expanded_conv_12/project/weights"],"attr":{"use_cudnn_on_gpu":{"b":true},"padding":{"s":[83,65,77,69]},"dilations":{"list":{"s":[],"i":["1","1","1","1"],"f":[],"b":[],"type":[],"shape":[],"tensor":[],"func":[]}},"T":{"type":1},"strides":{"list":{"s":[],"i":["1","1","1","1"],"f":[],"b":[],"type":[],"shape":[],"tensor":[],"func":[]}},"data_format":{"s":[78,72,87,67]}},"name":"MobilenetV2/expanded_conv_12/project/Conv2D","op":"Conv2D"},{"input":["MobilenetV2/expanded_conv_12/project/Conv2D","MobilenetV2/expanded_conv_12/project/BatchNorm/gamma","MobilenetV2/expanded_conv_12/project/BatchNorm/beta","MobilenetV2/expanded_conv_12/project/BatchNorm/moving_mean","MobilenetV2/expanded_conv_12/project/BatchNorm/moving_variance"],"attr":{"epsilon":{"f":0.0010000000474974513},"T":{"type":1},"data_format":{"s":[78,72,87,67]},"is_training":{"b":false}},"name":"MobilenetV2/expanded_conv_12/project/BatchNorm/FusedBatchNorm","op":"FusedBatchNorm"},{"input":["MobilenetV2/expanded_conv_12/project/BatchNorm/FusedBatchNorm","MobilenetV2/expanded_conv_11/add"],"attr":{"T":{"type":1}},"name":"MobilenetV2/expanded_conv_12/add","op":"Add"},{"input":["MobilenetV2/expanded_conv_12/add","MobilenetV2/expanded_conv_13/expand/weights"],"attr":{"padding":{"s":[83,65,77,69]},"dilations":{"list":{"s":[],"i":["1","1","1","1"],"f":[],"b":[],"type":[],"shape":[],"tensor":[],"func":[]}},"T":{"type":1},"strides":{"list":{"s":[],"i":["1","1","1","1"],"f":[],"b":[],"type":[],"shape":[],"tensor":[],"func":[]}},"data_format":{"s":[78,72,87,67]},"use_cudnn_on_gpu":{"b":true}},"name":"MobilenetV2/expanded_conv_13/expand/Conv2D","op":"Conv2D"},{"input":["MobilenetV2/expanded_conv_13/expand/Conv2D","MobilenetV2/expanded_conv_13/expand/BatchNorm/gamma","MobilenetV2/expanded_conv_13/expand/BatchNorm/beta","MobilenetV2/expanded_conv_13/expand/BatchNorm/moving_mean","MobilenetV2/expanded_conv_13/expand/BatchNorm/moving_variance"],"attr":{"T":{"type":1},"data_format":{"s":[78,72,87,67]},"is_training":{"b":false},"epsilon":{"f":0.0010000000474974513}},"name":"MobilenetV2/expanded_conv_13/expand/BatchNorm/FusedBatchNorm","op":"FusedBatchNorm"},{"input":["MobilenetV2/expanded_conv_13/expand/BatchNorm/FusedBatchNorm"],"attr":{"T":{"type":1}},"name":"MobilenetV2/expanded_conv_13/expand/Relu6","op":"Relu6"},{"input":["MobilenetV2/expanded_conv_13/expand/Relu6","MobilenetV2/expanded_conv_13/depthwise/depthwise_weights"],"attr":{"padding":{"s":[83,65,77,69]},"dilations":{"list":{"s":[],"i":["1","1","1","1"],"f":[],"b":[],"type":[],"shape":[],"tensor":[],"func":[]}},"T":{"type":1},"strides":{"list":{"s":[],"i":["1","2","2","1"],"f":[],"b":[],"type":[],"shape":[],"tensor":[],"func":[]}},"data_format":{"s":[78,72,87,67]}},"name":"MobilenetV2/expanded_conv_13/depthwise/depthwise","op":"DepthwiseConv2dNative"},{"input":["MobilenetV2/expanded_conv_13/depthwise/depthwise","MobilenetV2/expanded_conv_13/depthwise/BatchNorm/gamma","MobilenetV2/expanded_conv_13/depthwise/BatchNorm/beta","MobilenetV2/expanded_conv_13/depthwise/BatchNorm/moving_mean","MobilenetV2/expanded_conv_13/depthwise/BatchNorm/moving_variance"],"attr":{"data_format":{"s":[78,72,87,67]},"is_training":{"b":false},"epsilon":{"f":0.0010000000474974513},"T":{"type":1}},"name":"MobilenetV2/expanded_conv_13/depthwise/BatchNorm/FusedBatchNorm","op":"FusedBatchNorm"},{"input":["MobilenetV2/expanded_conv_13/depthwise/BatchNorm/FusedBatchNorm"],"attr":{"T":{"type":1}},"name":"MobilenetV2/expanded_conv_13/depthwise/Relu6","op":"Relu6"},{"input":["MobilenetV2/expanded_conv_13/depthwise/Relu6","MobilenetV2/expanded_conv_13/project/weights"],"attr":{"dilations":{"list":{"s":[],"i":["1","1","1","1"],"f":[],"b":[],"type":[],"shape":[],"tensor":[],"func":[]}},"T":{"type":1},"strides":{"list":{"s":[],"i":["1","1","1","1"],"f":[],"b":[],"type":[],"shape":[],"tensor":[],"func":[]}},"data_format":{"s":[78,72,87,67]},"use_cudnn_on_gpu":{"b":true},"padding":{"s":[83,65,77,69]}},"name":"MobilenetV2/expanded_conv_13/project/Conv2D","op":"Conv2D"},{"input":["MobilenetV2/expanded_conv_13/project/Conv2D","MobilenetV2/expanded_conv_13/project/BatchNorm/gamma","MobilenetV2/expanded_conv_13/project/BatchNorm/beta","MobilenetV2/expanded_conv_13/project/BatchNorm/moving_mean","MobilenetV2/expanded_conv_13/project/BatchNorm/moving_variance"],"attr":{"T":{"type":1},"data_format":{"s":[78,72,87,67]},"is_training":{"b":false},"epsilon":{"f":0.0010000000474974513}},"name":"MobilenetV2/expanded_conv_13/project/BatchNorm/FusedBatchNorm","op":"FusedBatchNorm"},{"input":["MobilenetV2/expanded_conv_13/project/BatchNorm/FusedBatchNorm","MobilenetV2/expanded_conv_14/expand/weights"],"attr":{"dilations":{"list":{"s":[],"i":["1","1","1","1"],"f":[],"b":[],"type":[],"shape":[],"tensor":[],"func":[]}},"T":{"type":1},"data_format":{"s":[78,72,87,67]},"strides":{"list":{"s":[],"i":["1","1","1","1"],"f":[],"b":[],"type":[],"shape":[],"tensor":[],"func":[]}},"use_cudnn_on_gpu":{"b":true},"padding":{"s":[83,65,77,69]}},"name":"MobilenetV2/expanded_conv_14/expand/Conv2D","op":"Conv2D"},{"input":["MobilenetV2/expanded_conv_14/expand/Conv2D","MobilenetV2/expanded_conv_14/expand/BatchNorm/gamma","MobilenetV2/expanded_conv_14/expand/BatchNorm/beta","MobilenetV2/expanded_conv_14/expand/BatchNorm/moving_mean","MobilenetV2/expanded_conv_14/expand/BatchNorm/moving_variance"],"attr":{"epsilon":{"f":0.0010000000474974513},"T":{"type":1},"data_format":{"s":[78,72,87,67]},"is_training":{"b":false}},"name":"MobilenetV2/expanded_conv_14/expand/BatchNorm/FusedBatchNorm","op":"FusedBatchNorm"},{"input":["MobilenetV2/expanded_conv_14/expand/BatchNorm/FusedBatchNorm"],"attr":{"T":{"type":1}},"name":"MobilenetV2/expanded_conv_14/expand/Relu6","op":"Relu6"},{"input":["MobilenetV2/expanded_conv_14/expand/Relu6","MobilenetV2/expanded_conv_14/depthwise/depthwise_weights"],"attr":{"padding":{"s":[83,65,77,69]},"dilations":{"list":{"s":[],"i":["1","1","1","1"],"f":[],"b":[],"type":[],"shape":[],"tensor":[],"func":[]}},"T":{"type":1},"data_format":{"s":[78,72,87,67]},"strides":{"list":{"s":[],"i":["1","1","1","1"],"f":[],"b":[],"type":[],"shape":[],"tensor":[],"func":[]}}},"name":"MobilenetV2/expanded_conv_14/depthwise/depthwise","op":"DepthwiseConv2dNative"},{"input":["MobilenetV2/expanded_conv_14/depthwise/depthwise","MobilenetV2/expanded_conv_14/depthwise/BatchNorm/gamma","MobilenetV2/expanded_conv_14/depthwise/BatchNorm/beta","MobilenetV2/expanded_conv_14/depthwise/BatchNorm/moving_mean","MobilenetV2/expanded_conv_14/depthwise/BatchNorm/moving_variance"],"attr":{"T":{"type":1},"data_format":{"s":[78,72,87,67]},"is_training":{"b":false},"epsilon":{"f":0.0010000000474974513}},"name":"MobilenetV2/expanded_conv_14/depthwise/BatchNorm/FusedBatchNorm","op":"FusedBatchNorm"},{"input":["MobilenetV2/expanded_conv_14/depthwise/BatchNorm/FusedBatchNorm"],"attr":{"T":{"type":1}},"name":"MobilenetV2/expanded_conv_14/depthwise/Relu6","op":"Relu6"},{"input":["MobilenetV2/expanded_conv_14/depthwise/Relu6","MobilenetV2/expanded_conv_14/project/weights"],"attr":{"T":{"type":1},"strides":{"list":{"s":[],"i":["1","1","1","1"],"f":[],"b":[],"type":[],"shape":[],"tensor":[],"func":[]}},"data_format":{"s":[78,72,87,67]},"use_cudnn_on_gpu":{"b":true},"padding":{"s":[83,65,77,69]},"dilations":{"list":{"s":[],"i":["1","1","1","1"],"f":[],"b":[],"type":[],"shape":[],"tensor":[],"func":[]}}},"name":"MobilenetV2/expanded_conv_14/project/Conv2D","op":"Conv2D"},{"input":["MobilenetV2/expanded_conv_14/project/Conv2D","MobilenetV2/expanded_conv_14/project/BatchNorm/gamma","MobilenetV2/expanded_conv_14/project/BatchNorm/beta","MobilenetV2/expanded_conv_14/project/BatchNorm/moving_mean","MobilenetV2/expanded_conv_14/project/BatchNorm/moving_variance"],"attr":{"epsilon":{"f":0.0010000000474974513},"T":{"type":1},"data_format":{"s":[78,72,87,67]},"is_training":{"b":false}},"name":"MobilenetV2/expanded_conv_14/project/BatchNorm/FusedBatchNorm","op":"FusedBatchNorm"},{"input":["MobilenetV2/expanded_conv_14/project/BatchNorm/FusedBatchNorm","MobilenetV2/expanded_conv_13/project/BatchNorm/FusedBatchNorm"],"attr":{"T":{"type":1}},"name":"MobilenetV2/expanded_conv_14/add","op":"Add"},{"input":["MobilenetV2/expanded_conv_14/add","MobilenetV2/expanded_conv_15/expand/weights"],"attr":{"dilations":{"list":{"s":[],"i":["1","1","1","1"],"f":[],"b":[],"type":[],"shape":[],"tensor":[],"func":[]}},"T":{"type":1},"data_format":{"s":[78,72,87,67]},"strides":{"list":{"s":[],"i":["1","1","1","1"],"f":[],"b":[],"type":[],"shape":[],"tensor":[],"func":[]}},"use_cudnn_on_gpu":{"b":true},"padding":{"s":[83,65,77,69]}},"name":"MobilenetV2/expanded_conv_15/expand/Conv2D","op":"Conv2D"},{"input":["MobilenetV2/expanded_conv_15/expand/Conv2D","MobilenetV2/expanded_conv_15/expand/BatchNorm/gamma","MobilenetV2/expanded_conv_15/expand/BatchNorm/beta","MobilenetV2/expanded_conv_15/expand/BatchNorm/moving_mean","MobilenetV2/expanded_conv_15/expand/BatchNorm/moving_variance"],"attr":{"T":{"type":1},"data_format":{"s":[78,72,87,67]},"is_training":{"b":false},"epsilon":{"f":0.0010000000474974513}},"name":"MobilenetV2/expanded_conv_15/expand/BatchNorm/FusedBatchNorm","op":"FusedBatchNorm"},{"input":["MobilenetV2/expanded_conv_15/expand/BatchNorm/FusedBatchNorm"],"attr":{"T":{"type":1}},"name":"MobilenetV2/expanded_conv_15/expand/Relu6","op":"Relu6"},{"input":["MobilenetV2/expanded_conv_15/expand/Relu6","MobilenetV2/expanded_conv_15/depthwise/depthwise_weights"],"attr":{"T":{"type":1},"strides":{"list":{"s":[],"i":["1","1","1","1"],"f":[],"b":[],"type":[],"shape":[],"tensor":[],"func":[]}},"data_format":{"s":[78,72,87,67]},"dilations":{"list":{"s":[],"i":["1","1","1","1"],"f":[],"b":[],"type":[],"shape":[],"tensor":[],"func":[]}},"padding":{"s":[83,65,77,69]}},"name":"MobilenetV2/expanded_conv_15/depthwise/depthwise","op":"DepthwiseConv2dNative"},{"input":["MobilenetV2/expanded_conv_15/depthwise/depthwise","MobilenetV2/expanded_conv_15/depthwise/BatchNorm/gamma","MobilenetV2/expanded_conv_15/depthwise/BatchNorm/beta","MobilenetV2/expanded_conv_15/depthwise/BatchNorm/moving_mean","MobilenetV2/expanded_conv_15/depthwise/BatchNorm/moving_variance"],"attr":{"T":{"type":1},"data_format":{"s":[78,72,87,67]},"is_training":{"b":false},"epsilon":{"f":0.0010000000474974513}},"name":"MobilenetV2/expanded_conv_15/depthwise/BatchNorm/FusedBatchNorm","op":"FusedBatchNorm"},{"input":["MobilenetV2/expanded_conv_15/depthwise/BatchNorm/FusedBatchNorm"],"attr":{"T":{"type":1}},"name":"MobilenetV2/expanded_conv_15/depthwise/Relu6","op":"Relu6"},{"input":["MobilenetV2/expanded_conv_15/depthwise/Relu6","MobilenetV2/expanded_conv_15/project/weights"],"attr":{"dilations":{"list":{"s":[],"i":["1","1","1","1"],"f":[],"b":[],"type":[],"shape":[],"tensor":[],"func":[]}},"T":{"type":1},"data_format":{"s":[78,72,87,67]},"strides":{"list":{"s":[],"i":["1","1","1","1"],"f":[],"b":[],"type":[],"shape":[],"tensor":[],"func":[]}},"use_cudnn_on_gpu":{"b":true},"padding":{"s":[83,65,77,69]}},"name":"MobilenetV2/expanded_conv_15/project/Conv2D","op":"Conv2D"},{"input":["MobilenetV2/expanded_conv_15/project/Conv2D","MobilenetV2/expanded_conv_15/project/BatchNorm/gamma","MobilenetV2/expanded_conv_15/project/BatchNorm/beta","MobilenetV2/expanded_conv_15/project/BatchNorm/moving_mean","MobilenetV2/expanded_conv_15/project/BatchNorm/moving_variance"],"attr":{"T":{"type":1},"data_format":{"s":[78,72,87,67]},"is_training":{"b":false},"epsilon":{"f":0.0010000000474974513}},"name":"MobilenetV2/expanded_conv_15/project/BatchNorm/FusedBatchNorm","op":"FusedBatchNorm"},{"input":["MobilenetV2/expanded_conv_15/project/BatchNorm/FusedBatchNorm","MobilenetV2/expanded_conv_14/add"],"attr":{"T":{"type":1}},"name":"MobilenetV2/expanded_conv_15/add","op":"Add"},{"input":["MobilenetV2/expanded_conv_15/add","MobilenetV2/expanded_conv_16/expand/weights"],"attr":{"dilations":{"list":{"s":[],"i":["1","1","1","1"],"f":[],"b":[],"type":[],"shape":[],"tensor":[],"func":[]}},"T":{"type":1},"strides":{"list":{"s":[],"i":["1","1","1","1"],"f":[],"b":[],"type":[],"shape":[],"tensor":[],"func":[]}},"data_format":{"s":[78,72,87,67]},"use_cudnn_on_gpu":{"b":true},"padding":{"s":[83,65,77,69]}},"name":"MobilenetV2/expanded_conv_16/expand/Conv2D","op":"Conv2D"},{"input":["MobilenetV2/expanded_conv_16/expand/Conv2D","MobilenetV2/expanded_conv_16/expand/BatchNorm/gamma","MobilenetV2/expanded_conv_16/expand/BatchNorm/beta","MobilenetV2/expanded_conv_16/expand/BatchNorm/moving_mean","MobilenetV2/expanded_conv_16/expand/BatchNorm/moving_variance"],"attr":{"data_format":{"s":[78,72,87,67]},"is_training":{"b":false},"epsilon":{"f":0.0010000000474974513},"T":{"type":1}},"name":"MobilenetV2/expanded_conv_16/expand/BatchNorm/FusedBatchNorm","op":"FusedBatchNorm"},{"input":["MobilenetV2/expanded_conv_16/expand/BatchNorm/FusedBatchNorm"],"attr":{"T":{"type":1}},"name":"MobilenetV2/expanded_conv_16/expand/Relu6","op":"Relu6"},{"input":["MobilenetV2/expanded_conv_16/expand/Relu6","MobilenetV2/expanded_conv_16/depthwise/depthwise_weights"],"attr":{"dilations":{"list":{"s":[],"i":["1","1","1","1"],"f":[],"b":[],"type":[],"shape":[],"tensor":[],"func":[]}},"padding":{"s":[83,65,77,69]},"T":{"type":1},"strides":{"list":{"s":[],"i":["1","1","1","1"],"f":[],"b":[],"type":[],"shape":[],"tensor":[],"func":[]}},"data_format":{"s":[78,72,87,67]}},"name":"MobilenetV2/expanded_conv_16/depthwise/depthwise","op":"DepthwiseConv2dNative"},{"input":["MobilenetV2/expanded_conv_16/depthwise/depthwise","MobilenetV2/expanded_conv_16/depthwise/BatchNorm/gamma","MobilenetV2/expanded_conv_16/depthwise/BatchNorm/beta","MobilenetV2/expanded_conv_16/depthwise/BatchNorm/moving_mean","MobilenetV2/expanded_conv_16/depthwise/BatchNorm/moving_variance"],"attr":{"epsilon":{"f":0.0010000000474974513},"T":{"type":1},"data_format":{"s":[78,72,87,67]},"is_training":{"b":false}},"name":"MobilenetV2/expanded_conv_16/depthwise/BatchNorm/FusedBatchNorm","op":"FusedBatchNorm"},{"input":["MobilenetV2/expanded_conv_16/depthwise/BatchNorm/FusedBatchNorm"],"attr":{"T":{"type":1}},"name":"MobilenetV2/expanded_conv_16/depthwise/Relu6","op":"Relu6"},{"input":["MobilenetV2/expanded_conv_16/depthwise/Relu6","MobilenetV2/expanded_conv_16/project/weights"],"attr":{"dilations":{"list":{"s":[],"i":["1","1","1","1"],"f":[],"b":[],"type":[],"shape":[],"tensor":[],"func":[]}},"T":{"type":1},"data_format":{"s":[78,72,87,67]},"strides":{"list":{"s":[],"i":["1","1","1","1"],"f":[],"b":[],"type":[],"shape":[],"tensor":[],"func":[]}},"use_cudnn_on_gpu":{"b":true},"padding":{"s":[83,65,77,69]}},"name":"MobilenetV2/expanded_conv_16/project/Conv2D","op":"Conv2D"},{"input":["MobilenetV2/expanded_conv_16/project/Conv2D","MobilenetV2/expanded_conv_16/project/BatchNorm/gamma","MobilenetV2/expanded_conv_16/project/BatchNorm/beta","MobilenetV2/expanded_conv_16/project/BatchNorm/moving_mean","MobilenetV2/expanded_conv_16/project/BatchNorm/moving_variance"],"attr":{"epsilon":{"f":0.0010000000474974513},"T":{"type":1},"data_format":{"s":[78,72,87,67]},"is_training":{"b":false}},"name":"MobilenetV2/expanded_conv_16/project/BatchNorm/FusedBatchNorm","op":"FusedBatchNorm"},{"input":["MobilenetV2/expanded_conv_16/project/BatchNorm/FusedBatchNorm","MobilenetV2/Conv_1/weights"],"attr":{"dilations":{"list":{"s":[],"i":["1","1","1","1"],"f":[],"b":[],"type":[],"shape":[],"tensor":[],"func":[]}},"T":{"type":1},"data_format":{"s":[78,72,87,67]},"strides":{"list":{"s":[],"i":["1","1","1","1"],"f":[],"b":[],"type":[],"shape":[],"tensor":[],"func":[]}},"use_cudnn_on_gpu":{"b":true},"padding":{"s":[83,65,77,69]}},"name":"MobilenetV2/Conv_1/Conv2D","op":"Conv2D"},{"input":["MobilenetV2/Conv_1/Conv2D","MobilenetV2/Conv_1/BatchNorm/gamma","MobilenetV2/Conv_1/BatchNorm/beta","MobilenetV2/Conv_1/BatchNorm/moving_mean","MobilenetV2/Conv_1/BatchNorm/moving_variance"],"attr":{"T":{"type":1},"data_format":{"s":[78,72,87,67]},"is_training":{"b":false},"epsilon":{"f":0.0010000000474974513}},"name":"MobilenetV2/Conv_1/BatchNorm/FusedBatchNorm","op":"FusedBatchNorm"},{"input":["MobilenetV2/Conv_1/BatchNorm/FusedBatchNorm"],"attr":{"T":{"type":1}},"name":"MobilenetV2/Conv_1/Relu6","op":"Relu6"},{"input":["MobilenetV2/Conv_1/Relu6","bottleneck/Mean/reduction_indices"],"attr":{"keep_dims":{"b":true},"Tidx":{"type":3},"T":{"type":1}},"name":"bottleneck/Mean","op":"Mean"},{"input":["bottleneck/Mean","mobilenet_conv/Conv/weights"],"attr":{"dilations":{"list":{"s":[],"i":["1","1","1","1"],"f":[],"b":[],"type":[],"shape":[],"tensor":[],"func":[]}},"T":{"type":1},"strides":{"list":{"s":[],"i":["1","1","1","1"],"f":[],"b":[],"type":[],"shape":[],"tensor":[],"func":[]}},"data_format":{"s":[78,72,87,67]},"use_cudnn_on_gpu":{"b":true},"padding":{"s":[83,65,77,69]}},"name":"mobilenet_conv/Conv/Conv2D","op":"Conv2D"},{"input":["mobilenet_conv/Conv/Conv2D","mobilenet_conv/Conv/biases"],"attr":{"T":{"type":1},"data_format":{"s":[78,72,87,67]}},"name":"mobilenet_conv/Conv/BiasAdd","op":"BiasAdd"}],"library":{"function":[],"gradient":[]},"versions":{"badConsumers":[]}},"weightsManifest":[{"paths":["group1-shard1of3","group1-shard2of3","group1-shard3of3"],"weights":[{"name":"MobilenetV2/expanded_conv_15/expand/weights","shape":[1,1,160,960],"dtype":"float32"},{"name":"MobilenetV2/expanded_conv_15/expand/BatchNorm/gamma","shape":[960],"dtype":"float32"},{"name":"MobilenetV2/expanded_conv_15/expand/BatchNorm/beta","shape":[960],"dtype":"float32"},{"name":"MobilenetV2/expanded_conv_15/expand/BatchNorm/moving_mean","shape":[960],"dtype":"float32"},{"name":"MobilenetV2/expanded_conv_15/expand/BatchNorm/moving_variance","shape":[960],"dtype":"float32"},{"name":"MobilenetV2/expanded_conv_15/depthwise/depthwise_weights","shape":[3,3,960,1],"dtype":"float32"},{"name":"MobilenetV2/expanded_conv_15/depthwise/BatchNorm/gamma","shape":[960],"dtype":"float32"},{"name":"MobilenetV2/expanded_conv_15/depthwise/BatchNorm/beta","shape":[960],"dtype":"float32"},{"name":"MobilenetV2/expanded_conv_15/depthwise/BatchNorm/moving_mean","shape":[960],"dtype":"float32"},{"name":"MobilenetV2/expanded_conv_15/depthwise/BatchNorm/moving_variance","shape":[960],"dtype":"float32"},{"name":"MobilenetV2/expanded_conv_15/project/weights","shape":[1,1,960,160],"dtype":"float32"},{"name":"MobilenetV2/expanded_conv_15/project/BatchNorm/gamma","shape":[160],"dtype":"float32"},{"name":"MobilenetV2/expanded_conv_15/project/BatchNorm/beta","shape":[160],"dtype":"float32"},{"name":"MobilenetV2/expanded_conv_15/project/BatchNorm/moving_mean","shape":[160],"dtype":"float32"},{"name":"MobilenetV2/expanded_conv_15/project/BatchNorm/moving_variance","shape":[160],"dtype":"float32"},{"name":"MobilenetV2/expanded_conv_14/expand/weights","shape":[1,1,160,960],"dtype":"float32"},{"name":"MobilenetV2/expanded_conv_14/expand/BatchNorm/gamma","shape":[960],"dtype":"float32"},{"name":"MobilenetV2/expanded_conv_14/expand/BatchNorm/beta","shape":[960],"dtype":"float32"},{"name":"MobilenetV2/expanded_conv_14/expand/BatchNorm/moving_mean","shape":[960],"dtype":"float32"},{"name":"MobilenetV2/expanded_conv_14/expand/BatchNorm/moving_variance","shape":[960],"dtype":"float32"},{"name":"MobilenetV2/expanded_conv_14/depthwise/depthwise_weights","shape":[3,3,960,1],"dtype":"float32"},{"name":"MobilenetV2/expanded_conv_14/depthwise/BatchNorm/gamma","shape":[960],"dtype":"float32"},{"name":"MobilenetV2/expanded_conv_14/depthwise/BatchNorm/beta","shape":[960],"dtype":"float32"},{"name":"MobilenetV2/expanded_conv_14/depthwise/BatchNorm/moving_mean","shape":[960],"dtype":"float32"},{"name":"MobilenetV2/expanded_conv_14/depthwise/BatchNorm/moving_variance","shape":[960],"dtype":"float32"},{"name":"MobilenetV2/expanded_conv_14/project/weights","shape":[1,1,960,160],"dtype":"float32"},{"name":"MobilenetV2/expanded_conv_14/project/BatchNorm/gamma","shape":[160],"dtype":"float32"},{"name":"MobilenetV2/expanded_conv_14/project/BatchNorm/beta","shape":[160],"dtype":"float32"},{"name":"MobilenetV2/expanded_conv_14/project/BatchNorm/moving_mean","shape":[160],"dtype":"float32"},{"name":"MobilenetV2/expanded_conv_14/project/BatchNorm/moving_variance","shape":[160],"dtype":"float32"},{"name":"MobilenetV2/expanded_conv_12/expand/weights","shape":[1,1,96,576],"dtype":"float32"},{"name":"MobilenetV2/expanded_conv_12/expand/BatchNorm/gamma","shape":[576],"dtype":"float32"},{"name":"MobilenetV2/expanded_conv_12/expand/BatchNorm/beta","shape":[576],"dtype":"float32"},{"name":"MobilenetV2/expanded_conv_12/expand/BatchNorm/moving_mean","shape":[576],"dtype":"float32"},{"name":"MobilenetV2/expanded_conv_12/expand/BatchNorm/moving_variance","shape":[576],"dtype":"float32"},{"name":"MobilenetV2/expanded_conv_12/depthwise/depthwise_weights","shape":[3,3,576,1],"dtype":"float32"},{"name":"MobilenetV2/expanded_conv_12/depthwise/BatchNorm/gamma","shape":[576],"dtype":"float32"},{"name":"MobilenetV2/expanded_conv_12/depthwise/BatchNorm/beta","shape":[576],"dtype":"float32"},{"name":"MobilenetV2/expanded_conv_12/depthwise/BatchNorm/moving_mean","shape":[576],"dtype":"float32"},{"name":"MobilenetV2/expanded_conv_12/depthwise/BatchNorm/moving_variance","shape":[576],"dtype":"float32"},{"name":"MobilenetV2/expanded_conv_12/project/weights","shape":[1,1,576,96],"dtype":"float32"},{"name":"MobilenetV2/expanded_conv_12/project/BatchNorm/gamma","shape":[96],"dtype":"float32"},{"name":"MobilenetV2/expanded_conv_12/project/BatchNorm/beta","shape":[96],"dtype":"float32"},{"name":"MobilenetV2/expanded_conv_12/project/BatchNorm/moving_mean","shape":[96],"dtype":"float32"},{"name":"MobilenetV2/expanded_conv_12/project/BatchNorm/moving_variance","shape":[96],"dtype":"float32"},{"name":"MobilenetV2/expanded_conv_11/expand/weights","shape":[1,1,96,576],"dtype":"float32"},{"name":"MobilenetV2/expanded_conv_11/expand/BatchNorm/gamma","shape":[576],"dtype":"float32"},{"name":"MobilenetV2/expanded_conv_11/expand/BatchNorm/beta","shape":[576],"dtype":"float32"},{"name":"MobilenetV2/expanded_conv_11/expand/BatchNorm/moving_mean","shape":[576],"dtype":"float32"},{"name":"MobilenetV2/expanded_conv_11/expand/BatchNorm/moving_variance","shape":[576],"dtype":"float32"},{"name":"MobilenetV2/expanded_conv_11/depthwise/depthwise_weights","shape":[3,3,576,1],"dtype":"float32"},{"name":"MobilenetV2/expanded_conv_11/depthwise/BatchNorm/gamma","shape":[576],"dtype":"float32"},{"name":"MobilenetV2/expanded_conv_11/depthwise/BatchNorm/beta","shape":[576],"dtype":"float32"},{"name":"MobilenetV2/expanded_conv_11/depthwise/BatchNorm/moving_mean","shape":[576],"dtype":"float32"},{"name":"MobilenetV2/expanded_conv_11/depthwise/BatchNorm/moving_variance","shape":[576],"dtype":"float32"},{"name":"MobilenetV2/expanded_conv_11/project/weights","shape":[1,1,576,96],"dtype":"float32"},{"name":"MobilenetV2/expanded_conv_11/project/BatchNorm/gamma","shape":[96],"dtype":"float32"},{"name":"MobilenetV2/expanded_conv_11/project/BatchNorm/beta","shape":[96],"dtype":"float32"},{"name":"MobilenetV2/expanded_conv_11/project/BatchNorm/moving_mean","shape":[96],"dtype":"float32"},{"name":"MobilenetV2/expanded_conv_11/project/BatchNorm/moving_variance","shape":[96],"dtype":"float32"},{"name":"MobilenetV2/expanded_conv_9/expand/weights","shape":[1,1,64,384],"dtype":"float32"},{"name":"MobilenetV2/expanded_conv_9/expand/BatchNorm/gamma","shape":[384],"dtype":"float32"},{"name":"MobilenetV2/expanded_conv_9/expand/BatchNorm/beta","shape":[384],"dtype":"float32"},{"name":"MobilenetV2/expanded_conv_9/expand/BatchNorm/moving_mean","shape":[384],"dtype":"float32"},{"name":"MobilenetV2/expanded_conv_9/expand/BatchNorm/moving_variance","shape":[384],"dtype":"float32"},{"name":"MobilenetV2/expanded_conv_9/depthwise/depthwise_weights","shape":[3,3,384,1],"dtype":"float32"},{"name":"MobilenetV2/expanded_conv_9/depthwise/BatchNorm/gamma","shape":[384],"dtype":"float32"},{"name":"MobilenetV2/expanded_conv_9/depthwise/BatchNorm/beta","shape":[384],"dtype":"float32"},{"name":"MobilenetV2/expanded_conv_9/depthwise/BatchNorm/moving_mean","shape":[384],"dtype":"float32"},{"name":"MobilenetV2/expanded_conv_9/depthwise/BatchNorm/moving_variance","shape":[384],"dtype":"float32"},{"name":"MobilenetV2/expanded_conv_9/project/weights","shape":[1,1,384,64],"dtype":"float32"},{"name":"MobilenetV2/expanded_conv_9/project/BatchNorm/gamma","shape":[64],"dtype":"float32"},{"name":"MobilenetV2/expanded_conv_9/project/BatchNorm/beta","shape":[64],"dtype":"float32"},{"name":"MobilenetV2/expanded_conv_9/project/BatchNorm/moving_mean","shape":[64],"dtype":"float32"},{"name":"MobilenetV2/expanded_conv_9/project/BatchNorm/moving_variance","shape":[64],"dtype":"float32"},{"name":"MobilenetV2/expanded_conv_8/expand/weights","shape":[1,1,64,384],"dtype":"float32"},{"name":"MobilenetV2/expanded_conv_8/expand/BatchNorm/gamma","shape":[384],"dtype":"float32"},{"name":"MobilenetV2/expanded_conv_8/expand/BatchNorm/beta","shape":[384],"dtype":"float32"},{"name":"MobilenetV2/expanded_conv_8/expand/BatchNorm/moving_mean","shape":[384],"dtype":"float32"},{"name":"MobilenetV2/expanded_conv_8/expand/BatchNorm/moving_variance","shape":[384],"dtype":"float32"},{"name":"MobilenetV2/expanded_conv_8/depthwise/depthwise_weights","shape":[3,3,384,1],"dtype":"float32"},{"name":"MobilenetV2/expanded_conv_8/depthwise/BatchNorm/gamma","shape":[384],"dtype":"float32"},{"name":"MobilenetV2/expanded_conv_8/depthwise/BatchNorm/beta","shape":[384],"dtype":"float32"},{"name":"MobilenetV2/expanded_conv_8/depthwise/BatchNorm/moving_mean","shape":[384],"dtype":"float32"},{"name":"MobilenetV2/expanded_conv_8/depthwise/BatchNorm/moving_variance","shape":[384],"dtype":"float32"},{"name":"MobilenetV2/expanded_conv_8/project/weights","shape":[1,1,384,64],"dtype":"float32"},{"name":"MobilenetV2/expanded_conv_8/project/BatchNorm/gamma","shape":[64],"dtype":"float32"},{"name":"MobilenetV2/expanded_conv_8/project/BatchNorm/beta","shape":[64],"dtype":"float32"},{"name":"MobilenetV2/expanded_conv_8/project/BatchNorm/moving_mean","shape":[64],"dtype":"float32"},{"name":"MobilenetV2/expanded_conv_8/project/BatchNorm/moving_variance","shape":[64],"dtype":"float32"},{"name":"MobilenetV2/expanded_conv_7/expand/weights","shape":[1,1,64,384],"dtype":"float32"},{"name":"MobilenetV2/expanded_conv_7/expand/BatchNorm/gamma","shape":[384],"dtype":"float32"},{"name":"MobilenetV2/expanded_conv_7/expand/BatchNorm/beta","shape":[384],"dtype":"float32"},{"name":"MobilenetV2/expanded_conv_7/expand/BatchNorm/moving_mean","shape":[384],"dtype":"float32"},{"name":"MobilenetV2/expanded_conv_7/expand/BatchNorm/moving_variance","shape":[384],"dtype":"float32"},{"name":"MobilenetV2/expanded_conv_7/depthwise/depthwise_weights","shape":[3,3,384,1],"dtype":"float32"},{"name":"MobilenetV2/expanded_conv_7/depthwise/BatchNorm/gamma","shape":[384],"dtype":"float32"},{"name":"MobilenetV2/expanded_conv_7/depthwise/BatchNorm/beta","shape":[384],"dtype":"float32"},{"name":"MobilenetV2/expanded_conv_7/depthwise/BatchNorm/moving_mean","shape":[384],"dtype":"float32"},{"name":"MobilenetV2/expanded_conv_7/depthwise/BatchNorm/moving_variance","shape":[384],"dtype":"float32"},{"name":"MobilenetV2/expanded_conv_7/project/weights","shape":[1,1,384,64],"dtype":"float32"},{"name":"MobilenetV2/expanded_conv_7/project/BatchNorm/gamma","shape":[64],"dtype":"float32"},{"name":"MobilenetV2/expanded_conv_7/project/BatchNorm/beta","shape":[64],"dtype":"float32"},{"name":"MobilenetV2/expanded_conv_7/project/BatchNorm/moving_mean","shape":[64],"dtype":"float32"},{"name":"MobilenetV2/expanded_conv_7/project/BatchNorm/moving_variance","shape":[64],"dtype":"float32"},{"name":"MobilenetV2/expanded_conv_5/expand/weights","shape":[1,1,32,192],"dtype":"float32"},{"name":"MobilenetV2/expanded_conv_5/expand/BatchNorm/gamma","shape":[192],"dtype":"float32"},{"name":"MobilenetV2/expanded_conv_5/expand/BatchNorm/beta","shape":[192],"dtype":"float32"},{"name":"MobilenetV2/expanded_conv_5/expand/BatchNorm/moving_mean","shape":[192],"dtype":"float32"},{"name":"MobilenetV2/expanded_conv_5/expand/BatchNorm/moving_variance","shape":[192],"dtype":"float32"},{"name":"MobilenetV2/expanded_conv_5/depthwise/depthwise_weights","shape":[3,3,192,1],"dtype":"float32"},{"name":"MobilenetV2/expanded_conv_5/depthwise/BatchNorm/gamma","shape":[192],"dtype":"float32"},{"name":"MobilenetV2/expanded_conv_5/depthwise/BatchNorm/beta","shape":[192],"dtype":"float32"},{"name":"MobilenetV2/expanded_conv_5/depthwise/BatchNorm/moving_mean","shape":[192],"dtype":"float32"},{"name":"MobilenetV2/expanded_conv_5/depthwise/BatchNorm/moving_variance","shape":[192],"dtype":"float32"},{"name":"MobilenetV2/expanded_conv_5/project/weights","shape":[1,1,192,32],"dtype":"float32"},{"name":"MobilenetV2/expanded_conv_5/project/BatchNorm/gamma","shape":[32],"dtype":"float32"},{"name":"MobilenetV2/expanded_conv_5/project/BatchNorm/beta","shape":[32],"dtype":"float32"},{"name":"MobilenetV2/expanded_conv_5/project/BatchNorm/moving_mean","shape":[32],"dtype":"float32"},{"name":"MobilenetV2/expanded_conv_5/project/BatchNorm/moving_variance","shape":[32],"dtype":"float32"},{"name":"MobilenetV2/expanded_conv_4/expand/weights","shape":[1,1,32,192],"dtype":"float32"},{"name":"MobilenetV2/expanded_conv_4/expand/BatchNorm/gamma","shape":[192],"dtype":"float32"},{"name":"MobilenetV2/expanded_conv_4/expand/BatchNorm/beta","shape":[192],"dtype":"float32"},{"name":"MobilenetV2/expanded_conv_4/expand/BatchNorm/moving_mean","shape":[192],"dtype":"float32"},{"name":"MobilenetV2/expanded_conv_4/expand/BatchNorm/moving_variance","shape":[192],"dtype":"float32"},{"name":"MobilenetV2/expanded_conv_4/depthwise/depthwise_weights","shape":[3,3,192,1],"dtype":"float32"},{"name":"MobilenetV2/expanded_conv_4/depthwise/BatchNorm/gamma","shape":[192],"dtype":"float32"},{"name":"MobilenetV2/expanded_conv_4/depthwise/BatchNorm/beta","shape":[192],"dtype":"float32"},{"name":"MobilenetV2/expanded_conv_4/depthwise/BatchNorm/moving_mean","shape":[192],"dtype":"float32"},{"name":"MobilenetV2/expanded_conv_4/depthwise/BatchNorm/moving_variance","shape":[192],"dtype":"float32"},{"name":"MobilenetV2/expanded_conv_4/project/weights","shape":[1,1,192,32],"dtype":"float32"},{"name":"MobilenetV2/expanded_conv_4/project/BatchNorm/gamma","shape":[32],"dtype":"float32"},{"name":"MobilenetV2/expanded_conv_4/project/BatchNorm/beta","shape":[32],"dtype":"float32"},{"name":"MobilenetV2/expanded_conv_4/project/BatchNorm/moving_mean","shape":[32],"dtype":"float32"},{"name":"MobilenetV2/expanded_conv_4/project/BatchNorm/moving_variance","shape":[32],"dtype":"float32"},{"name":"MobilenetV2/expanded_conv_2/expand/weights","shape":[1,1,24,144],"dtype":"float32"},{"name":"MobilenetV2/expanded_conv_2/expand/BatchNorm/gamma","shape":[144],"dtype":"float32"},{"name":"MobilenetV2/expanded_conv_2/expand/BatchNorm/beta","shape":[144],"dtype":"float32"},{"name":"MobilenetV2/expanded_conv_2/expand/BatchNorm/moving_mean","shape":[144],"dtype":"float32"},{"name":"MobilenetV2/expanded_conv_2/expand/BatchNorm/moving_variance","shape":[144],"dtype":"float32"},{"name":"MobilenetV2/expanded_conv_2/depthwise/depthwise_weights","shape":[3,3,144,1],"dtype":"float32"},{"name":"MobilenetV2/expanded_conv_2/depthwise/BatchNorm/gamma","shape":[144],"dtype":"float32"},{"name":"MobilenetV2/expanded_conv_2/depthwise/BatchNorm/beta","shape":[144],"dtype":"float32"},{"name":"MobilenetV2/expanded_conv_2/depthwise/BatchNorm/moving_mean","shape":[144],"dtype":"float32"},{"name":"MobilenetV2/expanded_conv_2/depthwise/BatchNorm/moving_variance","shape":[144],"dtype":"float32"},{"name":"MobilenetV2/expanded_conv_2/project/weights","shape":[1,1,144,24],"dtype":"float32"},{"name":"MobilenetV2/expanded_conv_2/project/BatchNorm/gamma","shape":[24],"dtype":"float32"},{"name":"MobilenetV2/expanded_conv_2/project/BatchNorm/beta","shape":[24],"dtype":"float32"},{"name":"MobilenetV2/expanded_conv_2/project/BatchNorm/moving_mean","shape":[24],"dtype":"float32"},{"name":"MobilenetV2/expanded_conv_2/project/BatchNorm/moving_variance","shape":[24],"dtype":"float32"},{"name":"MobilenetV2/Conv/weights","shape":[3,3,3,32],"dtype":"float32"},{"name":"MobilenetV2/Conv/BatchNorm/gamma","shape":[32],"dtype":"float32"},{"name":"MobilenetV2/Conv/BatchNorm/beta","shape":[32],"dtype":"float32"},{"name":"MobilenetV2/Conv/BatchNorm/moving_mean","shape":[32],"dtype":"float32"},{"name":"MobilenetV2/Conv/BatchNorm/moving_variance","shape":[32],"dtype":"float32"},{"name":"MobilenetV2/expanded_conv/depthwise/depthwise_weights","shape":[3,3,32,1],"dtype":"float32"},{"name":"MobilenetV2/expanded_conv/depthwise/BatchNorm/gamma","shape":[32],"dtype":"float32"},{"name":"MobilenetV2/expanded_conv/depthwise/BatchNorm/beta","shape":[32],"dtype":"float32"},{"name":"MobilenetV2/expanded_conv/depthwise/BatchNorm/moving_mean","shape":[32],"dtype":"float32"},{"name":"MobilenetV2/expanded_conv/depthwise/BatchNorm/moving_variance","shape":[32],"dtype":"float32"},{"name":"MobilenetV2/expanded_conv/project/weights","shape":[1,1,32,16],"dtype":"float32"},{"name":"MobilenetV2/expanded_conv/project/BatchNorm/gamma","shape":[16],"dtype":"float32"},{"name":"MobilenetV2/expanded_conv/project/BatchNorm/beta","shape":[16],"dtype":"float32"},{"name":"MobilenetV2/expanded_conv/project/BatchNorm/moving_mean","shape":[16],"dtype":"float32"},{"name":"MobilenetV2/expanded_conv/project/BatchNorm/moving_variance","shape":[16],"dtype":"float32"},{"name":"MobilenetV2/expanded_conv_1/expand/weights","shape":[1,1,16,96],"dtype":"float32"},{"name":"MobilenetV2/expanded_conv_1/expand/BatchNorm/gamma","shape":[96],"dtype":"float32"},{"name":"MobilenetV2/expanded_conv_1/expand/BatchNorm/beta","shape":[96],"dtype":"float32"},{"name":"MobilenetV2/expanded_conv_1/expand/BatchNorm/moving_mean","shape":[96],"dtype":"float32"},{"name":"MobilenetV2/expanded_conv_1/expand/BatchNorm/moving_variance","shape":[96],"dtype":"float32"},{"name":"MobilenetV2/expanded_conv_1/depthwise/depthwise_weights","shape":[3,3,96,1],"dtype":"float32"},{"name":"MobilenetV2/expanded_conv_1/depthwise/BatchNorm/gamma","shape":[96],"dtype":"float32"},{"name":"MobilenetV2/expanded_conv_1/depthwise/BatchNorm/beta","shape":[96],"dtype":"float32"},{"name":"MobilenetV2/expanded_conv_1/depthwise/BatchNorm/moving_mean","shape":[96],"dtype":"float32"},{"name":"MobilenetV2/expanded_conv_1/depthwise/BatchNorm/moving_variance","shape":[96],"dtype":"float32"},{"name":"MobilenetV2/expanded_conv_1/project/weights","shape":[1,1,96,24],"dtype":"float32"},{"name":"MobilenetV2/expanded_conv_1/project/BatchNorm/gamma","shape":[24],"dtype":"float32"},{"name":"MobilenetV2/expanded_conv_1/project/BatchNorm/beta","shape":[24],"dtype":"float32"},{"name":"MobilenetV2/expanded_conv_1/project/BatchNorm/moving_mean","shape":[24],"dtype":"float32"},{"name":"MobilenetV2/expanded_conv_1/project/BatchNorm/moving_variance","shape":[24],"dtype":"float32"},{"name":"MobilenetV2/expanded_conv_3/expand/weights","shape":[1,1,24,144],"dtype":"float32"},{"name":"MobilenetV2/expanded_conv_3/expand/BatchNorm/gamma","shape":[144],"dtype":"float32"},{"name":"MobilenetV2/expanded_conv_3/expand/BatchNorm/beta","shape":[144],"dtype":"float32"},{"name":"MobilenetV2/expanded_conv_3/expand/BatchNorm/moving_mean","shape":[144],"dtype":"float32"},{"name":"MobilenetV2/expanded_conv_3/expand/BatchNorm/moving_variance","shape":[144],"dtype":"float32"},{"name":"MobilenetV2/expanded_conv_3/depthwise/depthwise_weights","shape":[3,3,144,1],"dtype":"float32"},{"name":"MobilenetV2/expanded_conv_3/depthwise/BatchNorm/gamma","shape":[144],"dtype":"float32"},{"name":"MobilenetV2/expanded_conv_3/depthwise/BatchNorm/beta","shape":[144],"dtype":"float32"},{"name":"MobilenetV2/expanded_conv_3/depthwise/BatchNorm/moving_mean","shape":[144],"dtype":"float32"},{"name":"MobilenetV2/expanded_conv_3/depthwise/BatchNorm/moving_variance","shape":[144],"dtype":"float32"},{"name":"MobilenetV2/expanded_conv_3/project/weights","shape":[1,1,144,32],"dtype":"float32"},{"name":"MobilenetV2/expanded_conv_3/project/BatchNorm/gamma","shape":[32],"dtype":"float32"},{"name":"MobilenetV2/expanded_conv_3/project/BatchNorm/beta","shape":[32],"dtype":"float32"},{"name":"MobilenetV2/expanded_conv_3/project/BatchNorm/moving_mean","shape":[32],"dtype":"float32"},{"name":"MobilenetV2/expanded_conv_3/project/BatchNorm/moving_variance","shape":[32],"dtype":"float32"},{"name":"MobilenetV2/expanded_conv_6/expand/weights","shape":[1,1,32,192],"dtype":"float32"},{"name":"MobilenetV2/expanded_conv_6/expand/BatchNorm/gamma","shape":[192],"dtype":"float32"},{"name":"MobilenetV2/expanded_conv_6/expand/BatchNorm/beta","shape":[192],"dtype":"float32"},{"name":"MobilenetV2/expanded_conv_6/expand/BatchNorm/moving_mean","shape":[192],"dtype":"float32"},{"name":"MobilenetV2/expanded_conv_6/expand/BatchNorm/moving_variance","shape":[192],"dtype":"float32"},{"name":"MobilenetV2/expanded_conv_6/depthwise/depthwise_weights","shape":[3,3,192,1],"dtype":"float32"},{"name":"MobilenetV2/expanded_conv_6/depthwise/BatchNorm/gamma","shape":[192],"dtype":"float32"},{"name":"MobilenetV2/expanded_conv_6/depthwise/BatchNorm/beta","shape":[192],"dtype":"float32"},{"name":"MobilenetV2/expanded_conv_6/depthwise/BatchNorm/moving_mean","shape":[192],"dtype":"float32"},{"name":"MobilenetV2/expanded_conv_6/depthwise/BatchNorm/moving_variance","shape":[192],"dtype":"float32"},{"name":"MobilenetV2/expanded_conv_6/project/weights","shape":[1,1,192,64],"dtype":"float32"},{"name":"MobilenetV2/expanded_conv_6/project/BatchNorm/gamma","shape":[64],"dtype":"float32"},{"name":"MobilenetV2/expanded_conv_6/project/BatchNorm/beta","shape":[64],"dtype":"float32"},{"name":"MobilenetV2/expanded_conv_6/project/BatchNorm/moving_mean","shape":[64],"dtype":"float32"},{"name":"MobilenetV2/expanded_conv_6/project/BatchNorm/moving_variance","shape":[64],"dtype":"float32"},{"name":"MobilenetV2/expanded_conv_10/expand/weights","shape":[1,1,64,384],"dtype":"float32"},{"name":"MobilenetV2/expanded_conv_10/expand/BatchNorm/gamma","shape":[384],"dtype":"float32"},{"name":"MobilenetV2/expanded_conv_10/expand/BatchNorm/beta","shape":[384],"dtype":"float32"},{"name":"MobilenetV2/expanded_conv_10/expand/BatchNorm/moving_mean","shape":[384],"dtype":"float32"},{"name":"MobilenetV2/expanded_conv_10/expand/BatchNorm/moving_variance","shape":[384],"dtype":"float32"},{"name":"MobilenetV2/expanded_conv_10/depthwise/depthwise_weights","shape":[3,3,384,1],"dtype":"float32"},{"name":"MobilenetV2/expanded_conv_10/depthwise/BatchNorm/gamma","shape":[384],"dtype":"float32"},{"name":"MobilenetV2/expanded_conv_10/depthwise/BatchNorm/beta","shape":[384],"dtype":"float32"},{"name":"MobilenetV2/expanded_conv_10/depthwise/BatchNorm/moving_mean","shape":[384],"dtype":"float32"},{"name":"MobilenetV2/expanded_conv_10/depthwise/BatchNorm/moving_variance","shape":[384],"dtype":"float32"},{"name":"MobilenetV2/expanded_conv_10/project/weights","shape":[1,1,384,96],"dtype":"float32"},{"name":"MobilenetV2/expanded_conv_10/project/BatchNorm/gamma","shape":[96],"dtype":"float32"},{"name":"MobilenetV2/expanded_conv_10/project/BatchNorm/beta","shape":[96],"dtype":"float32"},{"name":"MobilenetV2/expanded_conv_10/project/BatchNorm/moving_mean","shape":[96],"dtype":"float32"},{"name":"MobilenetV2/expanded_conv_10/project/BatchNorm/moving_variance","shape":[96],"dtype":"float32"},{"name":"MobilenetV2/expanded_conv_13/expand/weights","shape":[1,1,96,576],"dtype":"float32"},{"name":"MobilenetV2/expanded_conv_13/expand/BatchNorm/gamma","shape":[576],"dtype":"float32"},{"name":"MobilenetV2/expanded_conv_13/expand/BatchNorm/beta","shape":[576],"dtype":"float32"},{"name":"MobilenetV2/expanded_conv_13/expand/BatchNorm/moving_mean","shape":[576],"dtype":"float32"},{"name":"MobilenetV2/expanded_conv_13/expand/BatchNorm/moving_variance","shape":[576],"dtype":"float32"},{"name":"MobilenetV2/expanded_conv_13/depthwise/depthwise_weights","shape":[3,3,576,1],"dtype":"float32"},{"name":"MobilenetV2/expanded_conv_13/depthwise/BatchNorm/gamma","shape":[576],"dtype":"float32"},{"name":"MobilenetV2/expanded_conv_13/depthwise/BatchNorm/beta","shape":[576],"dtype":"float32"},{"name":"MobilenetV2/expanded_conv_13/depthwise/BatchNorm/moving_mean","shape":[576],"dtype":"float32"},{"name":"MobilenetV2/expanded_conv_13/depthwise/BatchNorm/moving_variance","shape":[576],"dtype":"float32"},{"name":"MobilenetV2/expanded_conv_13/project/weights","shape":[1,1,576,160],"dtype":"float32"},{"name":"MobilenetV2/expanded_conv_13/project/BatchNorm/gamma","shape":[160],"dtype":"float32"},{"name":"MobilenetV2/expanded_conv_13/project/BatchNorm/beta","shape":[160],"dtype":"float32"},{"name":"MobilenetV2/expanded_conv_13/project/BatchNorm/moving_mean","shape":[160],"dtype":"float32"},{"name":"MobilenetV2/expanded_conv_13/project/BatchNorm/moving_variance","shape":[160],"dtype":"float32"},{"name":"MobilenetV2/expanded_conv_16/expand/weights","shape":[1,1,160,960],"dtype":"float32"},{"name":"MobilenetV2/expanded_conv_16/expand/BatchNorm/gamma","shape":[960],"dtype":"float32"},{"name":"MobilenetV2/expanded_conv_16/expand/BatchNorm/beta","shape":[960],"dtype":"float32"},{"name":"MobilenetV2/expanded_conv_16/expand/BatchNorm/moving_mean","shape":[960],"dtype":"float32"},{"name":"MobilenetV2/expanded_conv_16/expand/BatchNorm/moving_variance","shape":[960],"dtype":"float32"},{"name":"MobilenetV2/expanded_conv_16/depthwise/depthwise_weights","shape":[3,3,960,1],"dtype":"float32"},{"name":"MobilenetV2/expanded_conv_16/depthwise/BatchNorm/gamma","shape":[960],"dtype":"float32"},{"name":"MobilenetV2/expanded_conv_16/depthwise/BatchNorm/beta","shape":[960],"dtype":"float32"},{"name":"MobilenetV2/expanded_conv_16/depthwise/BatchNorm/moving_mean","shape":[960],"dtype":"float32"},{"name":"MobilenetV2/expanded_conv_16/depthwise/BatchNorm/moving_variance","shape":[960],"dtype":"float32"},{"name":"MobilenetV2/expanded_conv_16/project/weights","shape":[1,1,960,320],"dtype":"float32"},{"name":"MobilenetV2/expanded_conv_16/project/BatchNorm/gamma","shape":[320],"dtype":"float32"},{"name":"MobilenetV2/expanded_conv_16/project/BatchNorm/beta","shape":[320],"dtype":"float32"},{"name":"MobilenetV2/expanded_conv_16/project/BatchNorm/moving_mean","shape":[320],"dtype":"float32"},{"name":"MobilenetV2/expanded_conv_16/project/BatchNorm/moving_variance","shape":[320],"dtype":"float32"},{"name":"MobilenetV2/Conv_1/weights","shape":[1,1,320,1280],"dtype":"float32"},{"name":"MobilenetV2/Conv_1/BatchNorm/gamma","shape":[1280],"dtype":"float32"},{"name":"MobilenetV2/Conv_1/BatchNorm/beta","shape":[1280],"dtype":"float32"},{"name":"MobilenetV2/Conv_1/BatchNorm/moving_mean","shape":[1280],"dtype":"float32"},{"name":"MobilenetV2/Conv_1/BatchNorm/moving_variance","shape":[1280],"dtype":"float32"},{"name":"bottleneck/Mean/reduction_indices","shape":[2],"dtype":"int32"},{"name":"mobilenet_conv/Conv/weights","shape":[1,1,1280,100],"dtype":"float32"},{"name":"mobilenet_conv/Conv/biases","shape":[100],"dtype":"float32"}]}]}