{"modelTopology":{"node":[{"input":[],"attr":{"dtype":{"type":1},"value":{"tensor":{"floatVal":[],"doubleVal":[],"intVal":[],"stringVal":[],"scomplexVal":[],"int64Val":[],"boolVal":[],"uint32Val":[],"uint64Val":[],"dtype":1,"tensorShape":{"dim":[{"size":"1"},{"size":"1"},{"size":"100"},{"size":"3"}]}}}},"name":"style_params/transformer/expand/conv3/conv/StyleNorm/Conv/weights","op":"Const"},{"input":[],"attr":{"value":{"tensor":{"floatVal":[],"doubleVal":[],"intVal":[],"stringVal":[],"scomplexVal":[],"int64Val":[],"boolVal":[],"uint32Val":[],"uint64Val":[],"dtype":1,"tensorShape":{"dim":[{"size":"3"}]}}},"dtype":{"type":1}},"name":"style_params/transformer/expand/conv3/conv/StyleNorm/Conv/biases","op":"Const"},{"input":[],"attr":{"value":{"tensor":{"floatVal":[],"doubleVal":[],"intVal":[],"stringVal":[],"scomplexVal":[],"int64Val":[],"boolVal":[],"uint32Val":[],"uint64Val":[],"dtype":1,"tensorShape":{"dim":[{"size":"1"},{"size":"1"},{"size":"100"},{"size":"32"}]}}},"dtype":{"type":1}},"name":"style_params/transformer/expand/conv2/conv/StyleNorm/Conv/weights","op":"Const"},{"input":[],"attr":{"dtype":{"type":1},"value":{"tensor":{"floatVal":[],"doubleVal":[],"intVal":[],"stringVal":[],"scomplexVal":[],"int64Val":[],"boolVal":[],"uint32Val":[],"uint64Val":[],"dtype":1,"tensorShape":{"dim":[{"size":"32"}]}}}},"name":"style_params/transformer/expand/conv2/conv/StyleNorm/Conv/biases","op":"Const"},{"input":[],"attr":{"value":{"tensor":{"floatVal":[],"doubleVal":[],"intVal":[],"stringVal":[],"scomplexVal":[],"int64Val":[],"boolVal":[],"uint32Val":[],"uint64Val":[],"dtype":1,"tensorShape":{"dim":[{"size":"1"},{"size":"1"},{"size":"100"},{"size":"64"}]}}},"dtype":{"type":1}},"name":"style_params/transformer/expand/conv1/conv/StyleNorm/Conv/weights","op":"Const"},{"input":[],"attr":{"value":{"tensor":{"floatVal":[],"doubleVal":[],"intVal":[],"stringVal":[],"scomplexVal":[],"int64Val":[],"boolVal":[],"uint32Val":[],"uint64Val":[],"dtype":1,"tensorShape":{"dim":[{"size":"64"}]}}},"dtype":{"type":1}},"name":"style_params/transformer/expand/conv1/conv/StyleNorm/Conv/biases","op":"Const"},{"input":[],"attr":{"value":{"tensor":{"floatVal":[],"doubleVal":[],"intVal":[2],"stringVal":[],"scomplexVal":[],"int64Val":[],"boolVal":[],"uint32Val":[],"uint64Val":[],"dtype":3,"tensorShape":{"dim":[]}}},"dtype":{"type":3}},"name":"transformer/expand/conv2/mul/x","op":"Const"},{"input":[],"attr":{"dtype":{"type":1},"value":{"tensor":{"floatVal":[],"doubleVal":[],"intVal":[],"stringVal":[],"scomplexVal":[],"int64Val":[],"boolVal":[],"uint32Val":[],"uint64Val":[],"dtype":1,"tensorShape":{"dim":[{"size":"1"},{"size":"1"},{"size":"100"},{"size":"128"}]}}}},"name":"style_params/transformer/residual/residual5/conv2/StyleNorm/Conv/weights","op":"Const"},{"input":[],"attr":{"value":{"tensor":{"floatVal":[],"doubleVal":[],"intVal":[],"stringVal":[],"scomplexVal":[],"int64Val":[],"boolVal":[],"uint32Val":[],"uint64Val":[],"dtype":1,"tensorShape":{"dim":[{"size":"128"}]}}},"dtype":{"type":1}},"name":"style_params/transformer/residual/residual5/conv2/StyleNorm/Conv/biases","op":"Const"},{"input":[],"attr":{"value":{"tensor":{"floatVal":[],"doubleVal":[],"intVal":[],"stringVal":[],"scomplexVal":[],"int64Val":[],"boolVal":[],"uint32Val":[],"uint64Val":[],"dtype":1,"tensorShape":{"dim":[{"size":"1"},{"size":"1"},{"size":"100"},{"size":"128"}]}}},"dtype":{"type":1}},"name":"style_params/transformer/residual/residual5/conv1/StyleNorm/Conv/weights","op":"Const"},{"input":[],"attr":{"value":{"tensor":{"floatVal":[],"doubleVal":[],"intVal":[],"stringVal":[],"scomplexVal":[],"int64Val":[],"boolVal":[],"uint32Val":[],"uint64Val":[],"dtype":1,"tensorShape":{"dim":[{"size":"128"}]}}},"dtype":{"type":1}},"name":"style_params/transformer/residual/residual5/conv1/StyleNorm/Conv/biases","op":"Const"},{"input":[],"attr":{"value":{"tensor":{"floatVal":[],"doubleVal":[],"intVal":[],"stringVal":[],"scomplexVal":[],"int64Val":[],"boolVal":[],"uint32Val":[],"uint64Val":[],"dtype":1,"tensorShape":{"dim":[{"size":"1"},{"size":"1"},{"size":"100"},{"size":"128"}]}}},"dtype":{"type":1}},"name":"style_params/transformer/residual/residual4/conv2/StyleNorm/Conv/weights","op":"Const"},{"input":[],"attr":{"value":{"tensor":{"floatVal":[],"doubleVal":[],"intVal":[],"stringVal":[],"scomplexVal":[],"int64Val":[],"boolVal":[],"uint32Val":[],"uint64Val":[],"dtype":1,"tensorShape":{"dim":[{"size":"128"}]}}},"dtype":{"type":1}},"name":"style_params/transformer/residual/residual4/conv2/StyleNorm/Conv/biases","op":"Const"},{"input":[],"attr":{"value":{"tensor":{"floatVal":[],"doubleVal":[],"intVal":[],"stringVal":[],"scomplexVal":[],"int64Val":[],"boolVal":[],"uint32Val":[],"uint64Val":[],"dtype":1,"tensorShape":{"dim":[{"size":"1"},{"size":"1"},{"size":"100"},{"size":"128"}]}}},"dtype":{"type":1}},"name":"style_params/transformer/residual/residual4/conv1/StyleNorm/Conv/weights","op":"Const"},{"input":[],"attr":{"dtype":{"type":1},"value":{"tensor":{"floatVal":[],"doubleVal":[],"intVal":[],"stringVal":[],"scomplexVal":[],"int64Val":[],"boolVal":[],"uint32Val":[],"uint64Val":[],"dtype":1,"tensorShape":{"dim":[{"size":"128"}]}}}},"name":"style_params/transformer/residual/residual4/conv1/StyleNorm/Conv/biases","op":"Const"},{"input":[],"attr":{"value":{"tensor":{"floatVal":[],"doubleVal":[],"intVal":[],"stringVal":[],"scomplexVal":[],"int64Val":[],"boolVal":[],"uint32Val":[],"uint64Val":[],"dtype":1,"tensorShape":{"dim":[{"size":"1"},{"size":"1"},{"size":"100"},{"size":"128"}]}}},"dtype":{"type":1}},"name":"style_params/transformer/residual/residual3/conv2/StyleNorm/Conv/weights","op":"Const"},{"input":[],"attr":{"value":{"tensor":{"floatVal":[],"doubleVal":[],"intVal":[],"stringVal":[],"scomplexVal":[],"int64Val":[],"boolVal":[],"uint32Val":[],"uint64Val":[],"dtype":1,"tensorShape":{"dim":[{"size":"128"}]}}},"dtype":{"type":1}},"name":"style_params/transformer/residual/residual3/conv2/StyleNorm/Conv/biases","op":"Const"},{"input":[],"attr":{"value":{"tensor":{"floatVal":[],"doubleVal":[],"intVal":[],"stringVal":[],"scomplexVal":[],"int64Val":[],"boolVal":[],"uint32Val":[],"uint64Val":[],"dtype":1,"tensorShape":{"dim":[{"size":"1"},{"size":"1"},{"size":"100"},{"size":"128"}]}}},"dtype":{"type":1}},"name":"style_params/transformer/residual/residual3/conv1/StyleNorm/Conv/weights","op":"Const"},{"input":[],"attr":{"value":{"tensor":{"floatVal":[],"doubleVal":[],"intVal":[],"stringVal":[],"scomplexVal":[],"int64Val":[],"boolVal":[],"uint32Val":[],"uint64Val":[],"dtype":1,"tensorShape":{"dim":[{"size":"128"}]}}},"dtype":{"type":1}},"name":"style_params/transformer/residual/residual3/conv1/StyleNorm/Conv/biases","op":"Const"},{"input":[],"attr":{"value":{"tensor":{"floatVal":[],"doubleVal":[],"intVal":[],"stringVal":[],"scomplexVal":[],"int64Val":[],"boolVal":[],"uint32Val":[],"uint64Val":[],"dtype":1,"tensorShape":{"dim":[{"size":"1"},{"size":"1"},{"size":"100"},{"size":"128"}]}}},"dtype":{"type":1}},"name":"style_params/transformer/residual/residual2/conv2/StyleNorm/Conv/weights","op":"Const"},{"input":[],"attr":{"value":{"tensor":{"floatVal":[],"doubleVal":[],"intVal":[],"stringVal":[],"scomplexVal":[],"int64Val":[],"boolVal":[],"uint32Val":[],"uint64Val":[],"dtype":1,"tensorShape":{"dim":[{"size":"128"}]}}},"dtype":{"type":1}},"name":"style_params/transformer/residual/residual2/conv2/StyleNorm/Conv/biases","op":"Const"},{"input":[],"attr":{"value":{"tensor":{"floatVal":[],"doubleVal":[],"intVal":[],"stringVal":[],"scomplexVal":[],"int64Val":[],"boolVal":[],"uint32Val":[],"uint64Val":[],"dtype":1,"tensorShape":{"dim":[{"size":"1"},{"size":"1"},{"size":"100"},{"size":"128"}]}}},"dtype":{"type":1}},"name":"style_params/transformer/residual/residual2/conv1/StyleNorm/Conv/weights","op":"Const"},{"input":[],"attr":{"value":{"tensor":{"floatVal":[],"doubleVal":[],"intVal":[],"stringVal":[],"scomplexVal":[],"int64Val":[],"boolVal":[],"uint32Val":[],"uint64Val":[],"dtype":1,"tensorShape":{"dim":[{"size":"128"}]}}},"dtype":{"type":1}},"name":"style_params/transformer/residual/residual2/conv1/StyleNorm/Conv/biases","op":"Const"},{"input":[],"attr":{"value":{"tensor":{"floatVal":[],"doubleVal":[],"intVal":[],"stringVal":[],"scomplexVal":[],"int64Val":[],"boolVal":[],"uint32Val":[],"uint64Val":[],"dtype":1,"tensorShape":{"dim":[{"size":"1"},{"size":"1"},{"size":"100"},{"size":"128"}]}}},"dtype":{"type":1}},"name":"style_params/transformer/residual/residual1/conv2/StyleNorm/Conv/weights","op":"Const"},{"input":[],"attr":{"value":{"tensor":{"floatVal":[],"doubleVal":[],"intVal":[],"stringVal":[],"scomplexVal":[],"int64Val":[],"boolVal":[],"uint32Val":[],"uint64Val":[],"dtype":1,"tensorShape":{"dim":[{"size":"128"}]}}},"dtype":{"type":1}},"name":"style_params/transformer/residual/residual1/conv2/StyleNorm/Conv/biases","op":"Const"},{"input":[],"attr":{"value":{"tensor":{"floatVal":[],"doubleVal":[],"intVal":[],"stringVal":[],"scomplexVal":[],"int64Val":[],"boolVal":[],"uint32Val":[],"uint64Val":[],"dtype":1,"tensorShape":{"dim":[{"size":"1"},{"size":"1"},{"size":"100"},{"size":"128"}]}}},"dtype":{"type":1}},"name":"style_params/transformer/residual/residual1/conv1/StyleNorm/Conv/weights","op":"Const"},{"input":[],"attr":{"value":{"tensor":{"floatVal":[],"doubleVal":[],"intVal":[],"stringVal":[],"scomplexVal":[],"int64Val":[],"boolVal":[],"uint32Val":[],"uint64Val":[],"dtype":1,"tensorShape":{"dim":[{"size":"128"}]}}},"dtype":{"type":1}},"name":"style_params/transformer/residual/residual1/conv1/StyleNorm/Conv/biases","op":"Const"},{"input":[],"attr":{"shape":{"shape":{"dim":[{"size":"-1"},{"size":"-1"},{"size":"-1"},{"size":"3"}]}},"dtype":{"type":1}},"name":"Placeholder","op":"Placeholder"},{"input":[],"attr":{"value":{"tensor":{"floatVal":[],"doubleVal":[],"intVal":[],"stringVal":[],"scomplexVal":[],"int64Val":[],"boolVal":[],"uint32Val":[],"uint64Val":[],"dtype":1,"tensorShape":{"dim":[{"size":"9"},{"size":"9"},{"size":"3"},{"size":"32"}]}}},"dtype":{"type":1}},"name":"transformer/contract/conv1/weights","op":"Const"},{"input":[],"attr":{"dtype":{"type":1},"value":{"tensor":{"floatVal":[1],"doubleVal":[],"intVal":[],"stringVal":[],"scomplexVal":[],"int64Val":[],"boolVal":[],"uint32Val":[],"uint64Val":[],"dtype":1,"tensorShape":{"dim":[{"size":"32"}]}}}},"name":"transformer/contract/conv1/BatchNorm/Const","op":"Const"},{"input":[],"attr":{"value":{"tensor":{"floatVal":[],"doubleVal":[],"intVal":[],"stringVal":[],"scomplexVal":[],"int64Val":[],"boolVal":[],"uint32Val":[],"uint64Val":[],"dtype":1,"tensorShape":{"dim":[{"size":"32"}]}}},"dtype":{"type":1}},"name":"transformer/contract/conv1/BatchNorm/beta","op":"Const"},{"input":[],"attr":{"value":{"tensor":{"floatVal":[],"doubleVal":[],"intVal":[],"stringVal":[],"scomplexVal":[],"int64Val":[],"boolVal":[],"uint32Val":[],"uint64Val":[],"dtype":1,"tensorShape":{"dim":[{"size":"32"}]}}},"dtype":{"type":1}},"name":"transformer/contract/conv1/BatchNorm/moving_mean","op":"Const"},{"input":[],"attr":{"value":{"tensor":{"floatVal":[],"doubleVal":[],"intVal":[],"stringVal":[],"scomplexVal":[],"int64Val":[],"boolVal":[],"uint32Val":[],"uint64Val":[],"dtype":1,"tensorShape":{"dim":[{"size":"32"}]}}},"dtype":{"type":1}},"name":"transformer/contract/conv1/BatchNorm/moving_variance","op":"Const"},{"input":[],"attr":{"value":{"tensor":{"floatVal":[],"doubleVal":[],"intVal":[],"stringVal":[],"scomplexVal":[],"int64Val":[],"boolVal":[],"uint32Val":[],"uint64Val":[],"dtype":1,"tensorShape":{"dim":[{"size":"3"},{"size":"3"},{"size":"32"},{"size":"64"}]}}},"dtype":{"type":1}},"name":"transformer/contract/conv2/weights","op":"Const"},{"input":[],"attr":{"value":{"tensor":{"floatVal":[1],"doubleVal":[],"intVal":[],"stringVal":[],"scomplexVal":[],"int64Val":[],"boolVal":[],"uint32Val":[],"uint64Val":[],"dtype":1,"tensorShape":{"dim":[{"size":"64"}]}}},"dtype":{"type":1}},"name":"transformer/contract/conv2/BatchNorm/Const","op":"Const"},{"input":[],"attr":{"value":{"tensor":{"floatVal":[],"doubleVal":[],"intVal":[],"stringVal":[],"scomplexVal":[],"int64Val":[],"boolVal":[],"uint32Val":[],"uint64Val":[],"dtype":1,"tensorShape":{"dim":[{"size":"64"}]}}},"dtype":{"type":1}},"name":"transformer/contract/conv2/BatchNorm/beta","op":"Const"},{"input":[],"attr":{"value":{"tensor":{"floatVal":[],"doubleVal":[],"intVal":[],"stringVal":[],"scomplexVal":[],"int64Val":[],"boolVal":[],"uint32Val":[],"uint64Val":[],"dtype":1,"tensorShape":{"dim":[{"size":"64"}]}}},"dtype":{"type":1}},"name":"transformer/contract/conv2/BatchNorm/moving_mean","op":"Const"},{"input":[],"attr":{"value":{"tensor":{"floatVal":[],"doubleVal":[],"intVal":[],"stringVal":[],"scomplexVal":[],"int64Val":[],"boolVal":[],"uint32Val":[],"uint64Val":[],"dtype":1,"tensorShape":{"dim":[{"size":"64"}]}}},"dtype":{"type":1}},"name":"transformer/contract/conv2/BatchNorm/moving_variance","op":"Const"},{"input":[],"attr":{"dtype":{"type":1},"value":{"tensor":{"floatVal":[],"doubleVal":[],"intVal":[],"stringVal":[],"scomplexVal":[],"int64Val":[],"boolVal":[],"uint32Val":[],"uint64Val":[],"dtype":1,"tensorShape":{"dim":[{"size":"3"},{"size":"3"},{"size":"64"},{"size":"128"}]}}}},"name":"transformer/contract/conv3/weights","op":"Const"},{"input":[],"attr":{"value":{"tensor":{"floatVal":[1],"doubleVal":[],"intVal":[],"stringVal":[],"scomplexVal":[],"int64Val":[],"boolVal":[],"uint32Val":[],"uint64Val":[],"dtype":1,"tensorShape":{"dim":[{"size":"128"}]}}},"dtype":{"type":1}},"name":"transformer/contract/conv3/BatchNorm/Const","op":"Const"},{"input":[],"attr":{"value":{"tensor":{"floatVal":[],"doubleVal":[],"intVal":[],"stringVal":[],"scomplexVal":[],"int64Val":[],"boolVal":[],"uint32Val":[],"uint64Val":[],"dtype":1,"tensorShape":{"dim":[{"size":"128"}]}}},"dtype":{"type":1}},"name":"transformer/contract/conv3/BatchNorm/beta","op":"Const"},{"input":[],"attr":{"value":{"tensor":{"floatVal":[],"doubleVal":[],"intVal":[],"stringVal":[],"scomplexVal":[],"int64Val":[],"boolVal":[],"uint32Val":[],"uint64Val":[],"dtype":1,"tensorShape":{"dim":[{"size":"128"}]}}},"dtype":{"type":1}},"name":"transformer/contract/conv3/BatchNorm/moving_mean","op":"Const"},{"input":[],"attr":{"value":{"tensor":{"floatVal":[],"doubleVal":[],"intVal":[],"stringVal":[],"scomplexVal":[],"int64Val":[],"boolVal":[],"uint32Val":[],"uint64Val":[],"dtype":1,"tensorShape":{"dim":[{"size":"128"}]}}},"dtype":{"type":1}},"name":"transformer/contract/conv3/BatchNorm/moving_variance","op":"Const"},{"input":[],"attr":{"value":{"tensor":{"floatVal":[],"doubleVal":[],"intVal":[],"stringVal":[],"scomplexVal":[],"int64Val":[],"boolVal":[],"uint32Val":[],"uint64Val":[],"dtype":1,"tensorShape":{"dim":[{"size":"3"},{"size":"3"},{"size":"128"},{"size":"1"}]}}},"dtype":{"type":1}},"name":"transformer/residual/residual1/dilate_conv1/depthwise_weights","op":"Const"},{"input":[],"attr":{"value":{"tensor":{"floatVal":[],"doubleVal":[],"intVal":[],"stringVal":[],"scomplexVal":[],"int64Val":[],"boolVal":[],"uint32Val":[],"uint64Val":[],"dtype":1,"tensorShape":{"dim":[{"size":"1"},{"size":"1"},{"size":"128"},{"size":"128"}]}}},"dtype":{"type":1}},"name":"transformer/residual/residual1/dilate_conv1/pointwise_weights","op":"Const"},{"input":[],"attr":{"value":{"tensor":{"floatVal":[],"doubleVal":[],"intVal":[],"stringVal":[],"scomplexVal":[],"int64Val":[],"boolVal":[],"uint32Val":[],"uint64Val":[],"dtype":1,"tensorShape":{"dim":[{"size":"1"},{"size":"1"},{"size":"100"},{"size":"128"}]}}},"dtype":{"type":1}},"name":"style_params/transformer/residual/residual1/conv1/StyleNorm/Conv_1/weights","op":"Const"},{"input":[],"attr":{"dtype":{"type":1},"value":{"tensor":{"floatVal":[],"doubleVal":[],"intVal":[],"stringVal":[],"scomplexVal":[],"int64Val":[],"boolVal":[],"uint32Val":[],"uint64Val":[],"dtype":1,"tensorShape":{"dim":[{"size":"128"}]}}}},"name":"style_params/transformer/residual/residual1/conv1/StyleNorm/Conv_1/biases","op":"Const"},{"input":[],"attr":{"value":{"tensor":{"floatVal":[],"doubleVal":[],"intVal":[],"stringVal":[],"scomplexVal":[],"int64Val":[],"boolVal":[],"uint32Val":[],"uint64Val":[],"dtype":1,"tensorShape":{"dim":[{"size":"3"},{"size":"3"},{"size":"128"},{"size":"1"}]}}},"dtype":{"type":1}},"name":"transformer/residual/residual1/dilate_conv2/depthwise_weights","op":"Const"},{"input":[],"attr":{"value":{"tensor":{"floatVal":[],"doubleVal":[],"intVal":[],"stringVal":[],"scomplexVal":[],"int64Val":[],"boolVal":[],"uint32Val":[],"uint64Val":[],"dtype":1,"tensorShape":{"dim":[{"size":"1"},{"size":"1"},{"size":"128"},{"size":"128"}]}}},"dtype":{"type":1}},"name":"transformer/residual/residual1/dilate_conv2/pointwise_weights","op":"Const"},{"input":[],"attr":{"value":{"tensor":{"floatVal":[],"doubleVal":[],"intVal":[],"stringVal":[],"scomplexVal":[],"int64Val":[],"boolVal":[],"uint32Val":[],"uint64Val":[],"dtype":1,"tensorShape":{"dim":[{"size":"1"},{"size":"1"},{"size":"100"},{"size":"128"}]}}},"dtype":{"type":1}},"name":"style_params/transformer/residual/residual1/conv2/StyleNorm/Conv_1/weights","op":"Const"},{"input":[],"attr":{"value":{"tensor":{"floatVal":[],"doubleVal":[],"intVal":[],"stringVal":[],"scomplexVal":[],"int64Val":[],"boolVal":[],"uint32Val":[],"uint64Val":[],"dtype":1,"tensorShape":{"dim":[{"size":"128"}]}}},"dtype":{"type":1}},"name":"style_params/transformer/residual/residual1/conv2/StyleNorm/Conv_1/biases","op":"Const"},{"input":[],"attr":{"value":{"tensor":{"floatVal":[],"doubleVal":[],"intVal":[],"stringVal":[],"scomplexVal":[],"int64Val":[],"boolVal":[],"uint32Val":[],"uint64Val":[],"dtype":1,"tensorShape":{"dim":[{"size":"3"},{"size":"3"},{"size":"128"},{"size":"1"}]}}},"dtype":{"type":1}},"name":"transformer/residual/residual2/dilate_conv1/depthwise_weights","op":"Const"},{"input":[],"attr":{"value":{"tensor":{"floatVal":[],"doubleVal":[],"intVal":[],"stringVal":[],"scomplexVal":[],"int64Val":[],"boolVal":[],"uint32Val":[],"uint64Val":[],"dtype":1,"tensorShape":{"dim":[{"size":"1"},{"size":"1"},{"size":"128"},{"size":"128"}]}}},"dtype":{"type":1}},"name":"transformer/residual/residual2/dilate_conv1/pointwise_weights","op":"Const"},{"input":[],"attr":{"value":{"tensor":{"floatVal":[],"doubleVal":[],"intVal":[],"stringVal":[],"scomplexVal":[],"int64Val":[],"boolVal":[],"uint32Val":[],"uint64Val":[],"dtype":1,"tensorShape":{"dim":[{"size":"1"},{"size":"1"},{"size":"100"},{"size":"128"}]}}},"dtype":{"type":1}},"name":"style_params/transformer/residual/residual2/conv1/StyleNorm/Conv_1/weights","op":"Const"},{"input":[],"attr":{"value":{"tensor":{"floatVal":[],"doubleVal":[],"intVal":[],"stringVal":[],"scomplexVal":[],"int64Val":[],"boolVal":[],"uint32Val":[],"uint64Val":[],"dtype":1,"tensorShape":{"dim":[{"size":"128"}]}}},"dtype":{"type":1}},"name":"style_params/transformer/residual/residual2/conv1/StyleNorm/Conv_1/biases","op":"Const"},{"input":[],"attr":{"value":{"tensor":{"floatVal":[],"doubleVal":[],"intVal":[],"stringVal":[],"scomplexVal":[],"int64Val":[],"boolVal":[],"uint32Val":[],"uint64Val":[],"dtype":1,"tensorShape":{"dim":[{"size":"3"},{"size":"3"},{"size":"128"},{"size":"1"}]}}},"dtype":{"type":1}},"name":"transformer/residual/residual2/dilate_conv2/depthwise_weights","op":"Const"},{"input":[],"attr":{"value":{"tensor":{"floatVal":[],"doubleVal":[],"intVal":[],"stringVal":[],"scomplexVal":[],"int64Val":[],"boolVal":[],"uint32Val":[],"uint64Val":[],"dtype":1,"tensorShape":{"dim":[{"size":"1"},{"size":"1"},{"size":"128"},{"size":"128"}]}}},"dtype":{"type":1}},"name":"transformer/residual/residual2/dilate_conv2/pointwise_weights","op":"Const"},{"input":[],"attr":{"value":{"tensor":{"floatVal":[],"doubleVal":[],"intVal":[],"stringVal":[],"scomplexVal":[],"int64Val":[],"boolVal":[],"uint32Val":[],"uint64Val":[],"dtype":1,"tensorShape":{"dim":[{"size":"1"},{"size":"1"},{"size":"100"},{"size":"128"}]}}},"dtype":{"type":1}},"name":"style_params/transformer/residual/residual2/conv2/StyleNorm/Conv_1/weights","op":"Const"},{"input":[],"attr":{"value":{"tensor":{"floatVal":[],"doubleVal":[],"intVal":[],"stringVal":[],"scomplexVal":[],"int64Val":[],"boolVal":[],"uint32Val":[],"uint64Val":[],"dtype":1,"tensorShape":{"dim":[{"size":"128"}]}}},"dtype":{"type":1}},"name":"style_params/transformer/residual/residual2/conv2/StyleNorm/Conv_1/biases","op":"Const"},{"input":[],"attr":{"dtype":{"type":1},"value":{"tensor":{"floatVal":[],"doubleVal":[],"intVal":[],"stringVal":[],"scomplexVal":[],"int64Val":[],"boolVal":[],"uint32Val":[],"uint64Val":[],"dtype":1,"tensorShape":{"dim":[{"size":"3"},{"size":"3"},{"size":"128"},{"size":"1"}]}}}},"name":"transformer/residual/residual3/dilate_conv1/depthwise_weights","op":"Const"},{"input":[],"attr":{"dtype":{"type":1},"value":{"tensor":{"floatVal":[],"doubleVal":[],"intVal":[],"stringVal":[],"scomplexVal":[],"int64Val":[],"boolVal":[],"uint32Val":[],"uint64Val":[],"dtype":1,"tensorShape":{"dim":[{"size":"1"},{"size":"1"},{"size":"128"},{"size":"128"}]}}}},"name":"transformer/residual/residual3/dilate_conv1/pointwise_weights","op":"Const"},{"input":[],"attr":{"value":{"tensor":{"floatVal":[],"doubleVal":[],"intVal":[],"stringVal":[],"scomplexVal":[],"int64Val":[],"boolVal":[],"uint32Val":[],"uint64Val":[],"dtype":1,"tensorShape":{"dim":[{"size":"1"},{"size":"1"},{"size":"100"},{"size":"128"}]}}},"dtype":{"type":1}},"name":"style_params/transformer/residual/residual3/conv1/StyleNorm/Conv_1/weights","op":"Const"},{"input":[],"attr":{"value":{"tensor":{"floatVal":[],"doubleVal":[],"intVal":[],"stringVal":[],"scomplexVal":[],"int64Val":[],"boolVal":[],"uint32Val":[],"uint64Val":[],"dtype":1,"tensorShape":{"dim":[{"size":"128"}]}}},"dtype":{"type":1}},"name":"style_params/transformer/residual/residual3/conv1/StyleNorm/Conv_1/biases","op":"Const"},{"input":[],"attr":{"value":{"tensor":{"floatVal":[],"doubleVal":[],"intVal":[],"stringVal":[],"scomplexVal":[],"int64Val":[],"boolVal":[],"uint32Val":[],"uint64Val":[],"dtype":1,"tensorShape":{"dim":[{"size":"3"},{"size":"3"},{"size":"128"},{"size":"1"}]}}},"dtype":{"type":1}},"name":"transformer/residual/residual3/dilate_conv2/depthwise_weights","op":"Const"},{"input":[],"attr":{"value":{"tensor":{"floatVal":[],"doubleVal":[],"intVal":[],"stringVal":[],"scomplexVal":[],"int64Val":[],"boolVal":[],"uint32Val":[],"uint64Val":[],"dtype":1,"tensorShape":{"dim":[{"size":"1"},{"size":"1"},{"size":"128"},{"size":"128"}]}}},"dtype":{"type":1}},"name":"transformer/residual/residual3/dilate_conv2/pointwise_weights","op":"Const"},{"input":[],"attr":{"value":{"tensor":{"floatVal":[],"doubleVal":[],"intVal":[],"stringVal":[],"scomplexVal":[],"int64Val":[],"boolVal":[],"uint32Val":[],"uint64Val":[],"dtype":1,"tensorShape":{"dim":[{"size":"1"},{"size":"1"},{"size":"100"},{"size":"128"}]}}},"dtype":{"type":1}},"name":"style_params/transformer/residual/residual3/conv2/StyleNorm/Conv_1/weights","op":"Const"},{"input":[],"attr":{"value":{"tensor":{"floatVal":[],"doubleVal":[],"intVal":[],"stringVal":[],"scomplexVal":[],"int64Val":[],"boolVal":[],"uint32Val":[],"uint64Val":[],"dtype":1,"tensorShape":{"dim":[{"size":"128"}]}}},"dtype":{"type":1}},"name":"style_params/transformer/residual/residual3/conv2/StyleNorm/Conv_1/biases","op":"Const"},{"input":[],"attr":{"value":{"tensor":{"floatVal":[],"doubleVal":[],"intVal":[],"stringVal":[],"scomplexVal":[],"int64Val":[],"boolVal":[],"uint32Val":[],"uint64Val":[],"dtype":1,"tensorShape":{"dim":[{"size":"3"},{"size":"3"},{"size":"128"},{"size":"1"}]}}},"dtype":{"type":1}},"name":"transformer/residual/residual4/dilate_conv1/depthwise_weights","op":"Const"},{"input":[],"attr":{"value":{"tensor":{"floatVal":[],"doubleVal":[],"intVal":[],"stringVal":[],"scomplexVal":[],"int64Val":[],"boolVal":[],"uint32Val":[],"uint64Val":[],"dtype":1,"tensorShape":{"dim":[{"size":"1"},{"size":"1"},{"size":"128"},{"size":"128"}]}}},"dtype":{"type":1}},"name":"transformer/residual/residual4/dilate_conv1/pointwise_weights","op":"Const"},{"input":[],"attr":{"value":{"tensor":{"floatVal":[],"doubleVal":[],"intVal":[],"stringVal":[],"scomplexVal":[],"int64Val":[],"boolVal":[],"uint32Val":[],"uint64Val":[],"dtype":1,"tensorShape":{"dim":[{"size":"1"},{"size":"1"},{"size":"100"},{"size":"128"}]}}},"dtype":{"type":1}},"name":"style_params/transformer/residual/residual4/conv1/StyleNorm/Conv_1/weights","op":"Const"},{"input":[],"attr":{"value":{"tensor":{"floatVal":[],"doubleVal":[],"intVal":[],"stringVal":[],"scomplexVal":[],"int64Val":[],"boolVal":[],"uint32Val":[],"uint64Val":[],"dtype":1,"tensorShape":{"dim":[{"size":"128"}]}}},"dtype":{"type":1}},"name":"style_params/transformer/residual/residual4/conv1/StyleNorm/Conv_1/biases","op":"Const"},{"input":[],"attr":{"value":{"tensor":{"floatVal":[],"doubleVal":[],"intVal":[],"stringVal":[],"scomplexVal":[],"int64Val":[],"boolVal":[],"uint32Val":[],"uint64Val":[],"dtype":1,"tensorShape":{"dim":[{"size":"3"},{"size":"3"},{"size":"128"},{"size":"1"}]}}},"dtype":{"type":1}},"name":"transformer/residual/residual4/dilate_conv2/depthwise_weights","op":"Const"},{"input":[],"attr":{"value":{"tensor":{"floatVal":[],"doubleVal":[],"intVal":[],"stringVal":[],"scomplexVal":[],"int64Val":[],"boolVal":[],"uint32Val":[],"uint64Val":[],"dtype":1,"tensorShape":{"dim":[{"size":"1"},{"size":"1"},{"size":"128"},{"size":"128"}]}}},"dtype":{"type":1}},"name":"transformer/residual/residual4/dilate_conv2/pointwise_weights","op":"Const"},{"input":[],"attr":{"value":{"tensor":{"floatVal":[],"doubleVal":[],"intVal":[],"stringVal":[],"scomplexVal":[],"int64Val":[],"boolVal":[],"uint32Val":[],"uint64Val":[],"dtype":1,"tensorShape":{"dim":[{"size":"1"},{"size":"1"},{"size":"100"},{"size":"128"}]}}},"dtype":{"type":1}},"name":"style_params/transformer/residual/residual4/conv2/StyleNorm/Conv_1/weights","op":"Const"},{"input":[],"attr":{"value":{"tensor":{"floatVal":[],"doubleVal":[],"intVal":[],"stringVal":[],"scomplexVal":[],"int64Val":[],"boolVal":[],"uint32Val":[],"uint64Val":[],"dtype":1,"tensorShape":{"dim":[{"size":"128"}]}}},"dtype":{"type":1}},"name":"style_params/transformer/residual/residual4/conv2/StyleNorm/Conv_1/biases","op":"Const"},{"input":[],"attr":{"value":{"tensor":{"floatVal":[],"doubleVal":[],"intVal":[],"stringVal":[],"scomplexVal":[],"int64Val":[],"boolVal":[],"uint32Val":[],"uint64Val":[],"dtype":1,"tensorShape":{"dim":[{"size":"3"},{"size":"3"},{"size":"128"},{"size":"1"}]}}},"dtype":{"type":1}},"name":"transformer/residual/residual5/dilate_conv1/depthwise_weights","op":"Const"},{"input":[],"attr":{"value":{"tensor":{"floatVal":[],"doubleVal":[],"intVal":[],"stringVal":[],"scomplexVal":[],"int64Val":[],"boolVal":[],"uint32Val":[],"uint64Val":[],"dtype":1,"tensorShape":{"dim":[{"size":"1"},{"size":"1"},{"size":"128"},{"size":"128"}]}}},"dtype":{"type":1}},"name":"transformer/residual/residual5/dilate_conv1/pointwise_weights","op":"Const"},{"input":[],"attr":{"value":{"tensor":{"floatVal":[],"doubleVal":[],"intVal":[],"stringVal":[],"scomplexVal":[],"int64Val":[],"boolVal":[],"uint32Val":[],"uint64Val":[],"dtype":1,"tensorShape":{"dim":[{"size":"1"},{"size":"1"},{"size":"100"},{"size":"128"}]}}},"dtype":{"type":1}},"name":"style_params/transformer/residual/residual5/conv1/StyleNorm/Conv_1/weights","op":"Const"},{"input":[],"attr":{"value":{"tensor":{"floatVal":[],"doubleVal":[],"intVal":[],"stringVal":[],"scomplexVal":[],"int64Val":[],"boolVal":[],"uint32Val":[],"uint64Val":[],"dtype":1,"tensorShape":{"dim":[{"size":"128"}]}}},"dtype":{"type":1}},"name":"style_params/transformer/residual/residual5/conv1/StyleNorm/Conv_1/biases","op":"Const"},{"input":[],"attr":{"value":{"tensor":{"floatVal":[],"doubleVal":[],"intVal":[],"stringVal":[],"scomplexVal":[],"int64Val":[],"boolVal":[],"uint32Val":[],"uint64Val":[],"dtype":1,"tensorShape":{"dim":[{"size":"3"},{"size":"3"},{"size":"128"},{"size":"1"}]}}},"dtype":{"type":1}},"name":"transformer/residual/residual5/dilate_conv2/depthwise_weights","op":"Const"},{"input":[],"attr":{"value":{"tensor":{"floatVal":[],"doubleVal":[],"intVal":[],"stringVal":[],"scomplexVal":[],"int64Val":[],"boolVal":[],"uint32Val":[],"uint64Val":[],"dtype":1,"tensorShape":{"dim":[{"size":"1"},{"size":"1"},{"size":"128"},{"size":"128"}]}}},"dtype":{"type":1}},"name":"transformer/residual/residual5/dilate_conv2/pointwise_weights","op":"Const"},{"input":[],"attr":{"value":{"tensor":{"floatVal":[],"doubleVal":[],"intVal":[],"stringVal":[],"scomplexVal":[],"int64Val":[],"boolVal":[],"uint32Val":[],"uint64Val":[],"dtype":1,"tensorShape":{"dim":[{"size":"1"},{"size":"1"},{"size":"100"},{"size":"128"}]}}},"dtype":{"type":1}},"name":"style_params/transformer/residual/residual5/conv2/StyleNorm/Conv_1/weights","op":"Const"},{"input":[],"attr":{"value":{"tensor":{"floatVal":[],"doubleVal":[],"intVal":[],"stringVal":[],"scomplexVal":[],"int64Val":[],"boolVal":[],"uint32Val":[],"uint64Val":[],"dtype":1,"tensorShape":{"dim":[{"size":"128"}]}}},"dtype":{"type":1}},"name":"style_params/transformer/residual/residual5/conv2/StyleNorm/Conv_1/biases","op":"Const"},{"input":[],"attr":{"value":{"tensor":{"floatVal":[],"doubleVal":[],"intVal":[],"stringVal":[],"scomplexVal":[],"int64Val":[],"boolVal":[],"uint32Val":[],"uint64Val":[],"dtype":1,"tensorShape":{"dim":[{"size":"3"},{"size":"3"},{"size":"128"},{"size":"1"}]}}},"dtype":{"type":1}},"name":"transformer/expand/conv1/dilate_conv/depthwise_weights","op":"Const"},{"input":[],"attr":{"value":{"tensor":{"floatVal":[],"doubleVal":[],"intVal":[],"stringVal":[],"scomplexVal":[],"int64Val":[],"boolVal":[],"uint32Val":[],"uint64Val":[],"dtype":1,"tensorShape":{"dim":[{"size":"1"},{"size":"1"},{"size":"128"},{"size":"64"}]}}},"dtype":{"type":1}},"name":"transformer/expand/conv1/dilate_conv/pointwise_weights","op":"Const"},{"input":[],"attr":{"dtype":{"type":1},"value":{"tensor":{"floatVal":[],"doubleVal":[],"intVal":[],"stringVal":[],"scomplexVal":[],"int64Val":[],"boolVal":[],"uint32Val":[],"uint64Val":[],"dtype":1,"tensorShape":{"dim":[{"size":"1"},{"size":"1"},{"size":"100"},{"size":"64"}]}}}},"name":"style_params/transformer/expand/conv1/conv/StyleNorm/Conv_1/weights","op":"Const"},{"input":[],"attr":{"dtype":{"type":1},"value":{"tensor":{"floatVal":[],"doubleVal":[],"intVal":[],"stringVal":[],"scomplexVal":[],"int64Val":[],"boolVal":[],"uint32Val":[],"uint64Val":[],"dtype":1,"tensorShape":{"dim":[{"size":"64"}]}}}},"name":"style_params/transformer/expand/conv1/conv/StyleNorm/Conv_1/biases","op":"Const"},{"input":[],"attr":{"value":{"tensor":{"floatVal":[],"doubleVal":[],"intVal":[],"stringVal":[],"scomplexVal":[],"int64Val":[],"boolVal":[],"uint32Val":[],"uint64Val":[],"dtype":3,"tensorShape":{"dim":[{"size":"4"},{"size":"2"}]}}},"dtype":{"type":3}},"name":"transformer/contract/Pad_1/paddings","op":"Const"},{"input":[],"attr":{"value":{"tensor":{"floatVal":[],"doubleVal":[],"intVal":[],"stringVal":[],"scomplexVal":[],"int64Val":[],"boolVal":[],"uint32Val":[],"uint64Val":[],"dtype":1,"tensorShape":{"dim":[{"size":"3"},{"size":"3"},{"size":"64"},{"size":"1"}]}}},"dtype":{"type":1}},"name":"transformer/expand/conv2/dilate_conv/depthwise_weights","op":"Const"},{"input":[],"attr":{"value":{"tensor":{"floatVal":[],"doubleVal":[],"intVal":[],"stringVal":[],"scomplexVal":[],"int64Val":[],"boolVal":[],"uint32Val":[],"uint64Val":[],"dtype":1,"tensorShape":{"dim":[{"size":"1"},{"size":"1"},{"size":"64"},{"size":"32"}]}}},"dtype":{"type":1}},"name":"transformer/expand/conv2/dilate_conv/pointwise_weights","op":"Const"},{"input":[],"attr":{"value":{"tensor":{"floatVal":[],"doubleVal":[],"intVal":[],"stringVal":[],"scomplexVal":[],"int64Val":[],"boolVal":[],"uint32Val":[],"uint64Val":[],"dtype":1,"tensorShape":{"dim":[{"size":"1"},{"size":"1"},{"size":"100"},{"size":"32"}]}}},"dtype":{"type":1}},"name":"style_params/transformer/expand/conv2/conv/StyleNorm/Conv_1/weights","op":"Const"},{"input":[],"attr":{"value":{"tensor":{"floatVal":[],"doubleVal":[],"intVal":[],"stringVal":[],"scomplexVal":[],"int64Val":[],"boolVal":[],"uint32Val":[],"uint64Val":[],"dtype":1,"tensorShape":{"dim":[{"size":"32"}]}}},"dtype":{"type":1}},"name":"style_params/transformer/expand/conv2/conv/StyleNorm/Conv_1/biases","op":"Const"},{"input":[],"attr":{"value":{"tensor":{"floatVal":[],"doubleVal":[],"intVal":[2],"stringVal":[],"scomplexVal":[],"int64Val":[],"boolVal":[],"uint32Val":[],"uint64Val":[],"dtype":3,"tensorShape":{"dim":[{"size":"1"}]}}},"dtype":{"type":3}},"name":"transformer/expand/conv3/strided_slice/stack_1","op":"Const"},{"input":[],"attr":{"value":{"tensor":{"floatVal":[],"doubleVal":[],"intVal":[3],"stringVal":[],"scomplexVal":[],"int64Val":[],"boolVal":[],"uint32Val":[],"uint64Val":[],"dtype":3,"tensorShape":{"dim":[{"size":"1"}]}}},"dtype":{"type":3}},"name":"transformer/expand/conv1/strided_slice_1/stack_1","op":"Const"},{"input":[],"attr":{"value":{"tensor":{"floatVal":[],"doubleVal":[],"intVal":[1],"stringVal":[],"scomplexVal":[],"int64Val":[],"boolVal":[],"uint32Val":[],"uint64Val":[],"dtype":3,"tensorShape":{"dim":[{"size":"1"}]}}},"dtype":{"type":3}},"name":"transformer/expand/conv3/strided_slice/stack","op":"Const"},{"input":[],"attr":{"value":{"tensor":{"floatVal":[],"doubleVal":[],"intVal":[],"stringVal":[],"scomplexVal":[],"int64Val":[],"boolVal":[],"uint32Val":[],"uint64Val":[],"dtype":3,"tensorShape":{"dim":[{"size":"4"},{"size":"2"}]}}},"dtype":{"type":3}},"name":"transformer/contract/Pad/paddings","op":"Const"},{"input":[],"attr":{"value":{"tensor":{"floatVal":[],"doubleVal":[],"intVal":[],"stringVal":[],"scomplexVal":[],"int64Val":[],"boolVal":[],"uint32Val":[],"uint64Val":[],"dtype":1,"tensorShape":{"dim":[{"size":"9"},{"size":"9"},{"size":"32"},{"size":"1"}]}}},"dtype":{"type":1}},"name":"transformer/expand/conv3/dilate_conv/depthwise_weights","op":"Const"},{"input":[],"attr":{"value":{"tensor":{"floatVal":[],"doubleVal":[],"intVal":[],"stringVal":[],"scomplexVal":[],"int64Val":[],"boolVal":[],"uint32Val":[],"uint64Val":[],"dtype":1,"tensorShape":{"dim":[{"size":"1"},{"size":"1"},{"size":"32"},{"size":"3"}]}}},"dtype":{"type":1}},"name":"transformer/expand/conv3/dilate_conv/pointwise_weights","op":"Const"},{"input":[],"attr":{"value":{"tensor":{"floatVal":[],"doubleVal":[],"intVal":[],"stringVal":[],"scomplexVal":[],"int64Val":[],"boolVal":[],"uint32Val":[],"uint64Val":[],"dtype":3,"tensorShape":{"dim":[{"size":"2"}]}}},"dtype":{"type":3}},"name":"transformer/residual/residual1/dilate_conv1/StyleNorm/moments/mean/reduction_indices","op":"Const"},{"input":[],"attr":{"dtype":{"type":1},"value":{"tensor":{"floatVal":[0.000009999999747378752],"doubleVal":[],"intVal":[],"stringVal":[],"scomplexVal":[],"int64Val":[],"boolVal":[],"uint32Val":[],"uint64Val":[],"dtype":1,"tensorShape":{"dim":[]}}}},"name":"transformer/residual/residual1/dilate_conv1/StyleNorm/batchnorm/add/y","op":"Const"},{"input":[],"attr":{"dtype":{"type":1},"shape":{"shape":{"dim":[{"size":"-1"},{"size":"1"},{"size":"1"},{"size":"100"}]}}},"name":"Placeholder_1","op":"Placeholder"},{"input":[],"attr":{"value":{"tensor":{"floatVal":[],"doubleVal":[],"intVal":[],"stringVal":[],"scomplexVal":[],"int64Val":[],"boolVal":[],"uint32Val":[],"uint64Val":[],"dtype":1,"tensorShape":{"dim":[{"size":"1"},{"size":"1"},{"size":"100"},{"size":"3"}]}}},"dtype":{"type":1}},"name":"style_params/transformer/expand/conv3/conv/StyleNorm/Conv_1/weights","op":"Const"},{"input":[],"attr":{"dtype":{"type":1},"value":{"tensor":{"floatVal":[],"doubleVal":[],"intVal":[],"stringVal":[],"scomplexVal":[],"int64Val":[],"boolVal":[],"uint32Val":[],"uint64Val":[],"dtype":1,"tensorShape":{"dim":[{"size":"3"}]}}}},"name":"style_params/transformer/expand/conv3/conv/StyleNorm/Conv_1/biases","op":"Const"},{"input":[],"attr":{"value":{"tensor":{"floatVal":[],"doubleVal":[],"intVal":[1],"stringVal":[],"scomplexVal":[],"int64Val":[],"boolVal":[],"uint32Val":[],"uint64Val":[],"dtype":3,"tensorShape":{"dim":[]}}},"dtype":{"type":3}},"name":"transformer/expand/conv3/dilate_conv/StyleNorm/ExpandDims/dim","op":"Const"},{"input":["Placeholder","transformer/contract/Pad/paddings"],"attr":{"T":{"type":1},"Tpaddings":{"type":3}},"name":"transformer/contract/Pad","op":"Pad"},{"input":["Placeholder_1","style_params/transformer/expand/conv3/conv/StyleNorm/Conv/weights"],"attr":{"T":{"type":1},"strides":{"list":{"s":[],"i":["1","1","1","1"],"f":[],"b":[],"type":[],"shape":[],"tensor":[],"func":[]}},"data_format":{"s":[78,72,87,67]},"use_cudnn_on_gpu":{"b":true},"padding":{"s":[83,65,77,69]},"dilations":{"list":{"s":[],"i":["1","1","1","1"],"f":[],"b":[],"type":[],"shape":[],"tensor":[],"func":[]}}},"name":"style_params/transformer/expand/conv3/conv/StyleNorm/Conv/Conv2D","op":"Conv2D"},{"input":["Placeholder_1","style_params/transformer/expand/conv2/conv/StyleNorm/Conv/weights"],"attr":{"padding":{"s":[83,65,77,69]},"dilations":{"list":{"s":[],"i":["1","1","1","1"],"f":[],"b":[],"type":[],"shape":[],"tensor":[],"func":[]}},"T":{"type":1},"strides":{"list":{"s":[],"i":["1","1","1","1"],"f":[],"b":[],"type":[],"shape":[],"tensor":[],"func":[]}},"data_format":{"s":[78,72,87,67]},"use_cudnn_on_gpu":{"b":true}},"name":"style_params/transformer/expand/conv2/conv/StyleNorm/Conv/Conv2D","op":"Conv2D"},{"input":["Placeholder_1","style_params/transformer/expand/conv1/conv/StyleNorm/Conv/weights"],"attr":{"T":{"type":1},"strides":{"list":{"s":[],"i":["1","1","1","1"],"f":[],"b":[],"type":[],"shape":[],"tensor":[],"func":[]}},"data_format":{"s":[78,72,87,67]},"use_cudnn_on_gpu":{"b":true},"padding":{"s":[83,65,77,69]},"dilations":{"list":{"s":[],"i":["1","1","1","1"],"f":[],"b":[],"type":[],"shape":[],"tensor":[],"func":[]}}},"name":"style_params/transformer/expand/conv1/conv/StyleNorm/Conv/Conv2D","op":"Conv2D"},{"input":["Placeholder_1","style_params/transformer/residual/residual5/conv2/StyleNorm/Conv/weights"],"attr":{"use_cudnn_on_gpu":{"b":true},"padding":{"s":[83,65,77,69]},"dilations":{"list":{"s":[],"i":["1","1","1","1"],"f":[],"b":[],"type":[],"shape":[],"tensor":[],"func":[]}},"T":{"type":1},"strides":{"list":{"s":[],"i":["1","1","1","1"],"f":[],"b":[],"type":[],"shape":[],"tensor":[],"func":[]}},"data_format":{"s":[78,72,87,67]}},"name":"style_params/transformer/residual/residual5/conv2/StyleNorm/Conv/Conv2D","op":"Conv2D"},{"input":["Placeholder_1","style_params/transformer/residual/residual5/conv1/StyleNorm/Conv/weights"],"attr":{"data_format":{"s":[78,72,87,67]},"strides":{"list":{"s":[],"i":["1","1","1","1"],"f":[],"b":[],"type":[],"shape":[],"tensor":[],"func":[]}},"use_cudnn_on_gpu":{"b":true},"padding":{"s":[83,65,77,69]},"dilations":{"list":{"s":[],"i":["1","1","1","1"],"f":[],"b":[],"type":[],"shape":[],"tensor":[],"func":[]}},"T":{"type":1}},"name":"style_params/transformer/residual/residual5/conv1/StyleNorm/Conv/Conv2D","op":"Conv2D"},{"input":["Placeholder_1","style_params/transformer/residual/residual4/conv2/StyleNorm/Conv/weights"],"attr":{"dilations":{"list":{"s":[],"i":["1","1","1","1"],"f":[],"b":[],"type":[],"shape":[],"tensor":[],"func":[]}},"T":{"type":1},"data_format":{"s":[78,72,87,67]},"strides":{"list":{"s":[],"i":["1","1","1","1"],"f":[],"b":[],"type":[],"shape":[],"tensor":[],"func":[]}},"use_cudnn_on_gpu":{"b":true},"padding":{"s":[83,65,77,69]}},"name":"style_params/transformer/residual/residual4/conv2/StyleNorm/Conv/Conv2D","op":"Conv2D"},{"input":["Placeholder_1","style_params/transformer/residual/residual4/conv1/StyleNorm/Conv/weights"],"attr":{"dilations":{"list":{"s":[],"i":["1","1","1","1"],"f":[],"b":[],"type":[],"shape":[],"tensor":[],"func":[]}},"T":{"type":1},"strides":{"list":{"s":[],"i":["1","1","1","1"],"f":[],"b":[],"type":[],"shape":[],"tensor":[],"func":[]}},"data_format":{"s":[78,72,87,67]},"use_cudnn_on_gpu":{"b":true},"padding":{"s":[83,65,77,69]}},"name":"style_params/transformer/residual/residual4/conv1/StyleNorm/Conv/Conv2D","op":"Conv2D"},{"input":["Placeholder_1","style_params/transformer/residual/residual3/conv2/StyleNorm/Conv/weights"],"attr":{"dilations":{"list":{"s":[],"i":["1","1","1","1"],"f":[],"b":[],"type":[],"shape":[],"tensor":[],"func":[]}},"T":{"type":1},"strides":{"list":{"s":[],"i":["1","1","1","1"],"f":[],"b":[],"type":[],"shape":[],"tensor":[],"func":[]}},"data_format":{"s":[78,72,87,67]},"use_cudnn_on_gpu":{"b":true},"padding":{"s":[83,65,77,69]}},"name":"style_params/transformer/residual/residual3/conv2/StyleNorm/Conv/Conv2D","op":"Conv2D"},{"input":["Placeholder_1","style_params/transformer/residual/residual3/conv1/StyleNorm/Conv/weights"],"attr":{"dilations":{"list":{"s":[],"i":["1","1","1","1"],"f":[],"b":[],"type":[],"shape":[],"tensor":[],"func":[]}},"T":{"type":1},"data_format":{"s":[78,72,87,67]},"strides":{"list":{"s":[],"i":["1","1","1","1"],"f":[],"b":[],"type":[],"shape":[],"tensor":[],"func":[]}},"use_cudnn_on_gpu":{"b":true},"padding":{"s":[83,65,77,69]}},"name":"style_params/transformer/residual/residual3/conv1/StyleNorm/Conv/Conv2D","op":"Conv2D"},{"input":["Placeholder_1","style_params/transformer/residual/residual2/conv2/StyleNorm/Conv/weights"],"attr":{"dilations":{"list":{"s":[],"i":["1","1","1","1"],"f":[],"b":[],"type":[],"shape":[],"tensor":[],"func":[]}},"T":{"type":1},"strides":{"list":{"s":[],"i":["1","1","1","1"],"f":[],"b":[],"type":[],"shape":[],"tensor":[],"func":[]}},"data_format":{"s":[78,72,87,67]},"use_cudnn_on_gpu":{"b":true},"padding":{"s":[83,65,77,69]}},"name":"style_params/transformer/residual/residual2/conv2/StyleNorm/Conv/Conv2D","op":"Conv2D"},{"input":["Placeholder_1","style_params/transformer/residual/residual2/conv1/StyleNorm/Conv/weights"],"attr":{"dilations":{"list":{"s":[],"i":["1","1","1","1"],"f":[],"b":[],"type":[],"shape":[],"tensor":[],"func":[]}},"T":{"type":1},"strides":{"list":{"s":[],"i":["1","1","1","1"],"f":[],"b":[],"type":[],"shape":[],"tensor":[],"func":[]}},"data_format":{"s":[78,72,87,67]},"use_cudnn_on_gpu":{"b":true},"padding":{"s":[83,65,77,69]}},"name":"style_params/transformer/residual/residual2/conv1/StyleNorm/Conv/Conv2D","op":"Conv2D"},{"input":["Placeholder_1","style_params/transformer/residual/residual1/conv2/StyleNorm/Conv/weights"],"attr":{"dilations":{"list":{"s":[],"i":["1","1","1","1"],"f":[],"b":[],"type":[],"shape":[],"tensor":[],"func":[]}},"T":{"type":1},"data_format":{"s":[78,72,87,67]},"strides":{"list":{"s":[],"i":["1","1","1","1"],"f":[],"b":[],"type":[],"shape":[],"tensor":[],"func":[]}},"use_cudnn_on_gpu":{"b":true},"padding":{"s":[83,65,77,69]}},"name":"style_params/transformer/residual/residual1/conv2/StyleNorm/Conv/Conv2D","op":"Conv2D"},{"input":["Placeholder_1","style_params/transformer/residual/residual1/conv1/StyleNorm/Conv/weights"],"attr":{"dilations":{"list":{"s":[],"i":["1","1","1","1"],"f":[],"b":[],"type":[],"shape":[],"tensor":[],"func":[]}},"T":{"type":1},"strides":{"list":{"s":[],"i":["1","1","1","1"],"f":[],"b":[],"type":[],"shape":[],"tensor":[],"func":[]}},"data_format":{"s":[78,72,87,67]},"use_cudnn_on_gpu":{"b":true},"padding":{"s":[83,65,77,69]}},"name":"style_params/transformer/residual/residual1/conv1/StyleNorm/Conv/Conv2D","op":"Conv2D"},{"input":["Placeholder_1","style_params/transformer/residual/residual1/conv1/StyleNorm/Conv_1/weights"],"attr":{"dilations":{"list":{"s":[],"i":["1","1","1","1"],"f":[],"b":[],"type":[],"shape":[],"tensor":[],"func":[]}},"T":{"type":1},"strides":{"list":{"s":[],"i":["1","1","1","1"],"f":[],"b":[],"type":[],"shape":[],"tensor":[],"func":[]}},"data_format":{"s":[78,72,87,67]},"use_cudnn_on_gpu":{"b":true},"padding":{"s":[83,65,77,69]}},"name":"style_params/transformer/residual/residual1/conv1/StyleNorm/Conv_1/Conv2D","op":"Conv2D"},{"input":["Placeholder_1","style_params/transformer/residual/residual1/conv2/StyleNorm/Conv_1/weights"],"attr":{"use_cudnn_on_gpu":{"b":true},"padding":{"s":[83,65,77,69]},"dilations":{"list":{"s":[],"i":["1","1","1","1"],"f":[],"b":[],"type":[],"shape":[],"tensor":[],"func":[]}},"T":{"type":1},"strides":{"list":{"s":[],"i":["1","1","1","1"],"f":[],"b":[],"type":[],"shape":[],"tensor":[],"func":[]}},"data_format":{"s":[78,72,87,67]}},"name":"style_params/transformer/residual/residual1/conv2/StyleNorm/Conv_1/Conv2D","op":"Conv2D"},{"input":["Placeholder_1","style_params/transformer/residual/residual2/conv1/StyleNorm/Conv_1/weights"],"attr":{"dilations":{"list":{"s":[],"i":["1","1","1","1"],"f":[],"b":[],"type":[],"shape":[],"tensor":[],"func":[]}},"T":{"type":1},"data_format":{"s":[78,72,87,67]},"strides":{"list":{"s":[],"i":["1","1","1","1"],"f":[],"b":[],"type":[],"shape":[],"tensor":[],"func":[]}},"use_cudnn_on_gpu":{"b":true},"padding":{"s":[83,65,77,69]}},"name":"style_params/transformer/residual/residual2/conv1/StyleNorm/Conv_1/Conv2D","op":"Conv2D"},{"input":["Placeholder_1","style_params/transformer/residual/residual2/conv2/StyleNorm/Conv_1/weights"],"attr":{"padding":{"s":[83,65,77,69]},"dilations":{"list":{"s":[],"i":["1","1","1","1"],"f":[],"b":[],"type":[],"shape":[],"tensor":[],"func":[]}},"T":{"type":1},"data_format":{"s":[78,72,87,67]},"strides":{"list":{"s":[],"i":["1","1","1","1"],"f":[],"b":[],"type":[],"shape":[],"tensor":[],"func":[]}},"use_cudnn_on_gpu":{"b":true}},"name":"style_params/transformer/residual/residual2/conv2/StyleNorm/Conv_1/Conv2D","op":"Conv2D"},{"input":["Placeholder_1","style_params/transformer/residual/residual3/conv1/StyleNorm/Conv_1/weights"],"attr":{"dilations":{"list":{"s":[],"i":["1","1","1","1"],"f":[],"b":[],"type":[],"shape":[],"tensor":[],"func":[]}},"T":{"type":1},"strides":{"list":{"s":[],"i":["1","1","1","1"],"f":[],"b":[],"type":[],"shape":[],"tensor":[],"func":[]}},"data_format":{"s":[78,72,87,67]},"use_cudnn_on_gpu":{"b":true},"padding":{"s":[83,65,77,69]}},"name":"style_params/transformer/residual/residual3/conv1/StyleNorm/Conv_1/Conv2D","op":"Conv2D"},{"input":["Placeholder_1","style_params/transformer/residual/residual3/conv2/StyleNorm/Conv_1/weights"],"attr":{"dilations":{"list":{"s":[],"i":["1","1","1","1"],"f":[],"b":[],"type":[],"shape":[],"tensor":[],"func":[]}},"T":{"type":1},"strides":{"list":{"s":[],"i":["1","1","1","1"],"f":[],"b":[],"type":[],"shape":[],"tensor":[],"func":[]}},"data_format":{"s":[78,72,87,67]},"use_cudnn_on_gpu":{"b":true},"padding":{"s":[83,65,77,69]}},"name":"style_params/transformer/residual/residual3/conv2/StyleNorm/Conv_1/Conv2D","op":"Conv2D"},{"input":["Placeholder_1","style_params/transformer/residual/residual4/conv1/StyleNorm/Conv_1/weights"],"attr":{"dilations":{"list":{"s":[],"i":["1","1","1","1"],"f":[],"b":[],"type":[],"shape":[],"tensor":[],"func":[]}},"T":{"type":1},"data_format":{"s":[78,72,87,67]},"strides":{"list":{"s":[],"i":["1","1","1","1"],"f":[],"b":[],"type":[],"shape":[],"tensor":[],"func":[]}},"use_cudnn_on_gpu":{"b":true},"padding":{"s":[83,65,77,69]}},"name":"style_params/transformer/residual/residual4/conv1/StyleNorm/Conv_1/Conv2D","op":"Conv2D"},{"input":["Placeholder_1","style_params/transformer/residual/residual4/conv2/StyleNorm/Conv_1/weights"],"attr":{"dilations":{"list":{"s":[],"i":["1","1","1","1"],"f":[],"b":[],"type":[],"shape":[],"tensor":[],"func":[]}},"T":{"type":1},"data_format":{"s":[78,72,87,67]},"strides":{"list":{"s":[],"i":["1","1","1","1"],"f":[],"b":[],"type":[],"shape":[],"tensor":[],"func":[]}},"use_cudnn_on_gpu":{"b":true},"padding":{"s":[83,65,77,69]}},"name":"style_params/transformer/residual/residual4/conv2/StyleNorm/Conv_1/Conv2D","op":"Conv2D"},{"input":["Placeholder_1","style_params/transformer/residual/residual5/conv1/StyleNorm/Conv_1/weights"],"attr":{"data_format":{"s":[78,72,87,67]},"strides":{"list":{"s":[],"i":["1","1","1","1"],"f":[],"b":[],"type":[],"shape":[],"tensor":[],"func":[]}},"use_cudnn_on_gpu":{"b":true},"padding":{"s":[83,65,77,69]},"dilations":{"list":{"s":[],"i":["1","1","1","1"],"f":[],"b":[],"type":[],"shape":[],"tensor":[],"func":[]}},"T":{"type":1}},"name":"style_params/transformer/residual/residual5/conv1/StyleNorm/Conv_1/Conv2D","op":"Conv2D"},{"input":["Placeholder_1","style_params/transformer/residual/residual5/conv2/StyleNorm/Conv_1/weights"],"attr":{"dilations":{"list":{"s":[],"i":["1","1","1","1"],"f":[],"b":[],"type":[],"shape":[],"tensor":[],"func":[]}},"T":{"type":1},"strides":{"list":{"s":[],"i":["1","1","1","1"],"f":[],"b":[],"type":[],"shape":[],"tensor":[],"func":[]}},"data_format":{"s":[78,72,87,67]},"use_cudnn_on_gpu":{"b":true},"padding":{"s":[83,65,77,69]}},"name":"style_params/transformer/residual/residual5/conv2/StyleNorm/Conv_1/Conv2D","op":"Conv2D"},{"input":["Placeholder_1","style_params/transformer/expand/conv1/conv/StyleNorm/Conv_1/weights"],"attr":{"dilations":{"list":{"s":[],"i":["1","1","1","1"],"f":[],"b":[],"type":[],"shape":[],"tensor":[],"func":[]}},"T":{"type":1},"data_format":{"s":[78,72,87,67]},"strides":{"list":{"s":[],"i":["1","1","1","1"],"f":[],"b":[],"type":[],"shape":[],"tensor":[],"func":[]}},"use_cudnn_on_gpu":{"b":true},"padding":{"s":[83,65,77,69]}},"name":"style_params/transformer/expand/conv1/conv/StyleNorm/Conv_1/Conv2D","op":"Conv2D"},{"input":["Placeholder_1","style_params/transformer/expand/conv2/conv/StyleNorm/Conv_1/weights"],"attr":{"dilations":{"list":{"s":[],"i":["1","1","1","1"],"f":[],"b":[],"type":[],"shape":[],"tensor":[],"func":[]}},"T":{"type":1},"data_format":{"s":[78,72,87,67]},"strides":{"list":{"s":[],"i":["1","1","1","1"],"f":[],"b":[],"type":[],"shape":[],"tensor":[],"func":[]}},"use_cudnn_on_gpu":{"b":true},"padding":{"s":[83,65,77,69]}},"name":"style_params/transformer/expand/conv2/conv/StyleNorm/Conv_1/Conv2D","op":"Conv2D"},{"input":["Placeholder_1","style_params/transformer/expand/conv3/conv/StyleNorm/Conv_1/weights"],"attr":{"padding":{"s":[83,65,77,69]},"dilations":{"list":{"s":[],"i":["1","1","1","1"],"f":[],"b":[],"type":[],"shape":[],"tensor":[],"func":[]}},"T":{"type":1},"data_format":{"s":[78,72,87,67]},"strides":{"list":{"s":[],"i":["1","1","1","1"],"f":[],"b":[],"type":[],"shape":[],"tensor":[],"func":[]}},"use_cudnn_on_gpu":{"b":true}},"name":"style_params/transformer/expand/conv3/conv/StyleNorm/Conv_1/Conv2D","op":"Conv2D"},{"input":["transformer/contract/Pad","transformer/contract/conv1/weights"],"attr":{"use_cudnn_on_gpu":{"b":true},"padding":{"s":[86,65,76,73,68]},"dilations":{"list":{"s":[],"i":["1","1","1","1"],"f":[],"b":[],"type":[],"shape":[],"tensor":[],"func":[]}},"T":{"type":1},"data_format":{"s":[78,72,87,67]},"strides":{"list":{"s":[],"i":["1","1","1","1"],"f":[],"b":[],"type":[],"shape":[],"tensor":[],"func":[]}}},"name":"transformer/contract/conv1/Conv2D","op":"Conv2D"},{"input":["style_params/transformer/expand/conv3/conv/StyleNorm/Conv/Conv2D","style_params/transformer/expand/conv3/conv/StyleNorm/Conv/biases"],"attr":{"T":{"type":1},"data_format":{"s":[78,72,87,67]}},"name":"style_params/transformer/expand/conv3/conv/StyleNorm/Conv/BiasAdd","op":"BiasAdd"},{"input":["style_params/transformer/expand/conv2/conv/StyleNorm/Conv/Conv2D","style_params/transformer/expand/conv2/conv/StyleNorm/Conv/biases"],"attr":{"T":{"type":1},"data_format":{"s":[78,72,87,67]}},"name":"style_params/transformer/expand/conv2/conv/StyleNorm/Conv/BiasAdd","op":"BiasAdd"},{"input":["style_params/transformer/expand/conv1/conv/StyleNorm/Conv/Conv2D","style_params/transformer/expand/conv1/conv/StyleNorm/Conv/biases"],"attr":{"T":{"type":1},"data_format":{"s":[78,72,87,67]}},"name":"style_params/transformer/expand/conv1/conv/StyleNorm/Conv/BiasAdd","op":"BiasAdd"},{"input":["style_params/transformer/residual/residual5/conv2/StyleNorm/Conv/Conv2D","style_params/transformer/residual/residual5/conv2/StyleNorm/Conv/biases"],"attr":{"data_format":{"s":[78,72,87,67]},"T":{"type":1}},"name":"style_params/transformer/residual/residual5/conv2/StyleNorm/Conv/BiasAdd","op":"BiasAdd"},{"input":["style_params/transformer/residual/residual5/conv1/StyleNorm/Conv/Conv2D","style_params/transformer/residual/residual5/conv1/StyleNorm/Conv/biases"],"attr":{"T":{"type":1},"data_format":{"s":[78,72,87,67]}},"name":"style_params/transformer/residual/residual5/conv1/StyleNorm/Conv/BiasAdd","op":"BiasAdd"},{"input":["style_params/transformer/residual/residual4/conv2/StyleNorm/Conv/Conv2D","style_params/transformer/residual/residual4/conv2/StyleNorm/Conv/biases"],"attr":{"data_format":{"s":[78,72,87,67]},"T":{"type":1}},"name":"style_params/transformer/residual/residual4/conv2/StyleNorm/Conv/BiasAdd","op":"BiasAdd"},{"input":["style_params/transformer/residual/residual4/conv1/StyleNorm/Conv/Conv2D","style_params/transformer/residual/residual4/conv1/StyleNorm/Conv/biases"],"attr":{"T":{"type":1},"data_format":{"s":[78,72,87,67]}},"name":"style_params/transformer/residual/residual4/conv1/StyleNorm/Conv/BiasAdd","op":"BiasAdd"},{"input":["style_params/transformer/residual/residual3/conv2/StyleNorm/Conv/Conv2D","style_params/transformer/residual/residual3/conv2/StyleNorm/Conv/biases"],"attr":{"T":{"type":1},"data_format":{"s":[78,72,87,67]}},"name":"style_params/transformer/residual/residual3/conv2/StyleNorm/Conv/BiasAdd","op":"BiasAdd"},{"input":["style_params/transformer/residual/residual3/conv1/StyleNorm/Conv/Conv2D","style_params/transformer/residual/residual3/conv1/StyleNorm/Conv/biases"],"attr":{"T":{"type":1},"data_format":{"s":[78,72,87,67]}},"name":"style_params/transformer/residual/residual3/conv1/StyleNorm/Conv/BiasAdd","op":"BiasAdd"},{"input":["style_params/transformer/residual/residual2/conv2/StyleNorm/Conv/Conv2D","style_params/transformer/residual/residual2/conv2/StyleNorm/Conv/biases"],"attr":{"T":{"type":1},"data_format":{"s":[78,72,87,67]}},"name":"style_params/transformer/residual/residual2/conv2/StyleNorm/Conv/BiasAdd","op":"BiasAdd"},{"input":["style_params/transformer/residual/residual2/conv1/StyleNorm/Conv/Conv2D","style_params/transformer/residual/residual2/conv1/StyleNorm/Conv/biases"],"attr":{"T":{"type":1},"data_format":{"s":[78,72,87,67]}},"name":"style_params/transformer/residual/residual2/conv1/StyleNorm/Conv/BiasAdd","op":"BiasAdd"},{"input":["style_params/transformer/residual/residual1/conv2/StyleNorm/Conv/Conv2D","style_params/transformer/residual/residual1/conv2/StyleNorm/Conv/biases"],"attr":{"T":{"type":1},"data_format":{"s":[78,72,87,67]}},"name":"style_params/transformer/residual/residual1/conv2/StyleNorm/Conv/BiasAdd","op":"BiasAdd"},{"input":["style_params/transformer/residual/residual1/conv1/StyleNorm/Conv/Conv2D","style_params/transformer/residual/residual1/conv1/StyleNorm/Conv/biases"],"attr":{"T":{"type":1},"data_format":{"s":[78,72,87,67]}},"name":"style_params/transformer/residual/residual1/conv1/StyleNorm/Conv/BiasAdd","op":"BiasAdd"},{"input":["style_params/transformer/residual/residual1/conv1/StyleNorm/Conv_1/Conv2D","style_params/transformer/residual/residual1/conv1/StyleNorm/Conv_1/biases"],"attr":{"T":{"type":1},"data_format":{"s":[78,72,87,67]}},"name":"style_params/transformer/residual/residual1/conv1/StyleNorm/Conv_1/BiasAdd","op":"BiasAdd"},{"input":["style_params/transformer/residual/residual1/conv2/StyleNorm/Conv_1/Conv2D","style_params/transformer/residual/residual1/conv2/StyleNorm/Conv_1/biases"],"attr":{"data_format":{"s":[78,72,87,67]},"T":{"type":1}},"name":"style_params/transformer/residual/residual1/conv2/StyleNorm/Conv_1/BiasAdd","op":"BiasAdd"},{"input":["style_params/transformer/residual/residual2/conv1/StyleNorm/Conv_1/Conv2D","style_params/transformer/residual/residual2/conv1/StyleNorm/Conv_1/biases"],"attr":{"T":{"type":1},"data_format":{"s":[78,72,87,67]}},"name":"style_params/transformer/residual/residual2/conv1/StyleNorm/Conv_1/BiasAdd","op":"BiasAdd"},{"input":["style_params/transformer/residual/residual2/conv2/StyleNorm/Conv_1/Conv2D","style_params/transformer/residual/residual2/conv2/StyleNorm/Conv_1/biases"],"attr":{"T":{"type":1},"data_format":{"s":[78,72,87,67]}},"name":"style_params/transformer/residual/residual2/conv2/StyleNorm/Conv_1/BiasAdd","op":"BiasAdd"},{"input":["style_params/transformer/residual/residual3/conv1/StyleNorm/Conv_1/Conv2D","style_params/transformer/residual/residual3/conv1/StyleNorm/Conv_1/biases"],"attr":{"T":{"type":1},"data_format":{"s":[78,72,87,67]}},"name":"style_params/transformer/residual/residual3/conv1/StyleNorm/Conv_1/BiasAdd","op":"BiasAdd"},{"input":["style_params/transformer/residual/residual3/conv2/StyleNorm/Conv_1/Conv2D","style_params/transformer/residual/residual3/conv2/StyleNorm/Conv_1/biases"],"attr":{"T":{"type":1},"data_format":{"s":[78,72,87,67]}},"name":"style_params/transformer/residual/residual3/conv2/StyleNorm/Conv_1/BiasAdd","op":"BiasAdd"},{"input":["style_params/transformer/residual/residual4/conv1/StyleNorm/Conv_1/Conv2D","style_params/transformer/residual/residual4/conv1/StyleNorm/Conv_1/biases"],"attr":{"T":{"type":1},"data_format":{"s":[78,72,87,67]}},"name":"style_params/transformer/residual/residual4/conv1/StyleNorm/Conv_1/BiasAdd","op":"BiasAdd"},{"input":["style_params/transformer/residual/residual4/conv2/StyleNorm/Conv_1/Conv2D","style_params/transformer/residual/residual4/conv2/StyleNorm/Conv_1/biases"],"attr":{"T":{"type":1},"data_format":{"s":[78,72,87,67]}},"name":"style_params/transformer/residual/residual4/conv2/StyleNorm/Conv_1/BiasAdd","op":"BiasAdd"},{"input":["style_params/transformer/residual/residual5/conv1/StyleNorm/Conv_1/Conv2D","style_params/transformer/residual/residual5/conv1/StyleNorm/Conv_1/biases"],"attr":{"T":{"type":1},"data_format":{"s":[78,72,87,67]}},"name":"style_params/transformer/residual/residual5/conv1/StyleNorm/Conv_1/BiasAdd","op":"BiasAdd"},{"input":["style_params/transformer/residual/residual5/conv2/StyleNorm/Conv_1/Conv2D","style_params/transformer/residual/residual5/conv2/StyleNorm/Conv_1/biases"],"attr":{"T":{"type":1},"data_format":{"s":[78,72,87,67]}},"name":"style_params/transformer/residual/residual5/conv2/StyleNorm/Conv_1/BiasAdd","op":"BiasAdd"},{"input":["style_params/transformer/expand/conv1/conv/StyleNorm/Conv_1/Conv2D","style_params/transformer/expand/conv1/conv/StyleNorm/Conv_1/biases"],"attr":{"T":{"type":1},"data_format":{"s":[78,72,87,67]}},"name":"style_params/transformer/expand/conv1/conv/StyleNorm/Conv_1/BiasAdd","op":"BiasAdd"},{"input":["style_params/transformer/expand/conv2/conv/StyleNorm/Conv_1/Conv2D","style_params/transformer/expand/conv2/conv/StyleNorm/Conv_1/biases"],"attr":{"T":{"type":1},"data_format":{"s":[78,72,87,67]}},"name":"style_params/transformer/expand/conv2/conv/StyleNorm/Conv_1/BiasAdd","op":"BiasAdd"},{"input":["style_params/transformer/expand/conv3/conv/StyleNorm/Conv_1/Conv2D","style_params/transformer/expand/conv3/conv/StyleNorm/Conv_1/biases"],"attr":{"T":{"type":1},"data_format":{"s":[78,72,87,67]}},"name":"style_params/transformer/expand/conv3/conv/StyleNorm/Conv_1/BiasAdd","op":"BiasAdd"},{"input":["transformer/contract/conv1/Conv2D","transformer/contract/conv1/BatchNorm/Const","transformer/contract/conv1/BatchNorm/beta","transformer/contract/conv1/BatchNorm/moving_mean","transformer/contract/conv1/BatchNorm/moving_variance"],"attr":{"epsilon":{"f":0.0010000000474974513},"T":{"type":1},"data_format":{"s":[78,72,87,67]},"is_training":{"b":false}},"name":"transformer/contract/conv1/BatchNorm/FusedBatchNorm","op":"FusedBatchNorm"},{"input":["style_params/transformer/expand/conv3/conv/StyleNorm/Conv/BiasAdd"],"attr":{"squeeze_dims":{"list":{"s":[],"i":["1","2"],"f":[],"b":[],"type":[],"shape":[],"tensor":[],"func":[]}},"T":{"type":1}},"name":"style_params/transformer/expand/conv3/conv/StyleNorm/SpatialSqueeze","op":"Squeeze"},{"input":["style_params/transformer/expand/conv2/conv/StyleNorm/Conv/BiasAdd"],"attr":{"squeeze_dims":{"list":{"s":[],"i":["1","2"],"f":[],"b":[],"type":[],"shape":[],"tensor":[],"func":[]}},"T":{"type":1}},"name":"style_params/transformer/expand/conv2/conv/StyleNorm/SpatialSqueeze","op":"Squeeze"},{"input":["style_params/transformer/expand/conv1/conv/StyleNorm/Conv/BiasAdd"],"attr":{"squeeze_dims":{"list":{"s":[],"i":["1","2"],"f":[],"b":[],"type":[],"shape":[],"tensor":[],"func":[]}},"T":{"type":1}},"name":"style_params/transformer/expand/conv1/conv/StyleNorm/SpatialSqueeze","op":"Squeeze"},{"input":["style_params/transformer/residual/residual5/conv2/StyleNorm/Conv/BiasAdd"],"attr":{"squeeze_dims":{"list":{"s":[],"i":["1","2"],"f":[],"b":[],"type":[],"shape":[],"tensor":[],"func":[]}},"T":{"type":1}},"name":"style_params/transformer/residual/residual5/conv2/StyleNorm/SpatialSqueeze","op":"Squeeze"},{"input":["style_params/transformer/residual/residual5/conv1/StyleNorm/Conv/BiasAdd"],"attr":{"squeeze_dims":{"list":{"s":[],"i":["1","2"],"f":[],"b":[],"type":[],"shape":[],"tensor":[],"func":[]}},"T":{"type":1}},"name":"style_params/transformer/residual/residual5/conv1/StyleNorm/SpatialSqueeze","op":"Squeeze"},{"input":["style_params/transformer/residual/residual4/conv2/StyleNorm/Conv/BiasAdd"],"attr":{"squeeze_dims":{"list":{"s":[],"i":["1","2"],"f":[],"b":[],"type":[],"shape":[],"tensor":[],"func":[]}},"T":{"type":1}},"name":"style_params/transformer/residual/residual4/conv2/StyleNorm/SpatialSqueeze","op":"Squeeze"},{"input":["style_params/transformer/residual/residual4/conv1/StyleNorm/Conv/BiasAdd"],"attr":{"squeeze_dims":{"list":{"s":[],"i":["1","2"],"f":[],"b":[],"type":[],"shape":[],"tensor":[],"func":[]}},"T":{"type":1}},"name":"style_params/transformer/residual/residual4/conv1/StyleNorm/SpatialSqueeze","op":"Squeeze"},{"input":["style_params/transformer/residual/residual3/conv2/StyleNorm/Conv/BiasAdd"],"attr":{"squeeze_dims":{"list":{"s":[],"i":["1","2"],"f":[],"b":[],"type":[],"shape":[],"tensor":[],"func":[]}},"T":{"type":1}},"name":"style_params/transformer/residual/residual3/conv2/StyleNorm/SpatialSqueeze","op":"Squeeze"},{"input":["style_params/transformer/residual/residual3/conv1/StyleNorm/Conv/BiasAdd"],"attr":{"squeeze_dims":{"list":{"s":[],"i":["1","2"],"f":[],"b":[],"type":[],"shape":[],"tensor":[],"func":[]}},"T":{"type":1}},"name":"style_params/transformer/residual/residual3/conv1/StyleNorm/SpatialSqueeze","op":"Squeeze"},{"input":["style_params/transformer/residual/residual2/conv2/StyleNorm/Conv/BiasAdd"],"attr":{"squeeze_dims":{"list":{"s":[],"i":["1","2"],"f":[],"b":[],"type":[],"shape":[],"tensor":[],"func":[]}},"T":{"type":1}},"name":"style_params/transformer/residual/residual2/conv2/StyleNorm/SpatialSqueeze","op":"Squeeze"},{"input":["style_params/transformer/residual/residual2/conv1/StyleNorm/Conv/BiasAdd"],"attr":{"squeeze_dims":{"list":{"s":[],"i":["1","2"],"f":[],"b":[],"type":[],"shape":[],"tensor":[],"func":[]}},"T":{"type":1}},"name":"style_params/transformer/residual/residual2/conv1/StyleNorm/SpatialSqueeze","op":"Squeeze"},{"input":["style_params/transformer/residual/residual1/conv2/StyleNorm/Conv/BiasAdd"],"attr":{"squeeze_dims":{"list":{"s":[],"i":["1","2"],"f":[],"b":[],"type":[],"shape":[],"tensor":[],"func":[]}},"T":{"type":1}},"name":"style_params/transformer/residual/residual1/conv2/StyleNorm/SpatialSqueeze","op":"Squeeze"},{"input":["style_params/transformer/residual/residual1/conv1/StyleNorm/Conv/BiasAdd"],"attr":{"squeeze_dims":{"list":{"s":[],"i":["1","2"],"f":[],"b":[],"type":[],"shape":[],"tensor":[],"func":[]}},"T":{"type":1}},"name":"style_params/transformer/residual/residual1/conv1/StyleNorm/SpatialSqueeze","op":"Squeeze"},{"input":["style_params/transformer/residual/residual1/conv1/StyleNorm/Conv_1/BiasAdd"],"attr":{"squeeze_dims":{"list":{"s":[],"i":["1","2"],"f":[],"b":[],"type":[],"shape":[],"tensor":[],"func":[]}},"T":{"type":1}},"name":"style_params/transformer/residual/residual1/conv1/StyleNorm/SpatialSqueeze_1","op":"Squeeze"},{"input":["style_params/transformer/residual/residual1/conv2/StyleNorm/Conv_1/BiasAdd"],"attr":{"squeeze_dims":{"list":{"s":[],"i":["1","2"],"f":[],"b":[],"type":[],"shape":[],"tensor":[],"func":[]}},"T":{"type":1}},"name":"style_params/transformer/residual/residual1/conv2/StyleNorm/SpatialSqueeze_1","op":"Squeeze"},{"input":["style_params/transformer/residual/residual2/conv1/StyleNorm/Conv_1/BiasAdd"],"attr":{"T":{"type":1},"squeeze_dims":{"list":{"s":[],"i":["1","2"],"f":[],"b":[],"type":[],"shape":[],"tensor":[],"func":[]}}},"name":"style_params/transformer/residual/residual2/conv1/StyleNorm/SpatialSqueeze_1","op":"Squeeze"},{"input":["style_params/transformer/residual/residual2/conv2/StyleNorm/Conv_1/BiasAdd"],"attr":{"squeeze_dims":{"list":{"s":[],"i":["1","2"],"f":[],"b":[],"type":[],"shape":[],"tensor":[],"func":[]}},"T":{"type":1}},"name":"style_params/transformer/residual/residual2/conv2/StyleNorm/SpatialSqueeze_1","op":"Squeeze"},{"input":["style_params/transformer/residual/residual3/conv1/StyleNorm/Conv_1/BiasAdd"],"attr":{"T":{"type":1},"squeeze_dims":{"list":{"s":[],"i":["1","2"],"f":[],"b":[],"type":[],"shape":[],"tensor":[],"func":[]}}},"name":"style_params/transformer/residual/residual3/conv1/StyleNorm/SpatialSqueeze_1","op":"Squeeze"},{"input":["style_params/transformer/residual/residual3/conv2/StyleNorm/Conv_1/BiasAdd"],"attr":{"squeeze_dims":{"list":{"s":[],"i":["1","2"],"f":[],"b":[],"type":[],"shape":[],"tensor":[],"func":[]}},"T":{"type":1}},"name":"style_params/transformer/residual/residual3/conv2/StyleNorm/SpatialSqueeze_1","op":"Squeeze"},{"input":["style_params/transformer/residual/residual4/conv1/StyleNorm/Conv_1/BiasAdd"],"attr":{"T":{"type":1},"squeeze_dims":{"list":{"s":[],"i":["1","2"],"f":[],"b":[],"type":[],"shape":[],"tensor":[],"func":[]}}},"name":"style_params/transformer/residual/residual4/conv1/StyleNorm/SpatialSqueeze_1","op":"Squeeze"},{"input":["style_params/transformer/residual/residual4/conv2/StyleNorm/Conv_1/BiasAdd"],"attr":{"T":{"type":1},"squeeze_dims":{"list":{"s":[],"i":["1","2"],"f":[],"b":[],"type":[],"shape":[],"tensor":[],"func":[]}}},"name":"style_params/transformer/residual/residual4/conv2/StyleNorm/SpatialSqueeze_1","op":"Squeeze"},{"input":["style_params/transformer/residual/residual5/conv1/StyleNorm/Conv_1/BiasAdd"],"attr":{"squeeze_dims":{"list":{"s":[],"i":["1","2"],"f":[],"b":[],"type":[],"shape":[],"tensor":[],"func":[]}},"T":{"type":1}},"name":"style_params/transformer/residual/residual5/conv1/StyleNorm/SpatialSqueeze_1","op":"Squeeze"},{"input":["style_params/transformer/residual/residual5/conv2/StyleNorm/Conv_1/BiasAdd"],"attr":{"T":{"type":1},"squeeze_dims":{"list":{"s":[],"i":["1","2"],"f":[],"b":[],"type":[],"shape":[],"tensor":[],"func":[]}}},"name":"style_params/transformer/residual/residual5/conv2/StyleNorm/SpatialSqueeze_1","op":"Squeeze"},{"input":["style_params/transformer/expand/conv1/conv/StyleNorm/Conv_1/BiasAdd"],"attr":{"squeeze_dims":{"list":{"s":[],"i":["1","2"],"f":[],"b":[],"type":[],"shape":[],"tensor":[],"func":[]}},"T":{"type":1}},"name":"style_params/transformer/expand/conv1/conv/StyleNorm/SpatialSqueeze_1","op":"Squeeze"},{"input":["style_params/transformer/expand/conv2/conv/StyleNorm/Conv_1/BiasAdd"],"attr":{"T":{"type":1},"squeeze_dims":{"list":{"s":[],"i":["1","2"],"f":[],"b":[],"type":[],"shape":[],"tensor":[],"func":[]}}},"name":"style_params/transformer/expand/conv2/conv/StyleNorm/SpatialSqueeze_1","op":"Squeeze"},{"input":["style_params/transformer/expand/conv3/conv/StyleNorm/Conv_1/BiasAdd"],"attr":{"squeeze_dims":{"list":{"s":[],"i":["1","2"],"f":[],"b":[],"type":[],"shape":[],"tensor":[],"func":[]}},"T":{"type":1}},"name":"style_params/transformer/expand/conv3/conv/StyleNorm/SpatialSqueeze_1","op":"Squeeze"},{"input":["transformer/contract/conv1/BatchNorm/FusedBatchNorm"],"attr":{"T":{"type":1}},"name":"transformer/contract/conv1/Relu","op":"Relu"},{"input":["style_params/transformer/expand/conv3/conv/StyleNorm/SpatialSqueeze","transformer/expand/conv3/dilate_conv/StyleNorm/ExpandDims/dim"],"attr":{"T":{"type":1},"Tdim":{"type":3}},"name":"transformer/expand/conv3/dilate_conv/StyleNorm/ExpandDims","op":"ExpandDims"},{"input":["style_params/transformer/expand/conv2/conv/StyleNorm/SpatialSqueeze","transformer/expand/conv3/dilate_conv/StyleNorm/ExpandDims/dim"],"attr":{"Tdim":{"type":3},"T":{"type":1}},"name":"transformer/expand/conv2/dilate_conv/StyleNorm/ExpandDims","op":"ExpandDims"},{"input":["style_params/transformer/expand/conv1/conv/StyleNorm/SpatialSqueeze","transformer/expand/conv3/dilate_conv/StyleNorm/ExpandDims/dim"],"attr":{"Tdim":{"type":3},"T":{"type":1}},"name":"transformer/expand/conv1/dilate_conv/StyleNorm/ExpandDims","op":"ExpandDims"},{"input":["style_params/transformer/residual/residual5/conv2/StyleNorm/SpatialSqueeze","transformer/expand/conv3/dilate_conv/StyleNorm/ExpandDims/dim"],"attr":{"Tdim":{"type":3},"T":{"type":1}},"name":"transformer/residual/residual5/dilate_conv2/StyleNorm/ExpandDims","op":"ExpandDims"},{"input":["style_params/transformer/residual/residual5/conv1/StyleNorm/SpatialSqueeze","transformer/expand/conv3/dilate_conv/StyleNorm/ExpandDims/dim"],"attr":{"Tdim":{"type":3},"T":{"type":1}},"name":"transformer/residual/residual5/dilate_conv1/StyleNorm/ExpandDims","op":"ExpandDims"},{"input":["style_params/transformer/residual/residual4/conv2/StyleNorm/SpatialSqueeze","transformer/expand/conv3/dilate_conv/StyleNorm/ExpandDims/dim"],"attr":{"T":{"type":1},"Tdim":{"type":3}},"name":"transformer/residual/residual4/dilate_conv2/StyleNorm/ExpandDims","op":"ExpandDims"},{"input":["style_params/transformer/residual/residual4/conv1/StyleNorm/SpatialSqueeze","transformer/expand/conv3/dilate_conv/StyleNorm/ExpandDims/dim"],"attr":{"Tdim":{"type":3},"T":{"type":1}},"name":"transformer/residual/residual4/dilate_conv1/StyleNorm/ExpandDims","op":"ExpandDims"},{"input":["style_params/transformer/residual/residual3/conv2/StyleNorm/SpatialSqueeze","transformer/expand/conv3/dilate_conv/StyleNorm/ExpandDims/dim"],"attr":{"T":{"type":1},"Tdim":{"type":3}},"name":"transformer/residual/residual3/dilate_conv2/StyleNorm/ExpandDims","op":"ExpandDims"},{"input":["style_params/transformer/residual/residual3/conv1/StyleNorm/SpatialSqueeze","transformer/expand/conv3/dilate_conv/StyleNorm/ExpandDims/dim"],"attr":{"T":{"type":1},"Tdim":{"type":3}},"name":"transformer/residual/residual3/dilate_conv1/StyleNorm/ExpandDims","op":"ExpandDims"},{"input":["style_params/transformer/residual/residual2/conv2/StyleNorm/SpatialSqueeze","transformer/expand/conv3/dilate_conv/StyleNorm/ExpandDims/dim"],"attr":{"Tdim":{"type":3},"T":{"type":1}},"name":"transformer/residual/residual2/dilate_conv2/StyleNorm/ExpandDims","op":"ExpandDims"},{"input":["style_params/transformer/residual/residual2/conv1/StyleNorm/SpatialSqueeze","transformer/expand/conv3/dilate_conv/StyleNorm/ExpandDims/dim"],"attr":{"Tdim":{"type":3},"T":{"type":1}},"name":"transformer/residual/residual2/dilate_conv1/StyleNorm/ExpandDims","op":"ExpandDims"},{"input":["style_params/transformer/residual/residual1/conv2/StyleNorm/SpatialSqueeze","transformer/expand/conv3/dilate_conv/StyleNorm/ExpandDims/dim"],"attr":{"Tdim":{"type":3},"T":{"type":1}},"name":"transformer/residual/residual1/dilate_conv2/StyleNorm/ExpandDims","op":"ExpandDims"},{"input":["style_params/transformer/residual/residual1/conv1/StyleNorm/SpatialSqueeze","transformer/expand/conv3/dilate_conv/StyleNorm/ExpandDims/dim"],"attr":{"Tdim":{"type":3},"T":{"type":1}},"name":"transformer/residual/residual1/dilate_conv1/StyleNorm/ExpandDims","op":"ExpandDims"},{"input":["style_params/transformer/residual/residual1/conv1/StyleNorm/SpatialSqueeze_1","transformer/expand/conv3/dilate_conv/StyleNorm/ExpandDims/dim"],"attr":{"Tdim":{"type":3},"T":{"type":1}},"name":"transformer/residual/residual1/dilate_conv1/StyleNorm/ExpandDims_2","op":"ExpandDims"},{"input":["style_params/transformer/residual/residual1/conv2/StyleNorm/SpatialSqueeze_1","transformer/expand/conv3/dilate_conv/StyleNorm/ExpandDims/dim"],"attr":{"Tdim":{"type":3},"T":{"type":1}},"name":"transformer/residual/residual1/dilate_conv2/StyleNorm/ExpandDims_2","op":"ExpandDims"},{"input":["style_params/transformer/residual/residual2/conv1/StyleNorm/SpatialSqueeze_1","transformer/expand/conv3/dilate_conv/StyleNorm/ExpandDims/dim"],"attr":{"Tdim":{"type":3},"T":{"type":1}},"name":"transformer/residual/residual2/dilate_conv1/StyleNorm/ExpandDims_2","op":"ExpandDims"},{"input":["style_params/transformer/residual/residual2/conv2/StyleNorm/SpatialSqueeze_1","transformer/expand/conv3/dilate_conv/StyleNorm/ExpandDims/dim"],"attr":{"T":{"type":1},"Tdim":{"type":3}},"name":"transformer/residual/residual2/dilate_conv2/StyleNorm/ExpandDims_2","op":"ExpandDims"},{"input":["style_params/transformer/residual/residual3/conv1/StyleNorm/SpatialSqueeze_1","transformer/expand/conv3/dilate_conv/StyleNorm/ExpandDims/dim"],"attr":{"Tdim":{"type":3},"T":{"type":1}},"name":"transformer/residual/residual3/dilate_conv1/StyleNorm/ExpandDims_2","op":"ExpandDims"},{"input":["style_params/transformer/residual/residual3/conv2/StyleNorm/SpatialSqueeze_1","transformer/expand/conv3/dilate_conv/StyleNorm/ExpandDims/dim"],"attr":{"Tdim":{"type":3},"T":{"type":1}},"name":"transformer/residual/residual3/dilate_conv2/StyleNorm/ExpandDims_2","op":"ExpandDims"},{"input":["style_params/transformer/residual/residual4/conv1/StyleNorm/SpatialSqueeze_1","transformer/expand/conv3/dilate_conv/StyleNorm/ExpandDims/dim"],"attr":{"Tdim":{"type":3},"T":{"type":1}},"name":"transformer/residual/residual4/dilate_conv1/StyleNorm/ExpandDims_2","op":"ExpandDims"},{"input":["style_params/transformer/residual/residual4/conv2/StyleNorm/SpatialSqueeze_1","transformer/expand/conv3/dilate_conv/StyleNorm/ExpandDims/dim"],"attr":{"T":{"type":1},"Tdim":{"type":3}},"name":"transformer/residual/residual4/dilate_conv2/StyleNorm/ExpandDims_2","op":"ExpandDims"},{"input":["style_params/transformer/residual/residual5/conv1/StyleNorm/SpatialSqueeze_1","transformer/expand/conv3/dilate_conv/StyleNorm/ExpandDims/dim"],"attr":{"T":{"type":1},"Tdim":{"type":3}},"name":"transformer/residual/residual5/dilate_conv1/StyleNorm/ExpandDims_2","op":"ExpandDims"},{"input":["style_params/transformer/residual/residual5/conv2/StyleNorm/SpatialSqueeze_1","transformer/expand/conv3/dilate_conv/StyleNorm/ExpandDims/dim"],"attr":{"T":{"type":1},"Tdim":{"type":3}},"name":"transformer/residual/residual5/dilate_conv2/StyleNorm/ExpandDims_2","op":"ExpandDims"},{"input":["style_params/transformer/expand/conv1/conv/StyleNorm/SpatialSqueeze_1","transformer/expand/conv3/dilate_conv/StyleNorm/ExpandDims/dim"],"attr":{"Tdim":{"type":3},"T":{"type":1}},"name":"transformer/expand/conv1/dilate_conv/StyleNorm/ExpandDims_2","op":"ExpandDims"},{"input":["style_params/transformer/expand/conv2/conv/StyleNorm/SpatialSqueeze_1","transformer/expand/conv3/dilate_conv/StyleNorm/ExpandDims/dim"],"attr":{"T":{"type":1},"Tdim":{"type":3}},"name":"transformer/expand/conv2/dilate_conv/StyleNorm/ExpandDims_2","op":"ExpandDims"},{"input":["style_params/transformer/expand/conv3/conv/StyleNorm/SpatialSqueeze_1","transformer/expand/conv3/dilate_conv/StyleNorm/ExpandDims/dim"],"attr":{"T":{"type":1},"Tdim":{"type":3}},"name":"transformer/expand/conv3/dilate_conv/StyleNorm/ExpandDims_2","op":"ExpandDims"},{"input":["transformer/contract/conv1/Relu","transformer/contract/Pad_1/paddings"],"attr":{"Tpaddings":{"type":3},"T":{"type":1}},"name":"transformer/contract/Pad_1","op":"Pad"},{"input":["transformer/expand/conv3/dilate_conv/StyleNorm/ExpandDims","transformer/expand/conv3/dilate_conv/StyleNorm/ExpandDims/dim"],"attr":{"T":{"type":1},"Tdim":{"type":3}},"name":"transformer/expand/conv3/dilate_conv/StyleNorm/ExpandDims_1","op":"ExpandDims"},{"input":["transformer/expand/conv2/dilate_conv/StyleNorm/ExpandDims","transformer/expand/conv3/dilate_conv/StyleNorm/ExpandDims/dim"],"attr":{"Tdim":{"type":3},"T":{"type":1}},"name":"transformer/expand/conv2/dilate_conv/StyleNorm/ExpandDims_1","op":"ExpandDims"},{"input":["transformer/expand/conv1/dilate_conv/StyleNorm/ExpandDims","transformer/expand/conv3/dilate_conv/StyleNorm/ExpandDims/dim"],"attr":{"Tdim":{"type":3},"T":{"type":1}},"name":"transformer/expand/conv1/dilate_conv/StyleNorm/ExpandDims_1","op":"ExpandDims"},{"input":["transformer/residual/residual5/dilate_conv2/StyleNorm/ExpandDims","transformer/expand/conv3/dilate_conv/StyleNorm/ExpandDims/dim"],"attr":{"T":{"type":1},"Tdim":{"type":3}},"name":"transformer/residual/residual5/dilate_conv2/StyleNorm/ExpandDims_1","op":"ExpandDims"},{"input":["transformer/residual/residual5/dilate_conv1/StyleNorm/ExpandDims","transformer/expand/conv3/dilate_conv/StyleNorm/ExpandDims/dim"],"attr":{"Tdim":{"type":3},"T":{"type":1}},"name":"transformer/residual/residual5/dilate_conv1/StyleNorm/ExpandDims_1","op":"ExpandDims"},{"input":["transformer/residual/residual4/dilate_conv2/StyleNorm/ExpandDims","transformer/expand/conv3/dilate_conv/StyleNorm/ExpandDims/dim"],"attr":{"Tdim":{"type":3},"T":{"type":1}},"name":"transformer/residual/residual4/dilate_conv2/StyleNorm/ExpandDims_1","op":"ExpandDims"},{"input":["transformer/residual/residual4/dilate_conv1/StyleNorm/ExpandDims","transformer/expand/conv3/dilate_conv/StyleNorm/ExpandDims/dim"],"attr":{"Tdim":{"type":3},"T":{"type":1}},"name":"transformer/residual/residual4/dilate_conv1/StyleNorm/ExpandDims_1","op":"ExpandDims"},{"input":["transformer/residual/residual3/dilate_conv2/StyleNorm/ExpandDims","transformer/expand/conv3/dilate_conv/StyleNorm/ExpandDims/dim"],"attr":{"T":{"type":1},"Tdim":{"type":3}},"name":"transformer/residual/residual3/dilate_conv2/StyleNorm/ExpandDims_1","op":"ExpandDims"},{"input":["transformer/residual/residual3/dilate_conv1/StyleNorm/ExpandDims","transformer/expand/conv3/dilate_conv/StyleNorm/ExpandDims/dim"],"attr":{"Tdim":{"type":3},"T":{"type":1}},"name":"transformer/residual/residual3/dilate_conv1/StyleNorm/ExpandDims_1","op":"ExpandDims"},{"input":["transformer/residual/residual2/dilate_conv2/StyleNorm/ExpandDims","transformer/expand/conv3/dilate_conv/StyleNorm/ExpandDims/dim"],"attr":{"Tdim":{"type":3},"T":{"type":1}},"name":"transformer/residual/residual2/dilate_conv2/StyleNorm/ExpandDims_1","op":"ExpandDims"},{"input":["transformer/residual/residual2/dilate_conv1/StyleNorm/ExpandDims","transformer/expand/conv3/dilate_conv/StyleNorm/ExpandDims/dim"],"attr":{"Tdim":{"type":3},"T":{"type":1}},"name":"transformer/residual/residual2/dilate_conv1/StyleNorm/ExpandDims_1","op":"ExpandDims"},{"input":["transformer/residual/residual1/dilate_conv2/StyleNorm/ExpandDims","transformer/expand/conv3/dilate_conv/StyleNorm/ExpandDims/dim"],"attr":{"Tdim":{"type":3},"T":{"type":1}},"name":"transformer/residual/residual1/dilate_conv2/StyleNorm/ExpandDims_1","op":"ExpandDims"},{"input":["transformer/residual/residual1/dilate_conv1/StyleNorm/ExpandDims","transformer/expand/conv3/dilate_conv/StyleNorm/ExpandDims/dim"],"attr":{"Tdim":{"type":3},"T":{"type":1}},"name":"transformer/residual/residual1/dilate_conv1/StyleNorm/ExpandDims_1","op":"ExpandDims"},{"input":["transformer/residual/residual1/dilate_conv1/StyleNorm/ExpandDims_2","transformer/expand/conv3/dilate_conv/StyleNorm/ExpandDims/dim"],"attr":{"Tdim":{"type":3},"T":{"type":1}},"name":"transformer/residual/residual1/dilate_conv1/StyleNorm/ExpandDims_3","op":"ExpandDims"},{"input":["transformer/residual/residual1/dilate_conv2/StyleNorm/ExpandDims_2","transformer/expand/conv3/dilate_conv/StyleNorm/ExpandDims/dim"],"attr":{"Tdim":{"type":3},"T":{"type":1}},"name":"transformer/residual/residual1/dilate_conv2/StyleNorm/ExpandDims_3","op":"ExpandDims"},{"input":["transformer/residual/residual2/dilate_conv1/StyleNorm/ExpandDims_2","transformer/expand/conv3/dilate_conv/StyleNorm/ExpandDims/dim"],"attr":{"T":{"type":1},"Tdim":{"type":3}},"name":"transformer/residual/residual2/dilate_conv1/StyleNorm/ExpandDims_3","op":"ExpandDims"},{"input":["transformer/residual/residual2/dilate_conv2/StyleNorm/ExpandDims_2","transformer/expand/conv3/dilate_conv/StyleNorm/ExpandDims/dim"],"attr":{"Tdim":{"type":3},"T":{"type":1}},"name":"transformer/residual/residual2/dilate_conv2/StyleNorm/ExpandDims_3","op":"ExpandDims"},{"input":["transformer/residual/residual3/dilate_conv1/StyleNorm/ExpandDims_2","transformer/expand/conv3/dilate_conv/StyleNorm/ExpandDims/dim"],"attr":{"Tdim":{"type":3},"T":{"type":1}},"name":"transformer/residual/residual3/dilate_conv1/StyleNorm/ExpandDims_3","op":"ExpandDims"},{"input":["transformer/residual/residual3/dilate_conv2/StyleNorm/ExpandDims_2","transformer/expand/conv3/dilate_conv/StyleNorm/ExpandDims/dim"],"attr":{"Tdim":{"type":3},"T":{"type":1}},"name":"transformer/residual/residual3/dilate_conv2/StyleNorm/ExpandDims_3","op":"ExpandDims"},{"input":["transformer/residual/residual4/dilate_conv1/StyleNorm/ExpandDims_2","transformer/expand/conv3/dilate_conv/StyleNorm/ExpandDims/dim"],"attr":{"T":{"type":1},"Tdim":{"type":3}},"name":"transformer/residual/residual4/dilate_conv1/StyleNorm/ExpandDims_3","op":"ExpandDims"},{"input":["transformer/residual/residual4/dilate_conv2/StyleNorm/ExpandDims_2","transformer/expand/conv3/dilate_conv/StyleNorm/ExpandDims/dim"],"attr":{"Tdim":{"type":3},"T":{"type":1}},"name":"transformer/residual/residual4/dilate_conv2/StyleNorm/ExpandDims_3","op":"ExpandDims"},{"input":["transformer/residual/residual5/dilate_conv1/StyleNorm/ExpandDims_2","transformer/expand/conv3/dilate_conv/StyleNorm/ExpandDims/dim"],"attr":{"T":{"type":1},"Tdim":{"type":3}},"name":"transformer/residual/residual5/dilate_conv1/StyleNorm/ExpandDims_3","op":"ExpandDims"},{"input":["transformer/residual/residual5/dilate_conv2/StyleNorm/ExpandDims_2","transformer/expand/conv3/dilate_conv/StyleNorm/ExpandDims/dim"],"attr":{"T":{"type":1},"Tdim":{"type":3}},"name":"transformer/residual/residual5/dilate_conv2/StyleNorm/ExpandDims_3","op":"ExpandDims"},{"input":["transformer/expand/conv1/dilate_conv/StyleNorm/ExpandDims_2","transformer/expand/conv3/dilate_conv/StyleNorm/ExpandDims/dim"],"attr":{"T":{"type":1},"Tdim":{"type":3}},"name":"transformer/expand/conv1/dilate_conv/StyleNorm/ExpandDims_3","op":"ExpandDims"},{"input":["transformer/expand/conv2/dilate_conv/StyleNorm/ExpandDims_2","transformer/expand/conv3/dilate_conv/StyleNorm/ExpandDims/dim"],"attr":{"Tdim":{"type":3},"T":{"type":1}},"name":"transformer/expand/conv2/dilate_conv/StyleNorm/ExpandDims_3","op":"ExpandDims"},{"input":["transformer/expand/conv3/dilate_conv/StyleNorm/ExpandDims_2","transformer/expand/conv3/dilate_conv/StyleNorm/ExpandDims/dim"],"attr":{"Tdim":{"type":3},"T":{"type":1}},"name":"transformer/expand/conv3/dilate_conv/StyleNorm/ExpandDims_3","op":"ExpandDims"},{"input":["transformer/contract/Pad_1","transformer/contract/conv2/weights"],"attr":{"dilations":{"list":{"s":[],"i":["1","1","1","1"],"f":[],"b":[],"type":[],"shape":[],"tensor":[],"func":[]}},"T":{"type":1},"data_format":{"s":[78,72,87,67]},"strides":{"list":{"s":[],"i":["1","2","2","1"],"f":[],"b":[],"type":[],"shape":[],"tensor":[],"func":[]}},"use_cudnn_on_gpu":{"b":true},"padding":{"s":[86,65,76,73,68]}},"name":"transformer/contract/conv2/Conv2D","op":"Conv2D"},{"input":["transformer/contract/conv2/Conv2D","transformer/contract/conv2/BatchNorm/Const","transformer/contract/conv2/BatchNorm/beta","transformer/contract/conv2/BatchNorm/moving_mean","transformer/contract/conv2/BatchNorm/moving_variance"],"attr":{"data_format":{"s":[78,72,87,67]},"is_training":{"b":false},"epsilon":{"f":0.0010000000474974513},"T":{"type":1}},"name":"transformer/contract/conv2/BatchNorm/FusedBatchNorm","op":"FusedBatchNorm"},{"input":["transformer/contract/conv2/BatchNorm/FusedBatchNorm"],"attr":{"T":{"type":1}},"name":"transformer/contract/conv2/Relu","op":"Relu"},{"input":["transformer/contract/conv2/Relu","transformer/contract/Pad_1/paddings"],"attr":{"Tpaddings":{"type":3},"T":{"type":1}},"name":"transformer/contract/Pad_2","op":"Pad"},{"input":["transformer/contract/Pad_2","transformer/contract/conv3/weights"],"attr":{"dilations":{"list":{"s":[],"i":["1","1","1","1"],"f":[],"b":[],"type":[],"shape":[],"tensor":[],"func":[]}},"T":{"type":1},"data_format":{"s":[78,72,87,67]},"strides":{"list":{"s":[],"i":["1","2","2","1"],"f":[],"b":[],"type":[],"shape":[],"tensor":[],"func":[]}},"use_cudnn_on_gpu":{"b":true},"padding":{"s":[86,65,76,73,68]}},"name":"transformer/contract/conv3/Conv2D","op":"Conv2D"},{"input":["transformer/contract/conv3/Conv2D","transformer/contract/conv3/BatchNorm/Const","transformer/contract/conv3/BatchNorm/beta","transformer/contract/conv3/BatchNorm/moving_mean","transformer/contract/conv3/BatchNorm/moving_variance"],"attr":{"is_training":{"b":false},"epsilon":{"f":0.0010000000474974513},"T":{"type":1},"data_format":{"s":[78,72,87,67]}},"name":"transformer/contract/conv3/BatchNorm/FusedBatchNorm","op":"FusedBatchNorm"},{"input":["transformer/contract/conv3/BatchNorm/FusedBatchNorm"],"attr":{"T":{"type":1}},"name":"transformer/contract/conv3/Relu","op":"Relu"},{"input":["transformer/contract/conv3/Relu","transformer/contract/Pad_1/paddings"],"attr":{"T":{"type":1},"Tpaddings":{"type":3}},"name":"transformer/residual/residual1/Pad","op":"Pad"},{"input":["transformer/residual/residual1/Pad","transformer/residual/residual1/dilate_conv1/depthwise_weights"],"attr":{"padding":{"s":[86,65,76,73,68]},"dilations":{"list":{"s":[],"i":["1","1","1","1"],"f":[],"b":[],"type":[],"shape":[],"tensor":[],"func":[]}},"T":{"type":1},"strides":{"list":{"s":[],"i":["1","1","1","1"],"f":[],"b":[],"type":[],"shape":[],"tensor":[],"func":[]}},"data_format":{"s":[78,72,87,67]}},"name":"transformer/residual/residual1/dilate_conv1/separable_conv2d/depthwise","op":"DepthwiseConv2dNative"},{"input":["transformer/residual/residual1/dilate_conv1/separable_conv2d/depthwise","transformer/residual/residual1/dilate_conv1/pointwise_weights"],"attr":{"dilations":{"list":{"s":[],"i":["1","1","1","1"],"f":[],"b":[],"type":[],"shape":[],"tensor":[],"func":[]}},"T":{"type":1},"strides":{"list":{"s":[],"i":["1","1","1","1"],"f":[],"b":[],"type":[],"shape":[],"tensor":[],"func":[]}},"data_format":{"s":[78,72,87,67]},"use_cudnn_on_gpu":{"b":true},"padding":{"s":[86,65,76,73,68]}},"name":"transformer/residual/residual1/dilate_conv1/separable_conv2d","op":"Conv2D"},{"input":["transformer/residual/residual1/dilate_conv1/separable_conv2d","transformer/residual/residual1/dilate_conv1/StyleNorm/moments/mean/reduction_indices"],"attr":{"Tidx":{"type":3},"keep_dims":{"b":true},"T":{"type":1}},"name":"transformer/residual/residual1/dilate_conv1/StyleNorm/moments/mean","op":"Mean"},{"input":["transformer/residual/residual1/dilate_conv1/separable_conv2d","transformer/residual/residual1/dilate_conv1/StyleNorm/moments/mean"],"attr":{"T":{"type":1}},"name":"transformer/residual/residual1/dilate_conv1/StyleNorm/moments/SquaredDifference","op":"SquaredDifference"},{"input":["transformer/residual/residual1/dilate_conv1/StyleNorm/moments/SquaredDifference","transformer/residual/residual1/dilate_conv1/StyleNorm/moments/mean/reduction_indices"],"attr":{"T":{"type":1},"Tidx":{"type":3},"keep_dims":{"b":true}},"name":"transformer/residual/residual1/dilate_conv1/StyleNorm/moments/variance","op":"Mean"},{"input":["transformer/residual/residual1/dilate_conv1/StyleNorm/moments/variance","transformer/residual/residual1/dilate_conv1/StyleNorm/batchnorm/add/y"],"attr":{"T":{"type":1}},"name":"transformer/residual/residual1/dilate_conv1/StyleNorm/batchnorm/add","op":"Add"},{"input":["transformer/residual/residual1/dilate_conv1/StyleNorm/batchnorm/add"],"attr":{"T":{"type":1}},"name":"transformer/residual/residual1/dilate_conv1/StyleNorm/batchnorm/Rsqrt","op":"Rsqrt"},{"input":["transformer/residual/residual1/dilate_conv1/StyleNorm/batchnorm/Rsqrt","transformer/residual/residual1/dilate_conv1/StyleNorm/ExpandDims_3"],"attr":{"T":{"type":1}},"name":"transformer/residual/residual1/dilate_conv1/StyleNorm/batchnorm/mul","op":"Mul"},{"input":["transformer/residual/residual1/dilate_conv1/separable_conv2d","transformer/residual/residual1/dilate_conv1/StyleNorm/batchnorm/mul"],"attr":{"T":{"type":1}},"name":"transformer/residual/residual1/dilate_conv1/StyleNorm/batchnorm/mul_1","op":"Mul"},{"input":["transformer/residual/residual1/dilate_conv1/StyleNorm/moments/mean","transformer/residual/residual1/dilate_conv1/StyleNorm/batchnorm/mul"],"attr":{"T":{"type":1}},"name":"transformer/residual/residual1/dilate_conv1/StyleNorm/batchnorm/mul_2","op":"Mul"},{"input":["transformer/residual/residual1/dilate_conv1/StyleNorm/ExpandDims_1","transformer/residual/residual1/dilate_conv1/StyleNorm/batchnorm/mul_2"],"attr":{"T":{"type":1}},"name":"transformer/residual/residual1/dilate_conv1/StyleNorm/batchnorm/sub","op":"Sub"},{"input":["transformer/residual/residual1/dilate_conv1/StyleNorm/batchnorm/mul_1","transformer/residual/residual1/dilate_conv1/StyleNorm/batchnorm/sub"],"attr":{"T":{"type":1}},"name":"transformer/residual/residual1/dilate_conv1/StyleNorm/batchnorm/add_1","op":"Add"},{"input":["transformer/residual/residual1/dilate_conv1/StyleNorm/batchnorm/add_1"],"attr":{"T":{"type":1}},"name":"transformer/residual/residual1/dilate_conv1/Relu","op":"Relu"},{"input":["transformer/residual/residual1/dilate_conv1/Relu","transformer/contract/Pad_1/paddings"],"attr":{"T":{"type":1},"Tpaddings":{"type":3}},"name":"transformer/residual/residual1/Pad_1","op":"Pad"},{"input":["transformer/residual/residual1/Pad_1","transformer/residual/residual1/dilate_conv2/depthwise_weights"],"attr":{"dilations":{"list":{"s":[],"i":["1","1","1","1"],"f":[],"b":[],"type":[],"shape":[],"tensor":[],"func":[]}},"padding":{"s":[86,65,76,73,68]},"T":{"type":1},"data_format":{"s":[78,72,87,67]},"strides":{"list":{"s":[],"i":["1","1","1","1"],"f":[],"b":[],"type":[],"shape":[],"tensor":[],"func":[]}}},"name":"transformer/residual/residual1/dilate_conv2/separable_conv2d/depthwise","op":"DepthwiseConv2dNative"},{"input":["transformer/residual/residual1/dilate_conv2/separable_conv2d/depthwise","transformer/residual/residual1/dilate_conv2/pointwise_weights"],"attr":{"data_format":{"s":[78,72,87,67]},"strides":{"list":{"s":[],"i":["1","1","1","1"],"f":[],"b":[],"type":[],"shape":[],"tensor":[],"func":[]}},"use_cudnn_on_gpu":{"b":true},"padding":{"s":[86,65,76,73,68]},"dilations":{"list":{"s":[],"i":["1","1","1","1"],"f":[],"b":[],"type":[],"shape":[],"tensor":[],"func":[]}},"T":{"type":1}},"name":"transformer/residual/residual1/dilate_conv2/separable_conv2d","op":"Conv2D"},{"input":["transformer/residual/residual1/dilate_conv2/separable_conv2d","transformer/residual/residual1/dilate_conv1/StyleNorm/moments/mean/reduction_indices"],"attr":{"Tidx":{"type":3},"keep_dims":{"b":true},"T":{"type":1}},"name":"transformer/residual/residual1/dilate_conv2/StyleNorm/moments/mean","op":"Mean"},{"input":["transformer/residual/residual1/dilate_conv2/separable_conv2d","transformer/residual/residual1/dilate_conv2/StyleNorm/moments/mean"],"attr":{"T":{"type":1}},"name":"transformer/residual/residual1/dilate_conv2/StyleNorm/moments/SquaredDifference","op":"SquaredDifference"},{"input":["transformer/residual/residual1/dilate_conv2/StyleNorm/moments/SquaredDifference","transformer/residual/residual1/dilate_conv1/StyleNorm/moments/mean/reduction_indices"],"attr":{"Tidx":{"type":3},"keep_dims":{"b":true},"T":{"type":1}},"name":"transformer/residual/residual1/dilate_conv2/StyleNorm/moments/variance","op":"Mean"},{"input":["transformer/residual/residual1/dilate_conv2/StyleNorm/moments/variance","transformer/residual/residual1/dilate_conv1/StyleNorm/batchnorm/add/y"],"attr":{"T":{"type":1}},"name":"transformer/residual/residual1/dilate_conv2/StyleNorm/batchnorm/add","op":"Add"},{"input":["transformer/residual/residual1/dilate_conv2/StyleNorm/batchnorm/add"],"attr":{"T":{"type":1}},"name":"transformer/residual/residual1/dilate_conv2/StyleNorm/batchnorm/Rsqrt","op":"Rsqrt"},{"input":["transformer/residual/residual1/dilate_conv2/StyleNorm/batchnorm/Rsqrt","transformer/residual/residual1/dilate_conv2/StyleNorm/ExpandDims_3"],"attr":{"T":{"type":1}},"name":"transformer/residual/residual1/dilate_conv2/StyleNorm/batchnorm/mul","op":"Mul"},{"input":["transformer/residual/residual1/dilate_conv2/separable_conv2d","transformer/residual/residual1/dilate_conv2/StyleNorm/batchnorm/mul"],"attr":{"T":{"type":1}},"name":"transformer/residual/residual1/dilate_conv2/StyleNorm/batchnorm/mul_1","op":"Mul"},{"input":["transformer/residual/residual1/dilate_conv2/StyleNorm/moments/mean","transformer/residual/residual1/dilate_conv2/StyleNorm/batchnorm/mul"],"attr":{"T":{"type":1}},"name":"transformer/residual/residual1/dilate_conv2/StyleNorm/batchnorm/mul_2","op":"Mul"},{"input":["transformer/residual/residual1/dilate_conv2/StyleNorm/ExpandDims_1","transformer/residual/residual1/dilate_conv2/StyleNorm/batchnorm/mul_2"],"attr":{"T":{"type":1}},"name":"transformer/residual/residual1/dilate_conv2/StyleNorm/batchnorm/sub","op":"Sub"},{"input":["transformer/residual/residual1/dilate_conv2/StyleNorm/batchnorm/mul_1","transformer/residual/residual1/dilate_conv2/StyleNorm/batchnorm/sub"],"attr":{"T":{"type":1}},"name":"transformer/residual/residual1/dilate_conv2/StyleNorm/batchnorm/add_1","op":"Add"},{"input":["transformer/contract/conv3/Relu","transformer/residual/residual1/dilate_conv2/StyleNorm/batchnorm/add_1"],"attr":{"T":{"type":1}},"name":"transformer/residual/residual1/add","op":"Add"},{"input":["transformer/residual/residual1/add","transformer/contract/Pad_1/paddings"],"attr":{"T":{"type":1},"Tpaddings":{"type":3}},"name":"transformer/residual/residual2/Pad","op":"Pad"},{"input":["transformer/residual/residual2/Pad","transformer/residual/residual2/dilate_conv1/depthwise_weights"],"attr":{"padding":{"s":[86,65,76,73,68]},"dilations":{"list":{"s":[],"i":["1","1","1","1"],"f":[],"b":[],"type":[],"shape":[],"tensor":[],"func":[]}},"T":{"type":1},"data_format":{"s":[78,72,87,67]},"strides":{"list":{"s":[],"i":["1","1","1","1"],"f":[],"b":[],"type":[],"shape":[],"tensor":[],"func":[]}}},"name":"transformer/residual/residual2/dilate_conv1/separable_conv2d/depthwise","op":"DepthwiseConv2dNative"},{"input":["transformer/residual/residual2/dilate_conv1/separable_conv2d/depthwise","transformer/residual/residual2/dilate_conv1/pointwise_weights"],"attr":{"dilations":{"list":{"s":[],"i":["1","1","1","1"],"f":[],"b":[],"type":[],"shape":[],"tensor":[],"func":[]}},"T":{"type":1},"strides":{"list":{"s":[],"i":["1","1","1","1"],"f":[],"b":[],"type":[],"shape":[],"tensor":[],"func":[]}},"data_format":{"s":[78,72,87,67]},"use_cudnn_on_gpu":{"b":true},"padding":{"s":[86,65,76,73,68]}},"name":"transformer/residual/residual2/dilate_conv1/separable_conv2d","op":"Conv2D"},{"input":["transformer/residual/residual2/dilate_conv1/separable_conv2d","transformer/residual/residual1/dilate_conv1/StyleNorm/moments/mean/reduction_indices"],"attr":{"Tidx":{"type":3},"keep_dims":{"b":true},"T":{"type":1}},"name":"transformer/residual/residual2/dilate_conv1/StyleNorm/moments/mean","op":"Mean"},{"input":["transformer/residual/residual2/dilate_conv1/separable_conv2d","transformer/residual/residual2/dilate_conv1/StyleNorm/moments/mean"],"attr":{"T":{"type":1}},"name":"transformer/residual/residual2/dilate_conv1/StyleNorm/moments/SquaredDifference","op":"SquaredDifference"},{"input":["transformer/residual/residual2/dilate_conv1/StyleNorm/moments/SquaredDifference","transformer/residual/residual1/dilate_conv1/StyleNorm/moments/mean/reduction_indices"],"attr":{"T":{"type":1},"Tidx":{"type":3},"keep_dims":{"b":true}},"name":"transformer/residual/residual2/dilate_conv1/StyleNorm/moments/variance","op":"Mean"},{"input":["transformer/residual/residual2/dilate_conv1/StyleNorm/moments/variance","transformer/residual/residual1/dilate_conv1/StyleNorm/batchnorm/add/y"],"attr":{"T":{"type":1}},"name":"transformer/residual/residual2/dilate_conv1/StyleNorm/batchnorm/add","op":"Add"},{"input":["transformer/residual/residual2/dilate_conv1/StyleNorm/batchnorm/add"],"attr":{"T":{"type":1}},"name":"transformer/residual/residual2/dilate_conv1/StyleNorm/batchnorm/Rsqrt","op":"Rsqrt"},{"input":["transformer/residual/residual2/dilate_conv1/StyleNorm/batchnorm/Rsqrt","transformer/residual/residual2/dilate_conv1/StyleNorm/ExpandDims_3"],"attr":{"T":{"type":1}},"name":"transformer/residual/residual2/dilate_conv1/StyleNorm/batchnorm/mul","op":"Mul"},{"input":["transformer/residual/residual2/dilate_conv1/separable_conv2d","transformer/residual/residual2/dilate_conv1/StyleNorm/batchnorm/mul"],"attr":{"T":{"type":1}},"name":"transformer/residual/residual2/dilate_conv1/StyleNorm/batchnorm/mul_1","op":"Mul"},{"input":["transformer/residual/residual2/dilate_conv1/StyleNorm/moments/mean","transformer/residual/residual2/dilate_conv1/StyleNorm/batchnorm/mul"],"attr":{"T":{"type":1}},"name":"transformer/residual/residual2/dilate_conv1/StyleNorm/batchnorm/mul_2","op":"Mul"},{"input":["transformer/residual/residual2/dilate_conv1/StyleNorm/ExpandDims_1","transformer/residual/residual2/dilate_conv1/StyleNorm/batchnorm/mul_2"],"attr":{"T":{"type":1}},"name":"transformer/residual/residual2/dilate_conv1/StyleNorm/batchnorm/sub","op":"Sub"},{"input":["transformer/residual/residual2/dilate_conv1/StyleNorm/batchnorm/mul_1","transformer/residual/residual2/dilate_conv1/StyleNorm/batchnorm/sub"],"attr":{"T":{"type":1}},"name":"transformer/residual/residual2/dilate_conv1/StyleNorm/batchnorm/add_1","op":"Add"},{"input":["transformer/residual/residual2/dilate_conv1/StyleNorm/batchnorm/add_1"],"attr":{"T":{"type":1}},"name":"transformer/residual/residual2/dilate_conv1/Relu","op":"Relu"},{"input":["transformer/residual/residual2/dilate_conv1/Relu","transformer/contract/Pad_1/paddings"],"attr":{"T":{"type":1},"Tpaddings":{"type":3}},"name":"transformer/residual/residual2/Pad_1","op":"Pad"},{"input":["transformer/residual/residual2/Pad_1","transformer/residual/residual2/dilate_conv2/depthwise_weights"],"attr":{"dilations":{"list":{"s":[],"i":["1","1","1","1"],"f":[],"b":[],"type":[],"shape":[],"tensor":[],"func":[]}},"padding":{"s":[86,65,76,73,68]},"T":{"type":1},"strides":{"list":{"s":[],"i":["1","1","1","1"],"f":[],"b":[],"type":[],"shape":[],"tensor":[],"func":[]}},"data_format":{"s":[78,72,87,67]}},"name":"transformer/residual/residual2/dilate_conv2/separable_conv2d/depthwise","op":"DepthwiseConv2dNative"},{"input":["transformer/residual/residual2/dilate_conv2/separable_conv2d/depthwise","transformer/residual/residual2/dilate_conv2/pointwise_weights"],"attr":{"data_format":{"s":[78,72,87,67]},"strides":{"list":{"s":[],"i":["1","1","1","1"],"f":[],"b":[],"type":[],"shape":[],"tensor":[],"func":[]}},"use_cudnn_on_gpu":{"b":true},"padding":{"s":[86,65,76,73,68]},"dilations":{"list":{"s":[],"i":["1","1","1","1"],"f":[],"b":[],"type":[],"shape":[],"tensor":[],"func":[]}},"T":{"type":1}},"name":"transformer/residual/residual2/dilate_conv2/separable_conv2d","op":"Conv2D"},{"input":["transformer/residual/residual2/dilate_conv2/separable_conv2d","transformer/residual/residual1/dilate_conv1/StyleNorm/moments/mean/reduction_indices"],"attr":{"Tidx":{"type":3},"keep_dims":{"b":true},"T":{"type":1}},"name":"transformer/residual/residual2/dilate_conv2/StyleNorm/moments/mean","op":"Mean"},{"input":["transformer/residual/residual2/dilate_conv2/separable_conv2d","transformer/residual/residual2/dilate_conv2/StyleNorm/moments/mean"],"attr":{"T":{"type":1}},"name":"transformer/residual/residual2/dilate_conv2/StyleNorm/moments/SquaredDifference","op":"SquaredDifference"},{"input":["transformer/residual/residual2/dilate_conv2/StyleNorm/moments/SquaredDifference","transformer/residual/residual1/dilate_conv1/StyleNorm/moments/mean/reduction_indices"],"attr":{"Tidx":{"type":3},"keep_dims":{"b":true},"T":{"type":1}},"name":"transformer/residual/residual2/dilate_conv2/StyleNorm/moments/variance","op":"Mean"},{"input":["transformer/residual/residual2/dilate_conv2/StyleNorm/moments/variance","transformer/residual/residual1/dilate_conv1/StyleNorm/batchnorm/add/y"],"attr":{"T":{"type":1}},"name":"transformer/residual/residual2/dilate_conv2/StyleNorm/batchnorm/add","op":"Add"},{"input":["transformer/residual/residual2/dilate_conv2/StyleNorm/batchnorm/add"],"attr":{"T":{"type":1}},"name":"transformer/residual/residual2/dilate_conv2/StyleNorm/batchnorm/Rsqrt","op":"Rsqrt"},{"input":["transformer/residual/residual2/dilate_conv2/StyleNorm/batchnorm/Rsqrt","transformer/residual/residual2/dilate_conv2/StyleNorm/ExpandDims_3"],"attr":{"T":{"type":1}},"name":"transformer/residual/residual2/dilate_conv2/StyleNorm/batchnorm/mul","op":"Mul"},{"input":["transformer/residual/residual2/dilate_conv2/separable_conv2d","transformer/residual/residual2/dilate_conv2/StyleNorm/batchnorm/mul"],"attr":{"T":{"type":1}},"name":"transformer/residual/residual2/dilate_conv2/StyleNorm/batchnorm/mul_1","op":"Mul"},{"input":["transformer/residual/residual2/dilate_conv2/StyleNorm/moments/mean","transformer/residual/residual2/dilate_conv2/StyleNorm/batchnorm/mul"],"attr":{"T":{"type":1}},"name":"transformer/residual/residual2/dilate_conv2/StyleNorm/batchnorm/mul_2","op":"Mul"},{"input":["transformer/residual/residual2/dilate_conv2/StyleNorm/ExpandDims_1","transformer/residual/residual2/dilate_conv2/StyleNorm/batchnorm/mul_2"],"attr":{"T":{"type":1}},"name":"transformer/residual/residual2/dilate_conv2/StyleNorm/batchnorm/sub","op":"Sub"},{"input":["transformer/residual/residual2/dilate_conv2/StyleNorm/batchnorm/mul_1","transformer/residual/residual2/dilate_conv2/StyleNorm/batchnorm/sub"],"attr":{"T":{"type":1}},"name":"transformer/residual/residual2/dilate_conv2/StyleNorm/batchnorm/add_1","op":"Add"},{"input":["transformer/residual/residual1/add","transformer/residual/residual2/dilate_conv2/StyleNorm/batchnorm/add_1"],"attr":{"T":{"type":1}},"name":"transformer/residual/residual2/add","op":"Add"},{"input":["transformer/residual/residual2/add","transformer/contract/Pad_1/paddings"],"attr":{"Tpaddings":{"type":3},"T":{"type":1}},"name":"transformer/residual/residual3/Pad","op":"Pad"},{"input":["transformer/residual/residual3/Pad","transformer/residual/residual3/dilate_conv1/depthwise_weights"],"attr":{"dilations":{"list":{"s":[],"i":["1","1","1","1"],"f":[],"b":[],"type":[],"shape":[],"tensor":[],"func":[]}},"padding":{"s":[86,65,76,73,68]},"T":{"type":1},"strides":{"list":{"s":[],"i":["1","1","1","1"],"f":[],"b":[],"type":[],"shape":[],"tensor":[],"func":[]}},"data_format":{"s":[78,72,87,67]}},"name":"transformer/residual/residual3/dilate_conv1/separable_conv2d/depthwise","op":"DepthwiseConv2dNative"},{"input":["transformer/residual/residual3/dilate_conv1/separable_conv2d/depthwise","transformer/residual/residual3/dilate_conv1/pointwise_weights"],"attr":{"dilations":{"list":{"s":[],"i":["1","1","1","1"],"f":[],"b":[],"type":[],"shape":[],"tensor":[],"func":[]}},"T":{"type":1},"data_format":{"s":[78,72,87,67]},"strides":{"list":{"s":[],"i":["1","1","1","1"],"f":[],"b":[],"type":[],"shape":[],"tensor":[],"func":[]}},"use_cudnn_on_gpu":{"b":true},"padding":{"s":[86,65,76,73,68]}},"name":"transformer/residual/residual3/dilate_conv1/separable_conv2d","op":"Conv2D"},{"input":["transformer/residual/residual3/dilate_conv1/separable_conv2d","transformer/residual/residual1/dilate_conv1/StyleNorm/moments/mean/reduction_indices"],"attr":{"T":{"type":1},"Tidx":{"type":3},"keep_dims":{"b":true}},"name":"transformer/residual/residual3/dilate_conv1/StyleNorm/moments/mean","op":"Mean"},{"input":["transformer/residual/residual3/dilate_conv1/separable_conv2d","transformer/residual/residual3/dilate_conv1/StyleNorm/moments/mean"],"attr":{"T":{"type":1}},"name":"transformer/residual/residual3/dilate_conv1/StyleNorm/moments/SquaredDifference","op":"SquaredDifference"},{"input":["transformer/residual/residual3/dilate_conv1/StyleNorm/moments/SquaredDifference","transformer/residual/residual1/dilate_conv1/StyleNorm/moments/mean/reduction_indices"],"attr":{"Tidx":{"type":3},"keep_dims":{"b":true},"T":{"type":1}},"name":"transformer/residual/residual3/dilate_conv1/StyleNorm/moments/variance","op":"Mean"},{"input":["transformer/residual/residual3/dilate_conv1/StyleNorm/moments/variance","transformer/residual/residual1/dilate_conv1/StyleNorm/batchnorm/add/y"],"attr":{"T":{"type":1}},"name":"transformer/residual/residual3/dilate_conv1/StyleNorm/batchnorm/add","op":"Add"},{"input":["transformer/residual/residual3/dilate_conv1/StyleNorm/batchnorm/add"],"attr":{"T":{"type":1}},"name":"transformer/residual/residual3/dilate_conv1/StyleNorm/batchnorm/Rsqrt","op":"Rsqrt"},{"input":["transformer/residual/residual3/dilate_conv1/StyleNorm/batchnorm/Rsqrt","transformer/residual/residual3/dilate_conv1/StyleNorm/ExpandDims_3"],"attr":{"T":{"type":1}},"name":"transformer/residual/residual3/dilate_conv1/StyleNorm/batchnorm/mul","op":"Mul"},{"input":["transformer/residual/residual3/dilate_conv1/separable_conv2d","transformer/residual/residual3/dilate_conv1/StyleNorm/batchnorm/mul"],"attr":{"T":{"type":1}},"name":"transformer/residual/residual3/dilate_conv1/StyleNorm/batchnorm/mul_1","op":"Mul"},{"input":["transformer/residual/residual3/dilate_conv1/StyleNorm/moments/mean","transformer/residual/residual3/dilate_conv1/StyleNorm/batchnorm/mul"],"attr":{"T":{"type":1}},"name":"transformer/residual/residual3/dilate_conv1/StyleNorm/batchnorm/mul_2","op":"Mul"},{"input":["transformer/residual/residual3/dilate_conv1/StyleNorm/ExpandDims_1","transformer/residual/residual3/dilate_conv1/StyleNorm/batchnorm/mul_2"],"attr":{"T":{"type":1}},"name":"transformer/residual/residual3/dilate_conv1/StyleNorm/batchnorm/sub","op":"Sub"},{"input":["transformer/residual/residual3/dilate_conv1/StyleNorm/batchnorm/mul_1","transformer/residual/residual3/dilate_conv1/StyleNorm/batchnorm/sub"],"attr":{"T":{"type":1}},"name":"transformer/residual/residual3/dilate_conv1/StyleNorm/batchnorm/add_1","op":"Add"},{"input":["transformer/residual/residual3/dilate_conv1/StyleNorm/batchnorm/add_1"],"attr":{"T":{"type":1}},"name":"transformer/residual/residual3/dilate_conv1/Relu","op":"Relu"},{"input":["transformer/residual/residual3/dilate_conv1/Relu","transformer/contract/Pad_1/paddings"],"attr":{"T":{"type":1},"Tpaddings":{"type":3}},"name":"transformer/residual/residual3/Pad_1","op":"Pad"},{"input":["transformer/residual/residual3/Pad_1","transformer/residual/residual3/dilate_conv2/depthwise_weights"],"attr":{"padding":{"s":[86,65,76,73,68]},"dilations":{"list":{"s":[],"i":["1","1","1","1"],"f":[],"b":[],"type":[],"shape":[],"tensor":[],"func":[]}},"T":{"type":1},"strides":{"list":{"s":[],"i":["1","1","1","1"],"f":[],"b":[],"type":[],"shape":[],"tensor":[],"func":[]}},"data_format":{"s":[78,72,87,67]}},"name":"transformer/residual/residual3/dilate_conv2/separable_conv2d/depthwise","op":"DepthwiseConv2dNative"},{"input":["transformer/residual/residual3/dilate_conv2/separable_conv2d/depthwise","transformer/residual/residual3/dilate_conv2/pointwise_weights"],"attr":{"data_format":{"s":[78,72,87,67]},"strides":{"list":{"s":[],"i":["1","1","1","1"],"f":[],"b":[],"type":[],"shape":[],"tensor":[],"func":[]}},"use_cudnn_on_gpu":{"b":true},"padding":{"s":[86,65,76,73,68]},"dilations":{"list":{"s":[],"i":["1","1","1","1"],"f":[],"b":[],"type":[],"shape":[],"tensor":[],"func":[]}},"T":{"type":1}},"name":"transformer/residual/residual3/dilate_conv2/separable_conv2d","op":"Conv2D"},{"input":["transformer/residual/residual3/dilate_conv2/separable_conv2d","transformer/residual/residual1/dilate_conv1/StyleNorm/moments/mean/reduction_indices"],"attr":{"Tidx":{"type":3},"keep_dims":{"b":true},"T":{"type":1}},"name":"transformer/residual/residual3/dilate_conv2/StyleNorm/moments/mean","op":"Mean"},{"input":["transformer/residual/residual3/dilate_conv2/separable_conv2d","transformer/residual/residual3/dilate_conv2/StyleNorm/moments/mean"],"attr":{"T":{"type":1}},"name":"transformer/residual/residual3/dilate_conv2/StyleNorm/moments/SquaredDifference","op":"SquaredDifference"},{"input":["transformer/residual/residual3/dilate_conv2/StyleNorm/moments/SquaredDifference","transformer/residual/residual1/dilate_conv1/StyleNorm/moments/mean/reduction_indices"],"attr":{"Tidx":{"type":3},"keep_dims":{"b":true},"T":{"type":1}},"name":"transformer/residual/residual3/dilate_conv2/StyleNorm/moments/variance","op":"Mean"},{"input":["transformer/residual/residual3/dilate_conv2/StyleNorm/moments/variance","transformer/residual/residual1/dilate_conv1/StyleNorm/batchnorm/add/y"],"attr":{"T":{"type":1}},"name":"transformer/residual/residual3/dilate_conv2/StyleNorm/batchnorm/add","op":"Add"},{"input":["transformer/residual/residual3/dilate_conv2/StyleNorm/batchnorm/add"],"attr":{"T":{"type":1}},"name":"transformer/residual/residual3/dilate_conv2/StyleNorm/batchnorm/Rsqrt","op":"Rsqrt"},{"input":["transformer/residual/residual3/dilate_conv2/StyleNorm/batchnorm/Rsqrt","transformer/residual/residual3/dilate_conv2/StyleNorm/ExpandDims_3"],"attr":{"T":{"type":1}},"name":"transformer/residual/residual3/dilate_conv2/StyleNorm/batchnorm/mul","op":"Mul"},{"input":["transformer/residual/residual3/dilate_conv2/separable_conv2d","transformer/residual/residual3/dilate_conv2/StyleNorm/batchnorm/mul"],"attr":{"T":{"type":1}},"name":"transformer/residual/residual3/dilate_conv2/StyleNorm/batchnorm/mul_1","op":"Mul"},{"input":["transformer/residual/residual3/dilate_conv2/StyleNorm/moments/mean","transformer/residual/residual3/dilate_conv2/StyleNorm/batchnorm/mul"],"attr":{"T":{"type":1}},"name":"transformer/residual/residual3/dilate_conv2/StyleNorm/batchnorm/mul_2","op":"Mul"},{"input":["transformer/residual/residual3/dilate_conv2/StyleNorm/ExpandDims_1","transformer/residual/residual3/dilate_conv2/StyleNorm/batchnorm/mul_2"],"attr":{"T":{"type":1}},"name":"transformer/residual/residual3/dilate_conv2/StyleNorm/batchnorm/sub","op":"Sub"},{"input":["transformer/residual/residual3/dilate_conv2/StyleNorm/batchnorm/mul_1","transformer/residual/residual3/dilate_conv2/StyleNorm/batchnorm/sub"],"attr":{"T":{"type":1}},"name":"transformer/residual/residual3/dilate_conv2/StyleNorm/batchnorm/add_1","op":"Add"},{"input":["transformer/residual/residual2/add","transformer/residual/residual3/dilate_conv2/StyleNorm/batchnorm/add_1"],"attr":{"T":{"type":1}},"name":"transformer/residual/residual3/add","op":"Add"},{"input":["transformer/residual/residual3/add","transformer/contract/Pad_1/paddings"],"attr":{"T":{"type":1},"Tpaddings":{"type":3}},"name":"transformer/residual/residual4/Pad","op":"Pad"},{"input":["transformer/residual/residual4/Pad","transformer/residual/residual4/dilate_conv1/depthwise_weights"],"attr":{"padding":{"s":[86,65,76,73,68]},"dilations":{"list":{"s":[],"i":["1","1","1","1"],"f":[],"b":[],"type":[],"shape":[],"tensor":[],"func":[]}},"T":{"type":1},"strides":{"list":{"s":[],"i":["1","1","1","1"],"f":[],"b":[],"type":[],"shape":[],"tensor":[],"func":[]}},"data_format":{"s":[78,72,87,67]}},"name":"transformer/residual/residual4/dilate_conv1/separable_conv2d/depthwise","op":"DepthwiseConv2dNative"},{"input":["transformer/residual/residual4/dilate_conv1/separable_conv2d/depthwise","transformer/residual/residual4/dilate_conv1/pointwise_weights"],"attr":{"dilations":{"list":{"s":[],"i":["1","1","1","1"],"f":[],"b":[],"type":[],"shape":[],"tensor":[],"func":[]}},"T":{"type":1},"data_format":{"s":[78,72,87,67]},"strides":{"list":{"s":[],"i":["1","1","1","1"],"f":[],"b":[],"type":[],"shape":[],"tensor":[],"func":[]}},"use_cudnn_on_gpu":{"b":true},"padding":{"s":[86,65,76,73,68]}},"name":"transformer/residual/residual4/dilate_conv1/separable_conv2d","op":"Conv2D"},{"input":["transformer/residual/residual4/dilate_conv1/separable_conv2d","transformer/residual/residual1/dilate_conv1/StyleNorm/moments/mean/reduction_indices"],"attr":{"Tidx":{"type":3},"keep_dims":{"b":true},"T":{"type":1}},"name":"transformer/residual/residual4/dilate_conv1/StyleNorm/moments/mean","op":"Mean"},{"input":["transformer/residual/residual4/dilate_conv1/separable_conv2d","transformer/residual/residual4/dilate_conv1/StyleNorm/moments/mean"],"attr":{"T":{"type":1}},"name":"transformer/residual/residual4/dilate_conv1/StyleNorm/moments/SquaredDifference","op":"SquaredDifference"},{"input":["transformer/residual/residual4/dilate_conv1/StyleNorm/moments/SquaredDifference","transformer/residual/residual1/dilate_conv1/StyleNorm/moments/mean/reduction_indices"],"attr":{"T":{"type":1},"Tidx":{"type":3},"keep_dims":{"b":true}},"name":"transformer/residual/residual4/dilate_conv1/StyleNorm/moments/variance","op":"Mean"},{"input":["transformer/residual/residual4/dilate_conv1/StyleNorm/moments/variance","transformer/residual/residual1/dilate_conv1/StyleNorm/batchnorm/add/y"],"attr":{"T":{"type":1}},"name":"transformer/residual/residual4/dilate_conv1/StyleNorm/batchnorm/add","op":"Add"},{"input":["transformer/residual/residual4/dilate_conv1/StyleNorm/batchnorm/add"],"attr":{"T":{"type":1}},"name":"transformer/residual/residual4/dilate_conv1/StyleNorm/batchnorm/Rsqrt","op":"Rsqrt"},{"input":["transformer/residual/residual4/dilate_conv1/StyleNorm/batchnorm/Rsqrt","transformer/residual/residual4/dilate_conv1/StyleNorm/ExpandDims_3"],"attr":{"T":{"type":1}},"name":"transformer/residual/residual4/dilate_conv1/StyleNorm/batchnorm/mul","op":"Mul"},{"input":["transformer/residual/residual4/dilate_conv1/separable_conv2d","transformer/residual/residual4/dilate_conv1/StyleNorm/batchnorm/mul"],"attr":{"T":{"type":1}},"name":"transformer/residual/residual4/dilate_conv1/StyleNorm/batchnorm/mul_1","op":"Mul"},{"input":["transformer/residual/residual4/dilate_conv1/StyleNorm/moments/mean","transformer/residual/residual4/dilate_conv1/StyleNorm/batchnorm/mul"],"attr":{"T":{"type":1}},"name":"transformer/residual/residual4/dilate_conv1/StyleNorm/batchnorm/mul_2","op":"Mul"},{"input":["transformer/residual/residual4/dilate_conv1/StyleNorm/ExpandDims_1","transformer/residual/residual4/dilate_conv1/StyleNorm/batchnorm/mul_2"],"attr":{"T":{"type":1}},"name":"transformer/residual/residual4/dilate_conv1/StyleNorm/batchnorm/sub","op":"Sub"},{"input":["transformer/residual/residual4/dilate_conv1/StyleNorm/batchnorm/mul_1","transformer/residual/residual4/dilate_conv1/StyleNorm/batchnorm/sub"],"attr":{"T":{"type":1}},"name":"transformer/residual/residual4/dilate_conv1/StyleNorm/batchnorm/add_1","op":"Add"},{"input":["transformer/residual/residual4/dilate_conv1/StyleNorm/batchnorm/add_1"],"attr":{"T":{"type":1}},"name":"transformer/residual/residual4/dilate_conv1/Relu","op":"Relu"},{"input":["transformer/residual/residual4/dilate_conv1/Relu","transformer/contract/Pad_1/paddings"],"attr":{"T":{"type":1},"Tpaddings":{"type":3}},"name":"transformer/residual/residual4/Pad_1","op":"Pad"},{"input":["transformer/residual/residual4/Pad_1","transformer/residual/residual4/dilate_conv2/depthwise_weights"],"attr":{"strides":{"list":{"s":[],"i":["1","1","1","1"],"f":[],"b":[],"type":[],"shape":[],"tensor":[],"func":[]}},"data_format":{"s":[78,72,87,67]},"dilations":{"list":{"s":[],"i":["1","1","1","1"],"f":[],"b":[],"type":[],"shape":[],"tensor":[],"func":[]}},"padding":{"s":[86,65,76,73,68]},"T":{"type":1}},"name":"transformer/residual/residual4/dilate_conv2/separable_conv2d/depthwise","op":"DepthwiseConv2dNative"},{"input":["transformer/residual/residual4/dilate_conv2/separable_conv2d/depthwise","transformer/residual/residual4/dilate_conv2/pointwise_weights"],"attr":{"dilations":{"list":{"s":[],"i":["1","1","1","1"],"f":[],"b":[],"type":[],"shape":[],"tensor":[],"func":[]}},"T":{"type":1},"data_format":{"s":[78,72,87,67]},"strides":{"list":{"s":[],"i":["1","1","1","1"],"f":[],"b":[],"type":[],"shape":[],"tensor":[],"func":[]}},"use_cudnn_on_gpu":{"b":true},"padding":{"s":[86,65,76,73,68]}},"name":"transformer/residual/residual4/dilate_conv2/separable_conv2d","op":"Conv2D"},{"input":["transformer/residual/residual4/dilate_conv2/separable_conv2d","transformer/residual/residual1/dilate_conv1/StyleNorm/moments/mean/reduction_indices"],"attr":{"Tidx":{"type":3},"keep_dims":{"b":true},"T":{"type":1}},"name":"transformer/residual/residual4/dilate_conv2/StyleNorm/moments/mean","op":"Mean"},{"input":["transformer/residual/residual4/dilate_conv2/separable_conv2d","transformer/residual/residual4/dilate_conv2/StyleNorm/moments/mean"],"attr":{"T":{"type":1}},"name":"transformer/residual/residual4/dilate_conv2/StyleNorm/moments/SquaredDifference","op":"SquaredDifference"},{"input":["transformer/residual/residual4/dilate_conv2/StyleNorm/moments/SquaredDifference","transformer/residual/residual1/dilate_conv1/StyleNorm/moments/mean/reduction_indices"],"attr":{"T":{"type":1},"Tidx":{"type":3},"keep_dims":{"b":true}},"name":"transformer/residual/residual4/dilate_conv2/StyleNorm/moments/variance","op":"Mean"},{"input":["transformer/residual/residual4/dilate_conv2/StyleNorm/moments/variance","transformer/residual/residual1/dilate_conv1/StyleNorm/batchnorm/add/y"],"attr":{"T":{"type":1}},"name":"transformer/residual/residual4/dilate_conv2/StyleNorm/batchnorm/add","op":"Add"},{"input":["transformer/residual/residual4/dilate_conv2/StyleNorm/batchnorm/add"],"attr":{"T":{"type":1}},"name":"transformer/residual/residual4/dilate_conv2/StyleNorm/batchnorm/Rsqrt","op":"Rsqrt"},{"input":["transformer/residual/residual4/dilate_conv2/StyleNorm/batchnorm/Rsqrt","transformer/residual/residual4/dilate_conv2/StyleNorm/ExpandDims_3"],"attr":{"T":{"type":1}},"name":"transformer/residual/residual4/dilate_conv2/StyleNorm/batchnorm/mul","op":"Mul"},{"input":["transformer/residual/residual4/dilate_conv2/separable_conv2d","transformer/residual/residual4/dilate_conv2/StyleNorm/batchnorm/mul"],"attr":{"T":{"type":1}},"name":"transformer/residual/residual4/dilate_conv2/StyleNorm/batchnorm/mul_1","op":"Mul"},{"input":["transformer/residual/residual4/dilate_conv2/StyleNorm/moments/mean","transformer/residual/residual4/dilate_conv2/StyleNorm/batchnorm/mul"],"attr":{"T":{"type":1}},"name":"transformer/residual/residual4/dilate_conv2/StyleNorm/batchnorm/mul_2","op":"Mul"},{"input":["transformer/residual/residual4/dilate_conv2/StyleNorm/ExpandDims_1","transformer/residual/residual4/dilate_conv2/StyleNorm/batchnorm/mul_2"],"attr":{"T":{"type":1}},"name":"transformer/residual/residual4/dilate_conv2/StyleNorm/batchnorm/sub","op":"Sub"},{"input":["transformer/residual/residual4/dilate_conv2/StyleNorm/batchnorm/mul_1","transformer/residual/residual4/dilate_conv2/StyleNorm/batchnorm/sub"],"attr":{"T":{"type":1}},"name":"transformer/residual/residual4/dilate_conv2/StyleNorm/batchnorm/add_1","op":"Add"},{"input":["transformer/residual/residual3/add","transformer/residual/residual4/dilate_conv2/StyleNorm/batchnorm/add_1"],"attr":{"T":{"type":1}},"name":"transformer/residual/residual4/add","op":"Add"},{"input":["transformer/residual/residual4/add","transformer/contract/Pad_1/paddings"],"attr":{"T":{"type":1},"Tpaddings":{"type":3}},"name":"transformer/residual/residual5/Pad","op":"Pad"},{"input":["transformer/residual/residual5/Pad","transformer/residual/residual5/dilate_conv1/depthwise_weights"],"attr":{"padding":{"s":[86,65,76,73,68]},"dilations":{"list":{"s":[],"i":["1","1","1","1"],"f":[],"b":[],"type":[],"shape":[],"tensor":[],"func":[]}},"T":{"type":1},"data_format":{"s":[78,72,87,67]},"strides":{"list":{"s":[],"i":["1","1","1","1"],"f":[],"b":[],"type":[],"shape":[],"tensor":[],"func":[]}}},"name":"transformer/residual/residual5/dilate_conv1/separable_conv2d/depthwise","op":"DepthwiseConv2dNative"},{"input":["transformer/residual/residual5/dilate_conv1/separable_conv2d/depthwise","transformer/residual/residual5/dilate_conv1/pointwise_weights"],"attr":{"dilations":{"list":{"s":[],"i":["1","1","1","1"],"f":[],"b":[],"type":[],"shape":[],"tensor":[],"func":[]}},"T":{"type":1},"strides":{"list":{"s":[],"i":["1","1","1","1"],"f":[],"b":[],"type":[],"shape":[],"tensor":[],"func":[]}},"data_format":{"s":[78,72,87,67]},"use_cudnn_on_gpu":{"b":true},"padding":{"s":[86,65,76,73,68]}},"name":"transformer/residual/residual5/dilate_conv1/separable_conv2d","op":"Conv2D"},{"input":["transformer/residual/residual5/dilate_conv1/separable_conv2d","transformer/residual/residual1/dilate_conv1/StyleNorm/moments/mean/reduction_indices"],"attr":{"Tidx":{"type":3},"keep_dims":{"b":true},"T":{"type":1}},"name":"transformer/residual/residual5/dilate_conv1/StyleNorm/moments/mean","op":"Mean"},{"input":["transformer/residual/residual5/dilate_conv1/separable_conv2d","transformer/residual/residual5/dilate_conv1/StyleNorm/moments/mean"],"attr":{"T":{"type":1}},"name":"transformer/residual/residual5/dilate_conv1/StyleNorm/moments/SquaredDifference","op":"SquaredDifference"},{"input":["transformer/residual/residual5/dilate_conv1/StyleNorm/moments/SquaredDifference","transformer/residual/residual1/dilate_conv1/StyleNorm/moments/mean/reduction_indices"],"attr":{"T":{"type":1},"Tidx":{"type":3},"keep_dims":{"b":true}},"name":"transformer/residual/residual5/dilate_conv1/StyleNorm/moments/variance","op":"Mean"},{"input":["transformer/residual/residual5/dilate_conv1/StyleNorm/moments/variance","transformer/residual/residual1/dilate_conv1/StyleNorm/batchnorm/add/y"],"attr":{"T":{"type":1}},"name":"transformer/residual/residual5/dilate_conv1/StyleNorm/batchnorm/add","op":"Add"},{"input":["transformer/residual/residual5/dilate_conv1/StyleNorm/batchnorm/add"],"attr":{"T":{"type":1}},"name":"transformer/residual/residual5/dilate_conv1/StyleNorm/batchnorm/Rsqrt","op":"Rsqrt"},{"input":["transformer/residual/residual5/dilate_conv1/StyleNorm/batchnorm/Rsqrt","transformer/residual/residual5/dilate_conv1/StyleNorm/ExpandDims_3"],"attr":{"T":{"type":1}},"name":"transformer/residual/residual5/dilate_conv1/StyleNorm/batchnorm/mul","op":"Mul"},{"input":["transformer/residual/residual5/dilate_conv1/separable_conv2d","transformer/residual/residual5/dilate_conv1/StyleNorm/batchnorm/mul"],"attr":{"T":{"type":1}},"name":"transformer/residual/residual5/dilate_conv1/StyleNorm/batchnorm/mul_1","op":"Mul"},{"input":["transformer/residual/residual5/dilate_conv1/StyleNorm/moments/mean","transformer/residual/residual5/dilate_conv1/StyleNorm/batchnorm/mul"],"attr":{"T":{"type":1}},"name":"transformer/residual/residual5/dilate_conv1/StyleNorm/batchnorm/mul_2","op":"Mul"},{"input":["transformer/residual/residual5/dilate_conv1/StyleNorm/ExpandDims_1","transformer/residual/residual5/dilate_conv1/StyleNorm/batchnorm/mul_2"],"attr":{"T":{"type":1}},"name":"transformer/residual/residual5/dilate_conv1/StyleNorm/batchnorm/sub","op":"Sub"},{"input":["transformer/residual/residual5/dilate_conv1/StyleNorm/batchnorm/mul_1","transformer/residual/residual5/dilate_conv1/StyleNorm/batchnorm/sub"],"attr":{"T":{"type":1}},"name":"transformer/residual/residual5/dilate_conv1/StyleNorm/batchnorm/add_1","op":"Add"},{"input":["transformer/residual/residual5/dilate_conv1/StyleNorm/batchnorm/add_1"],"attr":{"T":{"type":1}},"name":"transformer/residual/residual5/dilate_conv1/Relu","op":"Relu"},{"input":["transformer/residual/residual5/dilate_conv1/Relu","transformer/contract/Pad_1/paddings"],"attr":{"T":{"type":1},"Tpaddings":{"type":3}},"name":"transformer/residual/residual5/Pad_1","op":"Pad"},{"input":["transformer/residual/residual5/Pad_1","transformer/residual/residual5/dilate_conv2/depthwise_weights"],"attr":{"data_format":{"s":[78,72,87,67]},"strides":{"list":{"s":[],"i":["1","1","1","1"],"f":[],"b":[],"type":[],"shape":[],"tensor":[],"func":[]}},"dilations":{"list":{"s":[],"i":["1","1","1","1"],"f":[],"b":[],"type":[],"shape":[],"tensor":[],"func":[]}},"padding":{"s":[86,65,76,73,68]},"T":{"type":1}},"name":"transformer/residual/residual5/dilate_conv2/separable_conv2d/depthwise","op":"DepthwiseConv2dNative"},{"input":["transformer/residual/residual5/dilate_conv2/separable_conv2d/depthwise","transformer/residual/residual5/dilate_conv2/pointwise_weights"],"attr":{"T":{"type":1},"strides":{"list":{"s":[],"i":["1","1","1","1"],"f":[],"b":[],"type":[],"shape":[],"tensor":[],"func":[]}},"data_format":{"s":[78,72,87,67]},"use_cudnn_on_gpu":{"b":true},"padding":{"s":[86,65,76,73,68]},"dilations":{"list":{"s":[],"i":["1","1","1","1"],"f":[],"b":[],"type":[],"shape":[],"tensor":[],"func":[]}}},"name":"transformer/residual/residual5/dilate_conv2/separable_conv2d","op":"Conv2D"},{"input":["transformer/residual/residual5/dilate_conv2/separable_conv2d","transformer/residual/residual1/dilate_conv1/StyleNorm/moments/mean/reduction_indices"],"attr":{"T":{"type":1},"Tidx":{"type":3},"keep_dims":{"b":true}},"name":"transformer/residual/residual5/dilate_conv2/StyleNorm/moments/mean","op":"Mean"},{"input":["transformer/residual/residual5/dilate_conv2/separable_conv2d","transformer/residual/residual5/dilate_conv2/StyleNorm/moments/mean"],"attr":{"T":{"type":1}},"name":"transformer/residual/residual5/dilate_conv2/StyleNorm/moments/SquaredDifference","op":"SquaredDifference"},{"input":["transformer/residual/residual5/dilate_conv2/StyleNorm/moments/SquaredDifference","transformer/residual/residual1/dilate_conv1/StyleNorm/moments/mean/reduction_indices"],"attr":{"T":{"type":1},"Tidx":{"type":3},"keep_dims":{"b":true}},"name":"transformer/residual/residual5/dilate_conv2/StyleNorm/moments/variance","op":"Mean"},{"input":["transformer/residual/residual5/dilate_conv2/StyleNorm/moments/variance","transformer/residual/residual1/dilate_conv1/StyleNorm/batchnorm/add/y"],"attr":{"T":{"type":1}},"name":"transformer/residual/residual5/dilate_conv2/StyleNorm/batchnorm/add","op":"Add"},{"input":["transformer/residual/residual5/dilate_conv2/StyleNorm/batchnorm/add"],"attr":{"T":{"type":1}},"name":"transformer/residual/residual5/dilate_conv2/StyleNorm/batchnorm/Rsqrt","op":"Rsqrt"},{"input":["transformer/residual/residual5/dilate_conv2/StyleNorm/batchnorm/Rsqrt","transformer/residual/residual5/dilate_conv2/StyleNorm/ExpandDims_3"],"attr":{"T":{"type":1}},"name":"transformer/residual/residual5/dilate_conv2/StyleNorm/batchnorm/mul","op":"Mul"},{"input":["transformer/residual/residual5/dilate_conv2/separable_conv2d","transformer/residual/residual5/dilate_conv2/StyleNorm/batchnorm/mul"],"attr":{"T":{"type":1}},"name":"transformer/residual/residual5/dilate_conv2/StyleNorm/batchnorm/mul_1","op":"Mul"},{"input":["transformer/residual/residual5/dilate_conv2/StyleNorm/moments/mean","transformer/residual/residual5/dilate_conv2/StyleNorm/batchnorm/mul"],"attr":{"T":{"type":1}},"name":"transformer/residual/residual5/dilate_conv2/StyleNorm/batchnorm/mul_2","op":"Mul"},{"input":["transformer/residual/residual5/dilate_conv2/StyleNorm/ExpandDims_1","transformer/residual/residual5/dilate_conv2/StyleNorm/batchnorm/mul_2"],"attr":{"T":{"type":1}},"name":"transformer/residual/residual5/dilate_conv2/StyleNorm/batchnorm/sub","op":"Sub"},{"input":["transformer/residual/residual5/dilate_conv2/StyleNorm/batchnorm/mul_1","transformer/residual/residual5/dilate_conv2/StyleNorm/batchnorm/sub"],"attr":{"T":{"type":1}},"name":"transformer/residual/residual5/dilate_conv2/StyleNorm/batchnorm/add_1","op":"Add"},{"input":["transformer/residual/residual4/add","transformer/residual/residual5/dilate_conv2/StyleNorm/batchnorm/add_1"],"attr":{"T":{"type":1}},"name":"transformer/residual/residual5/add","op":"Add"},{"input":["transformer/residual/residual5/add"],"attr":{"T":{"type":1},"out_type":{"type":3}},"name":"transformer/expand/conv1/Shape","op":"Shape"},{"input":["transformer/expand/conv1/Shape","transformer/expand/conv3/strided_slice/stack","transformer/expand/conv3/strided_slice/stack_1","transformer/expand/conv3/strided_slice/stack"],"attr":{"shrink_axis_mask":{"i":"1"},"begin_mask":{"i":"0"},"ellipsis_mask":{"i":"0"},"new_axis_mask":{"i":"0"},"end_mask":{"i":"0"},"Index":{"type":3},"T":{"type":3}},"name":"transformer/expand/conv1/strided_slice","op":"StridedSlice"},{"input":["transformer/expand/conv1/Shape","transformer/expand/conv3/strided_slice/stack_1","transformer/expand/conv1/strided_slice_1/stack_1","transformer/expand/conv3/strided_slice/stack"],"attr":{"shrink_axis_mask":{"i":"1"},"ellipsis_mask":{"i":"0"},"begin_mask":{"i":"0"},"new_axis_mask":{"i":"0"},"end_mask":{"i":"0"},"T":{"type":3},"Index":{"type":3}},"name":"transformer/expand/conv1/strided_slice_1","op":"StridedSlice"},{"input":["transformer/expand/conv2/mul/x","transformer/expand/conv1/strided_slice"],"attr":{"T":{"type":3}},"name":"transformer/expand/conv1/mul","op":"Mul"},{"input":["transformer/expand/conv2/mul/x","transformer/expand/conv1/strided_slice_1"],"attr":{"T":{"type":3}},"name":"transformer/expand/conv1/mul_1","op":"Mul"},{"input":["transformer/expand/conv1/mul","transformer/expand/conv1/mul_1"],"attr":{"T":{"type":3},"axis":{"i":"0"},"N":{"i":"2"}},"name":"transformer/expand/conv1/ResizeNearestNeighbor/size","op":"Pack"},{"input":["transformer/residual/residual5/add","transformer/expand/conv1/ResizeNearestNeighbor/size"],"attr":{"T":{"type":1},"align_corners":{"b":false}},"name":"transformer/expand/conv1/ResizeNearestNeighbor","op":"ResizeNearestNeighbor"},{"input":["transformer/expand/conv1/ResizeNearestNeighbor","transformer/contract/Pad_1/paddings"],"attr":{"T":{"type":1},"Tpaddings":{"type":3}},"name":"transformer/expand/conv1/Pad","op":"Pad"},{"input":["transformer/expand/conv1/Pad","transformer/expand/conv1/dilate_conv/depthwise_weights"],"attr":{"data_format":{"s":[78,72,87,67]},"strides":{"list":{"s":[],"i":["1","1","1","1"],"f":[],"b":[],"type":[],"shape":[],"tensor":[],"func":[]}},"padding":{"s":[86,65,76,73,68]},"dilations":{"list":{"s":[],"i":["1","1","1","1"],"f":[],"b":[],"type":[],"shape":[],"tensor":[],"func":[]}},"T":{"type":1}},"name":"transformer/expand/conv1/dilate_conv/separable_conv2d/depthwise","op":"DepthwiseConv2dNative"},{"input":["transformer/expand/conv1/dilate_conv/separable_conv2d/depthwise","transformer/expand/conv1/dilate_conv/pointwise_weights"],"attr":{"dilations":{"list":{"s":[],"i":["1","1","1","1"],"f":[],"b":[],"type":[],"shape":[],"tensor":[],"func":[]}},"T":{"type":1},"strides":{"list":{"s":[],"i":["1","1","1","1"],"f":[],"b":[],"type":[],"shape":[],"tensor":[],"func":[]}},"data_format":{"s":[78,72,87,67]},"use_cudnn_on_gpu":{"b":true},"padding":{"s":[86,65,76,73,68]}},"name":"transformer/expand/conv1/dilate_conv/separable_conv2d","op":"Conv2D"},{"input":["transformer/expand/conv1/dilate_conv/separable_conv2d","transformer/residual/residual1/dilate_conv1/StyleNorm/moments/mean/reduction_indices"],"attr":{"T":{"type":1},"Tidx":{"type":3},"keep_dims":{"b":true}},"name":"transformer/expand/conv1/dilate_conv/StyleNorm/moments/mean","op":"Mean"},{"input":["transformer/expand/conv1/dilate_conv/separable_conv2d","transformer/expand/conv1/dilate_conv/StyleNorm/moments/mean"],"attr":{"T":{"type":1}},"name":"transformer/expand/conv1/dilate_conv/StyleNorm/moments/SquaredDifference","op":"SquaredDifference"},{"input":["transformer/expand/conv1/dilate_conv/StyleNorm/moments/SquaredDifference","transformer/residual/residual1/dilate_conv1/StyleNorm/moments/mean/reduction_indices"],"attr":{"Tidx":{"type":3},"keep_dims":{"b":true},"T":{"type":1}},"name":"transformer/expand/conv1/dilate_conv/StyleNorm/moments/variance","op":"Mean"},{"input":["transformer/expand/conv1/dilate_conv/StyleNorm/moments/variance","transformer/residual/residual1/dilate_conv1/StyleNorm/batchnorm/add/y"],"attr":{"T":{"type":1}},"name":"transformer/expand/conv1/dilate_conv/StyleNorm/batchnorm/add","op":"Add"},{"input":["transformer/expand/conv1/dilate_conv/StyleNorm/batchnorm/add"],"attr":{"T":{"type":1}},"name":"transformer/expand/conv1/dilate_conv/StyleNorm/batchnorm/Rsqrt","op":"Rsqrt"},{"input":["transformer/expand/conv1/dilate_conv/StyleNorm/batchnorm/Rsqrt","transformer/expand/conv1/dilate_conv/StyleNorm/ExpandDims_3"],"attr":{"T":{"type":1}},"name":"transformer/expand/conv1/dilate_conv/StyleNorm/batchnorm/mul","op":"Mul"},{"input":["transformer/expand/conv1/dilate_conv/separable_conv2d","transformer/expand/conv1/dilate_conv/StyleNorm/batchnorm/mul"],"attr":{"T":{"type":1}},"name":"transformer/expand/conv1/dilate_conv/StyleNorm/batchnorm/mul_1","op":"Mul"},{"input":["transformer/expand/conv1/dilate_conv/StyleNorm/moments/mean","transformer/expand/conv1/dilate_conv/StyleNorm/batchnorm/mul"],"attr":{"T":{"type":1}},"name":"transformer/expand/conv1/dilate_conv/StyleNorm/batchnorm/mul_2","op":"Mul"},{"input":["transformer/expand/conv1/dilate_conv/StyleNorm/ExpandDims_1","transformer/expand/conv1/dilate_conv/StyleNorm/batchnorm/mul_2"],"attr":{"T":{"type":1}},"name":"transformer/expand/conv1/dilate_conv/StyleNorm/batchnorm/sub","op":"Sub"},{"input":["transformer/expand/conv1/dilate_conv/StyleNorm/batchnorm/mul_1","transformer/expand/conv1/dilate_conv/StyleNorm/batchnorm/sub"],"attr":{"T":{"type":1}},"name":"transformer/expand/conv1/dilate_conv/StyleNorm/batchnorm/add_1","op":"Add"},{"input":["transformer/expand/conv1/dilate_conv/StyleNorm/batchnorm/add_1"],"attr":{"T":{"type":1}},"name":"transformer/expand/conv1/dilate_conv/Relu","op":"Relu"},{"input":["transformer/expand/conv1/dilate_conv/Relu"],"attr":{"T":{"type":1},"out_type":{"type":3}},"name":"transformer/expand/conv2/Shape","op":"Shape"},{"input":["transformer/expand/conv2/Shape","transformer/expand/conv3/strided_slice/stack","transformer/expand/conv3/strided_slice/stack_1","transformer/expand/conv3/strided_slice/stack"],"attr":{"begin_mask":{"i":"0"},"ellipsis_mask":{"i":"0"},"new_axis_mask":{"i":"0"},"end_mask":{"i":"0"},"Index":{"type":3},"T":{"type":3},"shrink_axis_mask":{"i":"1"}},"name":"transformer/expand/conv2/strided_slice","op":"StridedSlice"},{"input":["transformer/expand/conv2/Shape","transformer/expand/conv3/strided_slice/stack_1","transformer/expand/conv1/strided_slice_1/stack_1","transformer/expand/conv3/strided_slice/stack"],"attr":{"shrink_axis_mask":{"i":"1"},"ellipsis_mask":{"i":"0"},"begin_mask":{"i":"0"},"new_axis_mask":{"i":"0"},"end_mask":{"i":"0"},"T":{"type":3},"Index":{"type":3}},"name":"transformer/expand/conv2/strided_slice_1","op":"StridedSlice"},{"input":["transformer/expand/conv2/mul/x","transformer/expand/conv2/strided_slice"],"attr":{"T":{"type":3}},"name":"transformer/expand/conv2/mul","op":"Mul"},{"input":["transformer/expand/conv2/mul/x","transformer/expand/conv2/strided_slice_1"],"attr":{"T":{"type":3}},"name":"transformer/expand/conv2/mul_1","op":"Mul"},{"input":["transformer/expand/conv2/mul","transformer/expand/conv2/mul_1"],"attr":{"T":{"type":3},"axis":{"i":"0"},"N":{"i":"2"}},"name":"transformer/expand/conv2/ResizeNearestNeighbor/size","op":"Pack"},{"input":["transformer/expand/conv1/dilate_conv/Relu","transformer/expand/conv2/ResizeNearestNeighbor/size"],"attr":{"align_corners":{"b":false},"T":{"type":1}},"name":"transformer/expand/conv2/ResizeNearestNeighbor","op":"ResizeNearestNeighbor"},{"input":["transformer/expand/conv2/ResizeNearestNeighbor","transformer/contract/Pad_1/paddings"],"attr":{"Tpaddings":{"type":3},"T":{"type":1}},"name":"transformer/expand/conv2/Pad","op":"Pad"},{"input":["transformer/expand/conv2/Pad","transformer/expand/conv2/dilate_conv/depthwise_weights"],"attr":{"T":{"type":1},"data_format":{"s":[78,72,87,67]},"strides":{"list":{"s":[],"i":["1","1","1","1"],"f":[],"b":[],"type":[],"shape":[],"tensor":[],"func":[]}},"padding":{"s":[86,65,76,73,68]},"dilations":{"list":{"s":[],"i":["1","1","1","1"],"f":[],"b":[],"type":[],"shape":[],"tensor":[],"func":[]}}},"name":"transformer/expand/conv2/dilate_conv/separable_conv2d/depthwise","op":"DepthwiseConv2dNative"},{"input":["transformer/expand/conv2/dilate_conv/separable_conv2d/depthwise","transformer/expand/conv2/dilate_conv/pointwise_weights"],"attr":{"T":{"type":1},"data_format":{"s":[78,72,87,67]},"strides":{"list":{"s":[],"i":["1","1","1","1"],"f":[],"b":[],"type":[],"shape":[],"tensor":[],"func":[]}},"use_cudnn_on_gpu":{"b":true},"padding":{"s":[86,65,76,73,68]},"dilations":{"list":{"s":[],"i":["1","1","1","1"],"f":[],"b":[],"type":[],"shape":[],"tensor":[],"func":[]}}},"name":"transformer/expand/conv2/dilate_conv/separable_conv2d","op":"Conv2D"},{"input":["transformer/expand/conv2/dilate_conv/separable_conv2d","transformer/residual/residual1/dilate_conv1/StyleNorm/moments/mean/reduction_indices"],"attr":{"Tidx":{"type":3},"keep_dims":{"b":true},"T":{"type":1}},"name":"transformer/expand/conv2/dilate_conv/StyleNorm/moments/mean","op":"Mean"},{"input":["transformer/expand/conv2/dilate_conv/separable_conv2d","transformer/expand/conv2/dilate_conv/StyleNorm/moments/mean"],"attr":{"T":{"type":1}},"name":"transformer/expand/conv2/dilate_conv/StyleNorm/moments/SquaredDifference","op":"SquaredDifference"},{"input":["transformer/expand/conv2/dilate_conv/StyleNorm/moments/SquaredDifference","transformer/residual/residual1/dilate_conv1/StyleNorm/moments/mean/reduction_indices"],"attr":{"T":{"type":1},"Tidx":{"type":3},"keep_dims":{"b":true}},"name":"transformer/expand/conv2/dilate_conv/StyleNorm/moments/variance","op":"Mean"},{"input":["transformer/expand/conv2/dilate_conv/StyleNorm/moments/variance","transformer/residual/residual1/dilate_conv1/StyleNorm/batchnorm/add/y"],"attr":{"T":{"type":1}},"name":"transformer/expand/conv2/dilate_conv/StyleNorm/batchnorm/add","op":"Add"},{"input":["transformer/expand/conv2/dilate_conv/StyleNorm/batchnorm/add"],"attr":{"T":{"type":1}},"name":"transformer/expand/conv2/dilate_conv/StyleNorm/batchnorm/Rsqrt","op":"Rsqrt"},{"input":["transformer/expand/conv2/dilate_conv/StyleNorm/batchnorm/Rsqrt","transformer/expand/conv2/dilate_conv/StyleNorm/ExpandDims_3"],"attr":{"T":{"type":1}},"name":"transformer/expand/conv2/dilate_conv/StyleNorm/batchnorm/mul","op":"Mul"},{"input":["transformer/expand/conv2/dilate_conv/separable_conv2d","transformer/expand/conv2/dilate_conv/StyleNorm/batchnorm/mul"],"attr":{"T":{"type":1}},"name":"transformer/expand/conv2/dilate_conv/StyleNorm/batchnorm/mul_1","op":"Mul"},{"input":["transformer/expand/conv2/dilate_conv/StyleNorm/moments/mean","transformer/expand/conv2/dilate_conv/StyleNorm/batchnorm/mul"],"attr":{"T":{"type":1}},"name":"transformer/expand/conv2/dilate_conv/StyleNorm/batchnorm/mul_2","op":"Mul"},{"input":["transformer/expand/conv2/dilate_conv/StyleNorm/ExpandDims_1","transformer/expand/conv2/dilate_conv/StyleNorm/batchnorm/mul_2"],"attr":{"T":{"type":1}},"name":"transformer/expand/conv2/dilate_conv/StyleNorm/batchnorm/sub","op":"Sub"},{"input":["transformer/expand/conv2/dilate_conv/StyleNorm/batchnorm/mul_1","transformer/expand/conv2/dilate_conv/StyleNorm/batchnorm/sub"],"attr":{"T":{"type":1}},"name":"transformer/expand/conv2/dilate_conv/StyleNorm/batchnorm/add_1","op":"Add"},{"input":["transformer/expand/conv2/dilate_conv/StyleNorm/batchnorm/add_1"],"attr":{"T":{"type":1}},"name":"transformer/expand/conv2/dilate_conv/Relu","op":"Relu"},{"input":["transformer/expand/conv2/dilate_conv/Relu"],"attr":{"T":{"type":1},"out_type":{"type":3}},"name":"transformer/expand/conv3/Shape","op":"Shape"},{"input":["transformer/expand/conv3/Shape","transformer/expand/conv3/strided_slice/stack","transformer/expand/conv3/strided_slice/stack_1","transformer/expand/conv3/strided_slice/stack"],"attr":{"Index":{"type":3},"T":{"type":3},"shrink_axis_mask":{"i":"1"},"ellipsis_mask":{"i":"0"},"begin_mask":{"i":"0"},"new_axis_mask":{"i":"0"},"end_mask":{"i":"0"}},"name":"transformer/expand/conv3/strided_slice","op":"StridedSlice"},{"input":["transformer/expand/conv3/Shape","transformer/expand/conv3/strided_slice/stack_1","transformer/expand/conv1/strided_slice_1/stack_1","transformer/expand/conv3/strided_slice/stack"],"attr":{"ellipsis_mask":{"i":"0"},"begin_mask":{"i":"0"},"new_axis_mask":{"i":"0"},"end_mask":{"i":"0"},"T":{"type":3},"Index":{"type":3},"shrink_axis_mask":{"i":"1"}},"name":"transformer/expand/conv3/strided_slice_1","op":"StridedSlice"},{"input":["transformer/expand/conv3/strided_slice","transformer/expand/conv3/strided_slice_1"],"attr":{"T":{"type":3},"axis":{"i":"0"},"N":{"i":"2"}},"name":"transformer/expand/conv3/ResizeNearestNeighbor/size","op":"Pack"},{"input":["transformer/expand/conv2/dilate_conv/Relu","transformer/expand/conv3/ResizeNearestNeighbor/size"],"attr":{"align_corners":{"b":false},"T":{"type":1}},"name":"transformer/expand/conv3/ResizeNearestNeighbor","op":"ResizeNearestNeighbor"},{"input":["transformer/expand/conv3/ResizeNearestNeighbor","transformer/contract/Pad/paddings"],"attr":{"T":{"type":1},"Tpaddings":{"type":3}},"name":"transformer/expand/conv3/Pad","op":"Pad"},{"input":["transformer/expand/conv3/Pad","transformer/expand/conv3/dilate_conv/depthwise_weights"],"attr":{"dilations":{"list":{"s":[],"i":["1","1","1","1"],"f":[],"b":[],"type":[],"shape":[],"tensor":[],"func":[]}},"padding":{"s":[86,65,76,73,68]},"T":{"type":1},"data_format":{"s":[78,72,87,67]},"strides":{"list":{"s":[],"i":["1","1","1","1"],"f":[],"b":[],"type":[],"shape":[],"tensor":[],"func":[]}}},"name":"transformer/expand/conv3/dilate_conv/separable_conv2d/depthwise","op":"DepthwiseConv2dNative"},{"input":["transformer/expand/conv3/dilate_conv/separable_conv2d/depthwise","transformer/expand/conv3/dilate_conv/pointwise_weights"],"attr":{"padding":{"s":[86,65,76,73,68]},"dilations":{"list":{"s":[],"i":["1","1","1","1"],"f":[],"b":[],"type":[],"shape":[],"tensor":[],"func":[]}},"T":{"type":1},"data_format":{"s":[78,72,87,67]},"strides":{"list":{"s":[],"i":["1","1","1","1"],"f":[],"b":[],"type":[],"shape":[],"tensor":[],"func":[]}},"use_cudnn_on_gpu":{"b":true}},"name":"transformer/expand/conv3/dilate_conv/separable_conv2d","op":"Conv2D"},{"input":["transformer/expand/conv3/dilate_conv/separable_conv2d","transformer/residual/residual1/dilate_conv1/StyleNorm/moments/mean/reduction_indices"],"attr":{"Tidx":{"type":3},"keep_dims":{"b":true},"T":{"type":1}},"name":"transformer/expand/conv3/dilate_conv/StyleNorm/moments/mean","op":"Mean"},{"input":["transformer/expand/conv3/dilate_conv/separable_conv2d","transformer/expand/conv3/dilate_conv/StyleNorm/moments/mean"],"attr":{"T":{"type":1}},"name":"transformer/expand/conv3/dilate_conv/StyleNorm/moments/SquaredDifference","op":"SquaredDifference"},{"input":["transformer/expand/conv3/dilate_conv/StyleNorm/moments/SquaredDifference","transformer/residual/residual1/dilate_conv1/StyleNorm/moments/mean/reduction_indices"],"attr":{"Tidx":{"type":3},"keep_dims":{"b":true},"T":{"type":1}},"name":"transformer/expand/conv3/dilate_conv/StyleNorm/moments/variance","op":"Mean"},{"input":["transformer/expand/conv3/dilate_conv/StyleNorm/moments/variance","transformer/residual/residual1/dilate_conv1/StyleNorm/batchnorm/add/y"],"attr":{"T":{"type":1}},"name":"transformer/expand/conv3/dilate_conv/StyleNorm/batchnorm/add","op":"Add"},{"input":["transformer/expand/conv3/dilate_conv/StyleNorm/batchnorm/add"],"attr":{"T":{"type":1}},"name":"transformer/expand/conv3/dilate_conv/StyleNorm/batchnorm/Rsqrt","op":"Rsqrt"},{"input":["transformer/expand/conv3/dilate_conv/StyleNorm/batchnorm/Rsqrt","transformer/expand/conv3/dilate_conv/StyleNorm/ExpandDims_3"],"attr":{"T":{"type":1}},"name":"transformer/expand/conv3/dilate_conv/StyleNorm/batchnorm/mul","op":"Mul"},{"input":["transformer/expand/conv3/dilate_conv/separable_conv2d","transformer/expand/conv3/dilate_conv/StyleNorm/batchnorm/mul"],"attr":{"T":{"type":1}},"name":"transformer/expand/conv3/dilate_conv/StyleNorm/batchnorm/mul_1","op":"Mul"},{"input":["transformer/expand/conv3/dilate_conv/StyleNorm/moments/mean","transformer/expand/conv3/dilate_conv/StyleNorm/batchnorm/mul"],"attr":{"T":{"type":1}},"name":"transformer/expand/conv3/dilate_conv/StyleNorm/batchnorm/mul_2","op":"Mul"},{"input":["transformer/expand/conv3/dilate_conv/StyleNorm/ExpandDims_1","transformer/expand/conv3/dilate_conv/StyleNorm/batchnorm/mul_2"],"attr":{"T":{"type":1}},"name":"transformer/expand/conv3/dilate_conv/StyleNorm/batchnorm/sub","op":"Sub"},{"input":["transformer/expand/conv3/dilate_conv/StyleNorm/batchnorm/mul_1","transformer/expand/conv3/dilate_conv/StyleNorm/batchnorm/sub"],"attr":{"T":{"type":1}},"name":"transformer/expand/conv3/dilate_conv/StyleNorm/batchnorm/add_1","op":"Add"},{"input":["transformer/expand/conv3/dilate_conv/StyleNorm/batchnorm/add_1"],"attr":{"T":{"type":1}},"name":"transformer/expand/conv3/dilate_conv/Sigmoid","op":"Sigmoid"}],"library":{"function":[],"gradient":[]},"versions":{"badConsumers":[]}},"weightsManifest":[{"paths":["group1-shard1of1"],"weights":[{"name":"style_params/transformer/expand/conv3/conv/StyleNorm/Conv/weights","shape":[1,1,100,3],"dtype":"float32"},{"name":"style_params/transformer/expand/conv3/conv/StyleNorm/Conv/biases","shape":[3],"dtype":"float32"},{"name":"style_params/transformer/expand/conv2/conv/StyleNorm/Conv/weights","shape":[1,1,100,32],"dtype":"float32"},{"name":"style_params/transformer/expand/conv2/conv/StyleNorm/Conv/biases","shape":[32],"dtype":"float32"},{"name":"style_params/transformer/expand/conv1/conv/StyleNorm/Conv/weights","shape":[1,1,100,64],"dtype":"float32"},{"name":"style_params/transformer/expand/conv1/conv/StyleNorm/Conv/biases","shape":[64],"dtype":"float32"},{"name":"transformer/expand/conv2/mul/x","shape":[],"dtype":"int32"},{"name":"style_params/transformer/residual/residual5/conv2/StyleNorm/Conv/weights","shape":[1,1,100,128],"dtype":"float32"},{"name":"style_params/transformer/residual/residual5/conv2/StyleNorm/Conv/biases","shape":[128],"dtype":"float32"},{"name":"style_params/transformer/residual/residual5/conv1/StyleNorm/Conv/weights","shape":[1,1,100,128],"dtype":"float32"},{"name":"style_params/transformer/residual/residual5/conv1/StyleNorm/Conv/biases","shape":[128],"dtype":"float32"},{"name":"style_params/transformer/residual/residual4/conv2/StyleNorm/Conv/weights","shape":[1,1,100,128],"dtype":"float32"},{"name":"style_params/transformer/residual/residual4/conv2/StyleNorm/Conv/biases","shape":[128],"dtype":"float32"},{"name":"style_params/transformer/residual/residual4/conv1/StyleNorm/Conv/weights","shape":[1,1,100,128],"dtype":"float32"},{"name":"style_params/transformer/residual/residual4/conv1/StyleNorm/Conv/biases","shape":[128],"dtype":"float32"},{"name":"style_params/transformer/residual/residual3/conv2/StyleNorm/Conv/weights","shape":[1,1,100,128],"dtype":"float32"},{"name":"style_params/transformer/residual/residual3/conv2/StyleNorm/Conv/biases","shape":[128],"dtype":"float32"},{"name":"style_params/transformer/residual/residual3/conv1/StyleNorm/Conv/weights","shape":[1,1,100,128],"dtype":"float32"},{"name":"style_params/transformer/residual/residual3/conv1/StyleNorm/Conv/biases","shape":[128],"dtype":"float32"},{"name":"style_params/transformer/residual/residual2/conv2/StyleNorm/Conv/weights","shape":[1,1,100,128],"dtype":"float32"},{"name":"style_params/transformer/residual/residual2/conv2/StyleNorm/Conv/biases","shape":[128],"dtype":"float32"},{"name":"style_params/transformer/residual/residual2/conv1/StyleNorm/Conv/weights","shape":[1,1,100,128],"dtype":"float32"},{"name":"style_params/transformer/residual/residual2/conv1/StyleNorm/Conv/biases","shape":[128],"dtype":"float32"},{"name":"style_params/transformer/residual/residual1/conv2/StyleNorm/Conv/weights","shape":[1,1,100,128],"dtype":"float32"},{"name":"style_params/transformer/residual/residual1/conv2/StyleNorm/Conv/biases","shape":[128],"dtype":"float32"},{"name":"style_params/transformer/residual/residual1/conv1/StyleNorm/Conv/weights","shape":[1,1,100,128],"dtype":"float32"},{"name":"style_params/transformer/residual/residual1/conv1/StyleNorm/Conv/biases","shape":[128],"dtype":"float32"},{"name":"transformer/contract/conv1/weights","shape":[9,9,3,32],"dtype":"float32"},{"name":"transformer/contract/conv1/BatchNorm/Const","shape":[32],"dtype":"float32"},{"name":"transformer/contract/conv1/BatchNorm/beta","shape":[32],"dtype":"float32"},{"name":"transformer/contract/conv1/BatchNorm/moving_mean","shape":[32],"dtype":"float32"},{"name":"transformer/contract/conv1/BatchNorm/moving_variance","shape":[32],"dtype":"float32"},{"name":"transformer/contract/conv2/weights","shape":[3,3,32,64],"dtype":"float32"},{"name":"transformer/contract/conv2/BatchNorm/Const","shape":[64],"dtype":"float32"},{"name":"transformer/contract/conv2/BatchNorm/beta","shape":[64],"dtype":"float32"},{"name":"transformer/contract/conv2/BatchNorm/moving_mean","shape":[64],"dtype":"float32"},{"name":"transformer/contract/conv2/BatchNorm/moving_variance","shape":[64],"dtype":"float32"},{"name":"transformer/contract/conv3/weights","shape":[3,3,64,128],"dtype":"float32"},{"name":"transformer/contract/conv3/BatchNorm/Const","shape":[128],"dtype":"float32"},{"name":"transformer/contract/conv3/BatchNorm/beta","shape":[128],"dtype":"float32"},{"name":"transformer/contract/conv3/BatchNorm/moving_mean","shape":[128],"dtype":"float32"},{"name":"transformer/contract/conv3/BatchNorm/moving_variance","shape":[128],"dtype":"float32"},{"name":"transformer/residual/residual1/dilate_conv1/depthwise_weights","shape":[3,3,128,1],"dtype":"float32"},{"name":"transformer/residual/residual1/dilate_conv1/pointwise_weights","shape":[1,1,128,128],"dtype":"float32"},{"name":"style_params/transformer/residual/residual1/conv1/StyleNorm/Conv_1/weights","shape":[1,1,100,128],"dtype":"float32"},{"name":"style_params/transformer/residual/residual1/conv1/StyleNorm/Conv_1/biases","shape":[128],"dtype":"float32"},{"name":"transformer/residual/residual1/dilate_conv2/depthwise_weights","shape":[3,3,128,1],"dtype":"float32"},{"name":"transformer/residual/residual1/dilate_conv2/pointwise_weights","shape":[1,1,128,128],"dtype":"float32"},{"name":"style_params/transformer/residual/residual1/conv2/StyleNorm/Conv_1/weights","shape":[1,1,100,128],"dtype":"float32"},{"name":"style_params/transformer/residual/residual1/conv2/StyleNorm/Conv_1/biases","shape":[128],"dtype":"float32"},{"name":"transformer/residual/residual2/dilate_conv1/depthwise_weights","shape":[3,3,128,1],"dtype":"float32"},{"name":"transformer/residual/residual2/dilate_conv1/pointwise_weights","shape":[1,1,128,128],"dtype":"float32"},{"name":"style_params/transformer/residual/residual2/conv1/StyleNorm/Conv_1/weights","shape":[1,1,100,128],"dtype":"float32"},{"name":"style_params/transformer/residual/residual2/conv1/StyleNorm/Conv_1/biases","shape":[128],"dtype":"float32"},{"name":"transformer/residual/residual2/dilate_conv2/depthwise_weights","shape":[3,3,128,1],"dtype":"float32"},{"name":"transformer/residual/residual2/dilate_conv2/pointwise_weights","shape":[1,1,128,128],"dtype":"float32"},{"name":"style_params/transformer/residual/residual2/conv2/StyleNorm/Conv_1/weights","shape":[1,1,100,128],"dtype":"float32"},{"name":"style_params/transformer/residual/residual2/conv2/StyleNorm/Conv_1/biases","shape":[128],"dtype":"float32"},{"name":"transformer/residual/residual3/dilate_conv1/depthwise_weights","shape":[3,3,128,1],"dtype":"float32"},{"name":"transformer/residual/residual3/dilate_conv1/pointwise_weights","shape":[1,1,128,128],"dtype":"float32"},{"name":"style_params/transformer/residual/residual3/conv1/StyleNorm/Conv_1/weights","shape":[1,1,100,128],"dtype":"float32"},{"name":"style_params/transformer/residual/residual3/conv1/StyleNorm/Conv_1/biases","shape":[128],"dtype":"float32"},{"name":"transformer/residual/residual3/dilate_conv2/depthwise_weights","shape":[3,3,128,1],"dtype":"float32"},{"name":"transformer/residual/residual3/dilate_conv2/pointwise_weights","shape":[1,1,128,128],"dtype":"float32"},{"name":"style_params/transformer/residual/residual3/conv2/StyleNorm/Conv_1/weights","shape":[1,1,100,128],"dtype":"float32"},{"name":"style_params/transformer/residual/residual3/conv2/StyleNorm/Conv_1/biases","shape":[128],"dtype":"float32"},{"name":"transformer/residual/residual4/dilate_conv1/depthwise_weights","shape":[3,3,128,1],"dtype":"float32"},{"name":"transformer/residual/residual4/dilate_conv1/pointwise_weights","shape":[1,1,128,128],"dtype":"float32"},{"name":"style_params/transformer/residual/residual4/conv1/StyleNorm/Conv_1/weights","shape":[1,1,100,128],"dtype":"float32"},{"name":"style_params/transformer/residual/residual4/conv1/StyleNorm/Conv_1/biases","shape":[128],"dtype":"float32"},{"name":"transformer/residual/residual4/dilate_conv2/depthwise_weights","shape":[3,3,128,1],"dtype":"float32"},{"name":"transformer/residual/residual4/dilate_conv2/pointwise_weights","shape":[1,1,128,128],"dtype":"float32"},{"name":"style_params/transformer/residual/residual4/conv2/StyleNorm/Conv_1/weights","shape":[1,1,100,128],"dtype":"float32"},{"name":"style_params/transformer/residual/residual4/conv2/StyleNorm/Conv_1/biases","shape":[128],"dtype":"float32"},{"name":"transformer/residual/residual5/dilate_conv1/depthwise_weights","shape":[3,3,128,1],"dtype":"float32"},{"name":"transformer/residual/residual5/dilate_conv1/pointwise_weights","shape":[1,1,128,128],"dtype":"float32"},{"name":"style_params/transformer/residual/residual5/conv1/StyleNorm/Conv_1/weights","shape":[1,1,100,128],"dtype":"float32"},{"name":"style_params/transformer/residual/residual5/conv1/StyleNorm/Conv_1/biases","shape":[128],"dtype":"float32"},{"name":"transformer/residual/residual5/dilate_conv2/depthwise_weights","shape":[3,3,128,1],"dtype":"float32"},{"name":"transformer/residual/residual5/dilate_conv2/pointwise_weights","shape":[1,1,128,128],"dtype":"float32"},{"name":"style_params/transformer/residual/residual5/conv2/StyleNorm/Conv_1/weights","shape":[1,1,100,128],"dtype":"float32"},{"name":"style_params/transformer/residual/residual5/conv2/StyleNorm/Conv_1/biases","shape":[128],"dtype":"float32"},{"name":"transformer/expand/conv1/dilate_conv/depthwise_weights","shape":[3,3,128,1],"dtype":"float32"},{"name":"transformer/expand/conv1/dilate_conv/pointwise_weights","shape":[1,1,128,64],"dtype":"float32"},{"name":"style_params/transformer/expand/conv1/conv/StyleNorm/Conv_1/weights","shape":[1,1,100,64],"dtype":"float32"},{"name":"style_params/transformer/expand/conv1/conv/StyleNorm/Conv_1/biases","shape":[64],"dtype":"float32"},{"name":"transformer/contract/Pad_1/paddings","shape":[4,2],"dtype":"int32"},{"name":"transformer/expand/conv2/dilate_conv/depthwise_weights","shape":[3,3,64,1],"dtype":"float32"},{"name":"transformer/expand/conv2/dilate_conv/pointwise_weights","shape":[1,1,64,32],"dtype":"float32"},{"name":"style_params/transformer/expand/conv2/conv/StyleNorm/Conv_1/weights","shape":[1,1,100,32],"dtype":"float32"},{"name":"style_params/transformer/expand/conv2/conv/StyleNorm/Conv_1/biases","shape":[32],"dtype":"float32"},{"name":"transformer/expand/conv3/strided_slice/stack_1","shape":[1],"dtype":"int32"},{"name":"transformer/expand/conv1/strided_slice_1/stack_1","shape":[1],"dtype":"int32"},{"name":"transformer/expand/conv3/strided_slice/stack","shape":[1],"dtype":"int32"},{"name":"transformer/contract/Pad/paddings","shape":[4,2],"dtype":"int32"},{"name":"transformer/expand/conv3/dilate_conv/depthwise_weights","shape":[9,9,32,1],"dtype":"float32"},{"name":"transformer/expand/conv3/dilate_conv/pointwise_weights","shape":[1,1,32,3],"dtype":"float32"},{"name":"transformer/residual/residual1/dilate_conv1/StyleNorm/moments/mean/reduction_indices","shape":[2],"dtype":"int32"},{"name":"transformer/residual/residual1/dilate_conv1/StyleNorm/batchnorm/add/y","shape":[],"dtype":"float32"},{"name":"style_params/transformer/expand/conv3/conv/StyleNorm/Conv_1/weights","shape":[1,1,100,3],"dtype":"float32"},{"name":"style_params/transformer/expand/conv3/conv/StyleNorm/Conv_1/biases","shape":[3],"dtype":"float32"},{"name":"transformer/expand/conv3/dilate_conv/StyleNorm/ExpandDims/dim","shape":[],"dtype":"int32"}]}]}